logs/limx_arm/SF_TRON1A_ARM/exported/policies/encoder.onnx (onnx, 340090 bytes, 6 tensors)

encoder.0.bias f4 [256]
-0.13684073 -0.25341064 0.16618747 -1.3850908 0.0703157 -0.17318423 0.031251345 -1.5502089
-0.19488055 -5.0002804 -0.13858283 1.0605175 0.0077227373 -0.1677132 -0.039334636 0.20890354
-0.27365914 -4.2893195 0.20364176 -0.6636965 -1.6724097 -3.424612 -0.3763063 -0.04184825
1.3470666 -0.49360603 0.029660467 -0.045910195 -0.26197806 -0.31936687 -1.5970953 -3.123863
-0.49391448 -0.46888217 -0.3566434 -0.1685438 -0.16198362 -0.19912636 -1.2749648 -0.6071018
-0.32863343 -0.30924907 -1.0652562 0.053083394 -0.1523294 0.43822914 -1.7027869 -0.47042817
-0.7463087 -1.5059541 -0.19278027 -2.5706716 0.03689788 -1.1281247 -0.09237432 -0.240726
-1.8749065 -0.514357 -0.024043294 -0.56618 -0.103875995 0.088791944 -0.14519362 -0.5061443
-0.1397244 0.7475942 -0.321874 -0.44018286 -2.6008499 -0.5463603 -2.3240786 -0.06444002
0.16383024 -0.21899235 0.10819609 -0.15055624 -0.30640477 -1.8911891 -1.0864106 0.11522896
-0.40559676 -1.1500554 -0.53688836 -0.26661977 -2.4454064 -0.12249386 0.21181165 0.07224144
-0.50431514 -0.13106929 -0.17895001 0.060074467 -0.22040312 -0.10704673 -1.2704651 0.3947622
0.17728634 -0.2652603 -1.0757753 -0.31706133 -1.379205 -0.42686546 0.056130365 -0.27077517
-0.42053825 -0.03874254 -0.1271756 0.20693408 -0.17823589 -1.9238048 0.11398095 -0.41558993
-0.38037398 0.081893586 -0.29825917 -3.864933 0.017835908 0.07013285 0.013761369 -0.06271039
-0.29948053 -0.040240586 -0.64506125 0.49220052 -0.35307577 0.048313826 -0.07361716 0.13686949
0.018055653 0.044236068 -2.2330256 -0.14065795 0.1499903 0.028059598 -0.10501838 -0.006764644
0.103841566 -0.48954785 -0.4927057 0.07764516 0.009834153 -2.1540322 -1.8816713 -0.1637698
-0.28425282 -0.47419956 -0.5684703 0.11328375 -0.0057245456 0.21421349 0.110932656 -0.14917977
-0.56950754 -0.3732278 -2.630159 -0.90491384 -0.12351335 -0.042226065 -0.87210613 -0.07751348
-0.03262381 0.24038844 -0.050699856 -0.29327005 -1.0746677 -0.20016599 -0.60735285 -1.019593
0.049223617 -1.3039327 -1.7498894 -1.839858 0.6352785 -0.47332063 -0.15581417 -0.13794723
-0.17552742 -0.059065472 -1.4367455 0.32966414 0.03629903 -0.1709267 -0.35256845 -0.8487578
-0.039240103 -0.59514785 0.22453818 -0.03764859 0.037252862 0.12700501 -0.27787545 -0.20339386
-0.19402803 -0.33235314 -0.27265504 -0.43183646 0.02701625 -0.38083127 -0.15258889 -0.3300834
-0.33505607 -0.034841366 -1.236952 -3.4663692 -1.8484362 -1.7172707 -0.580869 -5.732497
-0.40439004 0.08938442 0.0071168933 -0.34647045 -0.8372874 -0.07271265 0.007068696 -0.19879562
-0.5025266 -0.060186155 0.074753344 0.12850653 -0.35059404 -0.1641117 -0.36497155 -0.1548698
-0.18452656 -0.31714287 -0.48620078 -0.010335986 0.7439223 -0.18622075 -0.10749982 -0.61066675
-0.043113578 0.03929675 -0.4028916 -0.45999616 0.008141486 -0.024561265 -0.06161675 0.04678532
-0.06648542 -0.6249704 0.06684913 -1.0774716 -0.48358944 -0.37501556 -1.1592133 -0.24890777
0.029815618 -1.9966686 0.059658438 -0.62070346 -0.46741256 -0.018621685 -0.20764455 -0.5502981
00000000: fa1f 0cbe 0abf 81be 0c2d 2a3e a84a b1bf
00000010: ad01 903d 3557 31be 6901 003d 3f6d c6bf
00000020: c48e 47be 4c02 a0c0 a8e8 0dbe 0abf 873f
00000030: 040f fd3b 02bd 2bbe 5b1d 21bd cfea 553e
00000040: 0d1d 8cbe 1b42 89c0 7787 503e 04e8 29bf
00000050: 8511 d6bf d82c 5bc0 38ab c0be 1269 2bbd
00000060: ae6c ac3f eeb9 fcbe 82fa f23c 540c 3cbd
00000070: fd21 86be 0e84 a3be 9e6d ccbf 5fed 47c0
00000080: 5ce2 fcbe 5311 f0be f799 b6be bf96 2cbe
00000090: 09df 25be c8e7 4bbe 0c32 a3bf 066b 1bbf
000000a0: a442 a8be e555 9ebe 515a 88bf f96d 593d
000000b0: 3dfc 1bbe 925f e03e ecf4 d9bf f6db f0be
000000c0: 160e 3fbf 1bc3 c0bf 3168 45be e285 24c0
000000d0: 3b22 173d 6466 90bf bf2e bdbd e080 76be
000000e0: f0fc efbf e6ac 03bf 71f6 c4bc 2cf1 10bf
000000f0: f0bc d4bd 8dd8 b53d a3ad 14be ac92 01bf
00000100: ea13 0fbe 5562 3f3f abcc a4be a65f e1be
00000110: 5374 26c0 45de 0bbf b4bd 14c0 21f9 83bd
00000120: 1dc3 273e 883f 60be e995 dd3d 6a2b 1abe
00000130: 16e1 9cbe 7c12 f2bf 810f 8bbf 29fd eb3d
00000140: 61aa cfbe 0435 93bf 8471 09bf 6382 88be
00000150: 8a81 1cc0 10de fabd 27e5 583e 52f3 933d
00000160: cc1a 01bf 0737 06be ac3e 37be a510 763d
00000170: 5bb1 61be 513b dbbd 9a9e a2bf 451e ca3e
00000180: 8d8a 353e 33d0 87be 01b3 89bf dd55 a2be
00000190: ca89 b0bf 1c8e dabe f4e8 653d 0ba3 8abe
000001a0: ca50 d7be 7fb0 1ebd 523a 02be 87e6 533e
000001b0: 7883 36be 3c3f f6bf d86e e93d 34c8 d4be
000001c0: 61c0 c2be d3b7 a73d 6db5 98be 105b 77c0
000001d0: 9c1c 923c d0a1 8f3d 5d77 613c 4e6e 80bd
000001e0: 8355 99be 50d3 24bd bc22 25bf b501 fc3e
000001f0: 59c6 b4be b8e4 453d 98c4 96bd 8427 0c3e
00000200: 73e9 933c e130 353d e4e9 0ec0 a308 10be
00000210: 0f97 193e 3edd e53c e013 d7bd f2a9 ddbb
00000220: e3aa d43d 04a6 fabe ec43 fcbe 6d04 9f3d
00000230: 6d1f 213c aadb 09c0 9bda f0bf 45b3 27be
00000240: 9689 91be 49ca f2be 4587 11bf 5001 e83d
00000250: f894 bbbb c85a 5b3e a930 e33d 95c2 18be
00000260: 3fcb 11bf b717 bfbe 8654 28c0 6fa8 67bf
00000270: 91f4 fcbd 3df5 2cbd 5942 5fbf 63bf 9ebd
00000280: 8ba0 05bd 6328 763e a7aa 4fbd 7e27 96be
00000290: b68e 89bf 50f8 4cbe 7a7b 1bbf 0682 82bf
000002a0: b49e 493d 44e7 a6bf 60fc dfbf 7880 ebbf
000002b0: 9da1 223f 1557 f2be c08d 1fbe 0a42 0dbe
000002c0: 76bd 33be a3ee 71bd 47e7 b7bf bdc9 a83e
000002d0: 4bae 143d 6907 2fbe da83 b4be 3148 59bf
000002e0: 3bba 20bd 9c5b 18bf 56ed 653e 6835 1abd
000002f0: 7596 183d 9a0d 023e b145 8ebe 7b46 50be
00000300: 49af 46be 312a aabe 7199 8bbe ab19 ddbe
00000310: 2f51 dd3c 51fc c2be 4340 1cbe b100 a9be
00000320: 788c abbe d2b5 0ebd 7154 9ebf fed8 5dc0
00000330: 8f99 ecbf 87cf dbbf d5b3 14bf 9e70 b7c0
00000340: 360c cfbe 2e0f b73d d434 e93b 9364 b1be
00000350: 7858 56bf 5fea 94bd 85a0 e73b 1491 4bbe
00000360: 95a5 00bf c285 76bd 4818 993d 3797 033e
00000370: 1081 b3be e60c 28be 8ddd babe 3096 1ebe
00000380: 88f4 3cbe 8d60 a2be 4fef f8be 4458 29bc
00000390: b171 3e3f a7b0 3ebe de28 dcbd a854 1cbf
000003a0: dd97 30bd a1f5 203d cf47 cebe 9e84 ebbe
000003b0: de63 053c b534 c9bc d861 7cbd f7a1 3f3d
000003c0: 8229 88bd 0ffe 1fbf 32e8 883d 97ea 89bf
000003d0: 0999 f7be 0a02 c0be 1a61 94bf aee1 7ebe
000003e0: e23f f43c d692 ffbf 685c 743d 6ce6 1ebf
000003f0: b350 efbe 818c 98bc c6a0 54be 56e0 0cbf

encoder.2.bias f4 [128]
-0.2695226 -0.06270123 -0.06845544 -0.006855414 -0.31530696 -0.356249 -0.30459118 -1.184692
-0.18607964 0.035484504 -0.29195184 -0.7961051 -2.374084 -2.2016 -0.1927554 -0.080016926
-0.14043203 -0.44662938 -0.18929312 -4.313113 -0.54604673 -3.550316 -0.46642876 -0.13025436
-0.27444345 -0.10291635 0.00027094688 0.013637653 -0.20824653 -4.1244707 -0.18157247 0.011224903
-0.08313897 -0.09091353 -2.3039322 -6.023298 -0.15227142 0.01976856 -2.3342 -0.11423379
-0.010314254 -3.7051585 -2.5273352 -0.42674127 0.15013368 -0.1684151 -0.021151045 -0.1694039
-0.24439101 0.04539389 0.033060636 -0.05896717 -0.39488143 -0.15638281 0.03065278 -0.30913827
-0.012399112 -0.65617836 -0.21193178 0.09569419 0.000823294 -0.22326708 -2.3484924 -5.8312616
0.052879337 -0.011905564 -0.4537883 -0.1718888 -1.4267586 0.092404775 -0.049462013 0.13372552
-0.47342238 -0.09132755 0.041176286 -0.16095126 -0.26750547 -1.120873 -0.06884787 0.041090846
-0.1016625 -0.036869757 -0.1657538 -0.07616427 -0.11584618 -0.28515273 0.06271808 -2.1825616
-0.8123408 -1.3407995 0.07638577 -0.03383104 -1.7143902 -1.5075217 -3.5634336 -1.8391654
-0.011284863 -3.2005103 -0.4540536 -0.1237759 -0.011156458 0.0066463645 -0.5909738 0.06323163
-0.15469371 0.092260644 -1.6339312 -0.019046947 -0.49341387 -0.055679604 -0.26474875 -0.061560493
-0.14357 -0.009594978 0.044667814 -0.86781913 -0.054446686 -0.11733488 -0.14762715 -0.20503686
-0.17960593 -0.42899203 -0.3552611 0.09110712 -0.13466138 -1.6518505 -2.675292 -0.109110154
00000000: defe 89be 8169 80bd 5e32 8cbd 61a3 e0bb
00000010: ea6f a1be 4566 b6be 60f3 9bbe fda3 97bf
00000020: a98b 3ebe 3358 113d b67a 95be 8bcd 4bbf
00000030: fef0 17c0 04e7 0cc0 ac61 45be eadf a3bd
00000040: 6acd 0fbe 9bac e4be 0ed6 41be 0605 8ac0
00000050: b8c9 0bbf 6138 63c0 c0cf eebe 6661 05be
00000060: da83 8cbe cfc5 d2bd e00d 8e39 7670 5f3c
00000070: 943e 55be aafb 83c0 22ee 39be a8e8 373c
00000080: c444 aabd df30 babd a073 13c0 dbbe c0c0
00000090: 0aed 1bbe adf1 a13c 8863 15c0 68f3 e9bd
000000a0: 1efd 28bc 5121 6dc0 dcbf 21c0 d57d dabe
000000b0: a5bc 193e 0275 2cbe f544 adbc 3778 2dbe
000000c0: a341 7abe f2ee 393d 976a 073d 8f87 71bd
000000d0: e62d cabe d122 20be 8a1b fb3c 5f47 9ebe
000000e0: a525 4bbc 4efb 27bf a504 59be 51fb c33d
000000f0: 53d2 573a 20a0 64be b34d 16c0 b299 bac0
00000100: 0198 583d 8e0f 43bc f156 e8be 9e03 30be
00000110: 07a0 b6bf b73e bd3d ae98 4abd 58ef 083e
00000120: 6b64 f2be f009 bbbd 77a8 283d 68d0 24be
00000130: 7af6 88be c478 8fbf 1d00 8dbd e04e 283d
00000140: 6e34 d0bd be04 17bd 5dbb 29be 03fc 9bbd
00000150: c340 edbd 8aff 91be 5672 803d 17af 0bc0
00000160: 91f5 4fbf 519f abbf 2570 9c3d 6b92 0abd
00000170: 2371 dbbf 79f6 c0bf 4c0f 64c0 c669 ebbf
00000180: 25e4 38bc 29d5 4cc0 b779 e8be 387e fdbd
00000190: 94c9 36bc bfc9 d93b 0f4a 17bf 967f 813d
000001a0: 0768 1ebe 26f3 bc3d a824 d1bf 5808 9cbc
000001b0: bea0 fcbe 4c10 64bd 268d 87be db26 7cbd
000001c0: 0404 13be 4134 1dbc 99f5 363d 6529 5ebf
000001d0: 7d03 5fbd 454d f0bd 922b 17be 2ff5 51be
000001e0: 9eea 37be d8a4 dbbe c8e4 b5be 5f96 ba3d
000001f0: ace4 09be d66f d3bf fc37 2bc0 2575 dfbd

encoder.4.bias f4 [3]
-0.10176873 -0.022274198 0.09621588
00000000: 206c d0bd 6178 b6bc d50c c53d

onnx::MatMul_18 f4 [180, 256]
-0.16546565 0.12945439 0.35497993 -0.46367663 -0.15044233 0.22398217 -0.4105545 0.6422987
0.11978715 -0.31088024 -0.04126835 -1.0314137 0.27330264 -0.310173 -0.07574586 1.0401107
-0.036427576 -0.67814714 0.1967117 0.1688553 1.4770467 0.08087428 0.06764121 0.20057294
1.500905 0.32312158 -0.23909618 0.17126182 -0.12232816 -0.13163228 -0.2401049 -4.7399545
-0.98763186 0.011803463 0.76128864 0.71980995 1.6759492 -0.25962794 -0.9819513 1.2184863
-1.0515627 -0.25539255 -1.0162234 -0.14739293 -0.4098585 0.24248806 0.7896822 0.5133196
0.20795223 1.3883381 0.15142415 0.10561103 -0.32222438 -1.2042578 0.48563293 -0.24110849
-0.84210724 -0.017188631 0.11828167 1.7630222 0.0042895395 -0.14180592 0.13720733 -0.7608685
-0.15092462 -0.3607209 0.5489102 -0.23430784 0.03416031 1.1421036 -0.6756227 0.0024563724
-0.34937584 0.20836107 -0.67002773 0.16823739 -0.39732227 0.63614714 -2.9985971 -0.074708484
-0.64791983 0.6855813 -1.192441 -0.50559026 0.73169327 -0.233951 0.7172358 -0.100762025
0.4972534 -0.014741202 0.5631584 -0.47900528 -0.36651534 0.80309945 0.010008541 -1.9141508
1.5423601 1.3063942 -0.5163955 0.6744306 2.2756326 -0.51824087 -0.058562435 -0.51463777
-1.2395123 0.09087106 0.32390523 -0.026784038 0.15835615 -0.48421457 -0.8292103 -0.3389465
-0.39187747 0.999662 -1.3436717 1.0148737 -1.0610706 0.16806461 0.0004681165 1.2954471
0.36228737 0.73678076 0.6231505 -0.030880181 1.0251919 -0.19403532 0.31221417 1.75945
0.033079017 0.1398831 -1.4800686 -0.49140874 0.0801923 -0.7637192 0.005192565 -0.06856931
-0.88395363 -0.3460843 -1.2501277 -0.16742629 3.8342319 0.15773764 -0.22877182 0.06829168
0.5294439 0.11350023 0.15268148 -0.31197628 0.06942267 -0.3703932 -0.11172716 0.7419206
-0.35861576 -0.27161703 -1.2778004 1.3140482 0.44901353 0.27967632 1.0775125 -0.96698564
-1.0812786 0.20107152 -2.3500948 -1.6011466 0.15708402 -0.066372804 -0.25817236 0.49094728
-0.13392645 -0.04712972 1.3058385 1.3698707 -1.1310055 0.3035006 0.2039829 -0.22514847
-0.81353295 -0.1054493 0.42888677 0.33246437 0.36342818 0.04726161 -0.10007953 -0.21172309
0.13001466 0.23298757 -0.01399853 -1.3085148 0.62356144 0.98665434 0.024782764 0.019047517
-0.24988109 -0.16626546 0.08169814 -0.54043347 0.062926956 -2.4211311 -2.9767115 1.2989005
3.3630583 0.21621087 -0.0063208663 -0.2908024 -3.5117962 1.409004 -0.028849725 -0.9461213
0.17512555 -0.2630061 0.026583971 0.13860351 -1.0101779 -0.06483057 0.06880387 -0.100296654
-0.24564184 -0.10032156 -0.49567047 -0.6541999 -0.7517446 -0.28735206 0.3096506 0.42701256
0.35202384 0.47970894 1.5508071 0.30179626 -1.1389486 -0.006143169 0.10147498 0.36963657
0.29446062 0.4759495 -1.0279405 -0.047099233 0.21855833 0.08306942 0.0935293 -0.19834623
-0.019535515 0.70268977 0.30031052 -0.347497 -0.2598255 0.66416156 -1.0316304 -0.27595276
-0.7644254 3.4480264 -0.18835667 -0.25832593 -0.16914935 -0.089838855 -0.18793981 -1.8419075
00000000: d46f 29be b18f 043e eebf b53e 0667 edbe
00000010: 8e0d 1abe 955b 653e 3334 d2be b06d 243f
00000020: f752 f53d b22b 9fbe 0009 29bd 5d05 84bf
00000030: 53ee 8b3e ffce 9ebe a520 9bbd 5922 853f
00000040: 1535 15bd 0d9b 2dbf cb6e 493e 67e8 2c3e
00000050: de0f bd3f 6aa1 a53d 7a87 8a3d fe62 4d3e
00000060: a81d c03f 3170 a53e a1d5 74be 425f 2f3e
00000070: 3087 fabd 9dca 06be 0fde 75be b5ad 97c0
00000080: 71d5 7cbf 5063 413c d0e3 423f 7745 383f
00000090: 8185 d63f f4ed 84be 2961 7bbf 5cf7 9b3f
000000a0: 9b99 86bf d0c2 82be 9c13 82bf 2cee 16be
000000b0: f9d8 d1be ca4e 783e 9d28 4a3f ea68 033f
000000c0: 6ef1 543e 10b5 b13f ef0e 1b3e 984a d83d
000000d0: 98fa a4be 1f25 9abf e1a4 f83e 25e5 76be
000000e0: 5794 57bf 2ccf 8cbc a93d f23d b6aa e13f
000000f0: 448f 8c3b 9235 11be 1480 0c3e 47c8 42bf
00000100: fc8b 1abe 69b0 b8be 6185 0c3f 65ee 6fbe
00000110: aeeb 0b3d 7330 923f 9cf5 2cbf 17fb 203b
00000120: 64e1 b2be 9b5c 553e f086 2bbf 6c46 2c3e
00000130: d36d cbbe 8ada 223f 04e9 3fc0 c300 99bd
00000140: 13de 25bf 4282 2f3f e8a1 98bf 5d6e 01bf
00000150: 4050 3b3f da90 6fbe c49c 373f 525c cebd
00000160: ff97 fe3e 1585 71bc 262b 103f 2e40 f5be
00000170: e6a7 bbbe ed97 4d3f ddfa 233c e502 f5bf
00000180: 0e6c c53f ed37 a73f 7f32 04bf 7ca7 2c3f
00000190: f7a3 1140 6fab 04bf 2adf 6fbd 4dbf 03bf
000001a0: 57a8 9ebf 9b1a ba3d e8d6 a53e 336a dbbc
000001b0: 1d28 223e f9ea f7be 2047 54bf 658a adbe
000001c0: 2aa4 c8be d9e9 7f3f 6ffd abbf 62e7 813f
000001d0: 29d1 87bf 2119 2c3e 886d f539 36d1 a53f
000001e0: bb7d b93e aa9d 3c3f cb86 1f3f 6ff8 fcbc
000001f0: 7d39 833f 32b1 46be 89da 9f3e a835 e13f
00000200: dd7d 073d 843d 0f3e e372 bdbf ed99 fbbe
00000210: dc3b a43d 1a83 43bf 6426 aa3b 116e 8cbd
00000220: c94a 62bf f631 b1be 2f04 a0bf cc71 2bbe
00000230: 0e64 7540 fa85 213e 2943 6abe 82dc 8b3d
00000240: a389 073f cf72 e83d 8958 1c3e 5bbb 9fbe
00000250: 792d 8e3d 2da4 bdbe 36d1 e4bd 82ee 3d3f
00000260: 7c9c b7be 6311 8bbe f78e a3bf bb32 a83f
00000270: 1ae5 e53e bc31 8f3e eeeb 893f 5f8c 77bf
00000280: 5667 8abf b1e5 4d3e f467 16c0 5ff2 ccbf
00000290: a2da 203e 77ee 87bd 2b2f 84be 715d fb3e
000002a0: 0424 09be 180b 41bd b725 a73f ec57 af3f
000002b0: cac4 90bf 6e64 9b3e e5e0 503e 528d 66be
000002c0: b243 50bf cdf5 d7bd 0c97 db3e c538 aa3e
000002d0: 4213 ba3e 6495 413d 7ff6 ccbd f0cd 58be
000002e0: 9022 053e 4b94 6e3e 175a 65bc 6a7d a7bf
000002f0: b9a1 1f3f 6195 7c3f 3905 cb3c 8a09 9c3c
00000300: d4e0 7fbe 7e41 2abe 5b51 a73d d959 0abf
00000310: d9df 803d d0f3 1ac0 7182 3ec0 5f42 a63f
00000320: 593c 5740 6266 5d3e 451f cfbb 0de4 94be
00000330: 45c1 60c0 3e5a b43f 4256 ecbc 0135 72bf
00000340: 1d54 333e bca8 86be a1c6 d93c 14ee 0d3e
00000350: 824d 81bf e4c5 84bd 0be9 8c3d 5568 cdbd
00000360: 8989 7bbe 6475 cdbd 85c8 fdbe a579 27bf
00000370: 5672 40bf cf1f 93be 868a 9e3e 64a1 da3e
00000380: 783c b43e 699c f53e d980 c63f 0a85 9a3e
00000390: 11c9 91bf a34c c9bb 1dd2 cf3d 0141 bd3e
000003a0: 8bc3 963e a7af f33e 8e93 83bf 20eb 40bd
000003b0: c1cd 5f3e 4d20 aa3d 4a8c bf3d 461b 4bbe
000003c0: f208 a0bc 7ae3 333f 4dc2 993e 20eb b1be
000003d0: d907 85be 7e06 2a3f 770c 84bf ae49 8dbe
000003e0: 62b1 43bf 77ac 5c40 92e0 40be 4c43 84be
000003f0: 7d35 2dbe 6ffd b7bd 4b73 40be a0c3 ebbf

onnx::MatMul_19 f4 [256, 128]
0.14622176 0.07394126 0.09617244 -0.16931732 -0.036564346 0.05476257 0.014599516 0.024655389
-0.0014376733 -0.018180173 0.15190129 0.15406688 -0.07602516 0.21395813 -0.07174314 -0.052441344
0.23907974 -0.023752607 0.09767467 0.29335114 0.054206945 0.16018862 -0.019161873 0.055432346
0.30569565 -0.050472908 0.015935691 0.15107103 0.09401763 0.9464984 0.14315833 0.0882998
0.05662671 -0.07420428 0.0027532186 0.58426285 -0.19942535 0.03192801 0.8257443 -0.149543
0.13926704 -0.025351333 -0.053680297 0.16148815 -0.06099276 -0.4274595 0.082300566 0.21984641
0.20304307 0.07484889 0.07461111 -0.18506794 0.050853845 0.14498955 -0.10989379 0.028063186
-0.10281506 0.07367816 0.30642647 -0.06518323 -0.069254614 -0.08423976 0.14842553 0.2510824
0.031169962 -0.03568523 0.070317216 -0.1552834 -0.06173624 0.0069684037 -0.105598785 0.0059270123
1.1800128 -0.15745811 0.034368087 0.054886255 0.0135952225 0.95209104 0.08951695 -0.03687812
-0.022140266 0.77704704 0.58010733 0.46979225 0.12488205 0.13191643 -0.37471473 -0.28508276
0.82935894 0.028638016 -0.11417633 -0.041979946 0.40699446 0.38476172 0.3195077 0.2402621
0.0045431377 -0.17255007 -0.029890373 0.09551895 0.1313617 -0.09439006 0.19014731 -0.07477372
-0.10180652 -0.023162989 0.3541293 -0.056996644 -0.17286307 -0.33638164 -0.07536923 -0.059770484
0.308359 -0.09001381 -0.1413244 0.3561154 -0.007020447 0.060828436 0.051607106 0.1347129
-0.09505459 0.16199182 -0.028431198 0.14015324 -0.0334948 0.15186006 0.31605616 -0.037230026
-0.7438571 0.28803006 -0.40636826 -0.13713996 0.62544835 1.0785679 0.24025305 0.53552055
-0.095018506 0.08810119 -0.14469767 0.6283525 -0.900266 -1.0699655 0.14797932 -0.16556148
0.06410659 -1.3055371 0.20342699 0.19998422 -0.3304472 -0.62983143 0.3778798 -0.05081832
-0.85575724 0.2931513 -0.08450439 -0.22172323 1.2224141 1.6723566 0.66940296 0.03263709
-0.21000232 0.33835873 0.7818092 2.4427094 0.2992556 -0.02210493 -1.0901848 0.6340489
0.03662751 -1.8222919 -1.4173963 0.2205627 -0.0052523366 1.1931808 0.52141255 -0.099858195
-0.3618466 0.21657144 0.0025153514 -0.076422416 -0.14269297 0.025882987 0.18820344 0.16592214
0.57943773 -0.30238444 -0.26609334 0.02759385 0.119400814 -0.44188875 2.2720711 0.13016969
-0.12542342 0.39821672 0.23371108 1.3958348 0.5577299 0.4103956 0.012961423 -0.1794502
0.032952085 0.42128345 -0.03538318 0.20981807 -0.016658697 -2.0756123 -0.282324 0.11247132
0.03544571 -0.89654505 1.5210414 0.13757141 0.39343578 -0.17751223 0.21144322 -1.8400457
-0.837118 0.8018923 0.055215906 0.4266025 0.7074827 -0.3179464 -0.97533756 -0.21623728
0.066252805 3.8338392 0.2519736 0.0395986 0.12000201 0.46149135 -1.1230456 -0.3600056
0.21924591 -0.36697355 -0.00403104 0.1982524 1.9607307 0.31452757 -0.13447948 -0.2662145
-0.6513746 0.1578202 0.35943678 0.094861984 0.2752329 0.3561903 0.11065732 0.05804662
-0.040904243 0.6347835 0.5050816 -0.0824293 0.4922849 0.38694885 -1.5439793 -0.17696959
00000000: 28bb 153e 846e 973d 0ef6 c43d 8561 2dbe
00000010: 7fc4 15bd b74e 603d cf32 6f3c 19fa c93c
00000020: 5070 bcba 96ee 94bc 038c 1b3e b5c3 1d3e
00000030: 14b3 9bbd d717 5b3e 11ee 92bd bccc 56bd
00000040: 52d1 743e d494 c2bc a809 c83d 1f32 963e
00000050: 1a08 5e3d 7c08 243e 5cf9 9cbc 070d 633d
00000060: 2484 9c3e aebc 4ebd 918b 823c 5db2 1a3e
00000070: 518c c03d b84d 723f 1998 123e 87d6 b43d
00000080: 69f1 673d 6af8 97bd 586f 343b 4092 153f
00000090: 2936 4cbe f2c6 023d fa63 533f cd21 19be
000000a0: 059c 0e3e 99ad cfbc dfdf 5bbd 265d 253e
000000b0: 8bd3 79bd f9db dabe 338d a83d 6b1f 613e
000000c0: 86ea 4f3e 604a 993d b6cd 983d 7382 3dbe
000000d0: 1f4c 503d 2478 143e ff0f e1bd c4e4 e53c
000000e0: b490 d2bd 93e4 963d eee3 9c3e c97e 85bd
000000f0: 5dd5 8dbd e585 acbd ddfc 173e df8d 803e
00000100: 2658 ff3c ad2a 12bd 7902 903d 9d02 1fbe
00000110: 24df 7cbd 3557 e43b 2d44 d8bd 6237 c23b
00000120: a90a 973f b33c 21be 8dc5 0c3d 69d0 603d
00000130: 7fbe 5e3c 3dbc 733f aa54 b73d 830d 17bd
00000140: 815f b5bc 8eec 463f ea81 143f 9c88 f03e
00000150: 29c2 ff3d 1a15 073e 9cda bfbe 5ef6 91be
00000160: de50 543f 469a ea3c 48d5 e9bd 2af3 2bbd
00000170: 9461 d03e 7dff c43e 8396 a33e 4507 763e
00000180: 9ade 943b f7b0 30be a8dc f4bc 709f c33d
00000190: ae83 063e 934f c1bd fab5 423e f722 99bd
000001a0: f07f d0bd 4fc0 bdbc 7050 b53e 5075 69bd
000001b0: 0403 31be 373a acbe 2f5b 9abd e5d1 74bd
000001c0: 3be1 9d3e 2959 b8bd 58b7 10be c254 b63e
000001d0: c70b e6bb 3d27 793d f961 533d 2ef2 093e
000001e0: fbab c2bd 2fe1 253e 8be8 e8bc 5584 0f3e
000001f0: d831 09bd 3481 1b3e 1dd2 a13e 837e 18bd
00000200: 6b6d 3ebf ad78 933e 800f d0be 6b6e 0cbe
00000210: 621d 203f 830e 8a3f e504 763e e017 093f
00000220: 1099 c2bd 666e b43d a02b 14be b6db 203f
00000230: d577 66bf a1f4 88bf e487 173e f388 29be
00000240: 514a 833d d71b a7bf 2a4f 503e aac8 4c3e
00000250: 6030 a9be a23c 21bf 7679 c13e df26 50bd
00000260: e812 5bbf ed17 963e a310 adbd 6a0b 63be
00000270: 1178 9c3f c80f d63f fe5d 2b3f 78ae 053d
00000280: d90a 57be 5b3d ad3e a624 483f 5a55 1c40
00000290: 0838 993e 6615 b5bc 2d8b 8bbf 0751 223f
000002a0: ba06 163d dc40 e9bf 3e6d b5bf 30db 613e
000002b0: cb1b acbb 26ba 983f 4b7b 053f 7482 ccbd
000002c0: f543 b9be e7c4 5d3e 98d8 243b 5b83 9cbd
000002d0: 1b1e 12be 8f08 d43c 67b8 403e 7ee7 293e
000002e0: 0856 143f 22d2 9abe 633d 88be 7f0c e23c
000002f0: 6a88 f43d 3e3f e2be 9d69 1140 344b 053e
00000300: ff6e 00be 10e3 cb3e f551 6f3e b7aa b23f
00000310: 63c7 0e3f 5f1f d23e 265c 543c cbc1 37be
00000320: c4f8 063d 77b2 d73e f4ed 10bd 8cda 563e
00000330: d277 88bc d5d6 04c0 c58c 90be 5d57 e63d
00000340: 852f 113d fa83 65bf 7cb1 c23f 85df 0c3e
00000350: 6a70 c93e c4c5 35be 9284 583e 9e86 ebbf
00000360: 5e4d 56bf d048 4d3f 132a 623d a56b da3e
00000370: 961d 353f dfc9 a2be b9af 79bf 4e6d 5dbe
00000380: 8daf 873d 9f5d 7540 af02 813e 2432 223d
00000390: 9dc3 f53d 9848 ec3e f5bf 8fbf a752 b8be
000003a0: 0082 603e f5e3 bbbe d016 84bb ad02 4b3e
000003b0: 39f9 fa3f c209 a13e fdb4 09be 444d 88be
000003c0: 7cc0 26bf 9e9b 213e 1908 b83e 0047 c23d
000003d0: 54eb 8c3e 935e b63e 4ea0 e23d 4bc2 6d3d
000003e0: 358b 27bd 2c81 223f 074d 013f b1d0 a8bd
000003f0: c40c fc3e 291e c63e 1da1 c5bf 8437 35be

onnx::MatMul_20 f4 [128, 3]
-0.05814512 -8.488812e-05 -0.0003590921 -0.022638997 -0.047080483 -0.007273159 0.037928987 -0.019445192
0.013778055 0.037045486 -0.025316747 0.0074043777 0.0030254745 -0.034287572 0.00075251836 0.038332947
0.016750978 -0.002843696 -0.015887942 0.011956063 -0.047484633 -0.04057869 0.056873996 0.0059026
-0.05901197 0.012619417 -0.056779064 -0.022763323 0.0025428555 -0.058030784 0.018961893 0.027466143
-0.09894215 0.027510066 0.020328121 0.0028444605 0.0111138 0.014925864 -0.03339042 -0.020109748
-0.02040217 0.009416957 -0.051681083 0.00070295454 0.0167056 -0.07452438 -0.010625694 -0.0027044278
0.014033986 0.037980057 0.00905541 -0.007609955 0.0026076033 -0.03413473 -0.0056661554 -0.03462431
0.018341243 -0.0001118003 0.003203606 0.048584618 -0.013258378 0.032426134 -0.0025697467 -0.017657882
0.0025830215 -0.024366414 -0.005898986 -0.03356264 -0.0018840552 0.08903083 0.015185126 0.0016871651
-0.005743371 -0.022441693 -0.022270268 0.0012614885 0.049463358 -0.0037929844 0.070520684 -0.010321544
0.018800156 -0.011544223 0.03180779 0.021008167 0.13649943 0.00068531255 -0.018114666 -0.02243591
-0.0015960694 0.0013047629 0.034523215 -0.017751332 0.009866957 -0.034928735 0.03962026 0.029765211
0.03592514 0.0073403646 0.01563574 0.046364177 0.0024887319 -0.019024238 0.0015510906 -0.017342465
-0.018394064 -0.019955562 0.024755938 0.030338706 -0.011241257 -0.006022454 -0.02721534 0.05343662
-0.027297541 -0.005325789 0.028241685 -0.021598864 -0.022343878 0.01905074 -0.014250856 -0.13551818
-0.019076519 0.0103542125 0.047417045 -0.0327432 0.00035973982 -0.0036081772 0.011514291 -0.021199025
-0.007392157 -0.03789829 -0.020109033 -0.0031901079 0.006236952 -0.019437887 -0.03206346 0.00026244958
-0.06340975 -0.012128342 0.038549196 0.018493943 -0.0036427677 -0.024157345 0.013441173 0.09812984
0.026790729 -0.015893446 -0.0009982508 0.0047921957 0.057247635 0.014687767 -0.010547066 -0.055232543
-0.0053130565 -0.04102461 0.025438784 -0.011208614 -0.00068184483 -0.04933151 0.009530455 0.04127957
0.0029646347 -0.012216314 -0.050295517 0.010909096 0.011830593 0.006662076 0.042032987 -0.0029006628
0.016163819 -0.03847291 -0.0059325583 -0.020580323 -0.044448048 -0.0047094612 0.006998284 -0.055434294
-0.0022887334 0.04520041 -0.016204134 -0.0032143136 -0.059819784 -0.009355801 -0.00074423355 -0.075134255
0.015287683 0.018603865 0.054135475 0.008030053 -0.010659559 0.006305426 -0.01117357 0.04803389
-0.00084932 0.072013915 -0.0032528606 0.01932209 0.031799827 -0.035426274 0.0062998612 -0.024330486
-0.005407915 0.0021472177 0.034607217 -0.006394321 0.020870805 -0.026818251 0.004207969 -0.03729787
-2.5315983e-05 0.00056957593 0.01140436 -0.002307157 0.062541835 0.010531325 0.03207148 0.0012620494
0.0206108 0.022537883 -0.011163479 0.008302046 -0.032666 0.071247615 0.055028796 0.0063715233
0.008543771 -0.027779104 -0.10094716 -0.009339381 -0.026189804 -0.0058214725 0.031626042 -0.014922157
0.0035130929 -0.053554036 -0.013513157 -0.0068436605 0.038699575 0.0072925077 -0.0076270625 0.034831394
0.004884643 -0.008556756 0.067031056 0.063511856 0.0026911607 -0.005920237 -0.029650185 -0.019924924
-0.07061239 0.016787274 0.020052455 0.083673164 -0.1061428 -3.4876222e-05 -0.0072968085 0.013017091
00000000: 9429 6ebd f605 b2b8 8744 bcb9 6b75 b9bc
00000010: 77d7 40bd ae53 eebb 6d5b 1b3d 864b 9fbc
00000020: 5abd 613c 02bd 173d 1165 cfbc 6ca0 f23b
00000030: 0a47 463b 2071 0cbd a744 453a 0203 1d3d
00000040: 5939 893c 4d5d 3abb 6e27 82bc 5de3 433c
00000050: 3f7f 42bd d735 26bd b5f4 683d 996a c13b
00000060: 89b6 71bd acc1 4e3c 2a91 68bd 267a babc
00000070: 09a6 263b b0b1 6dbd f955 9b3c ad00 e13c
00000080: 2fa2 cabd ca5c e13c 2987 a63c 216a 3a3b
00000090: a816 363c 9c8b 743c 65c4 08bd 33bd a4bc
000000a0: 7422 a7bc 9549 1a3c 8baf 53bd 7b46 383a
000000b0: 2fda 883c 3da0 98bd 6417 2ebc c53c 31bb
000000c0: ceee 653c fa90 1b3d 245d 143c ee5c f9bb
000000d0: 53e4 2a3b dcd0 0bbd 28ab b9bb 38d2 0dbd
000000e0: 6040 963c 5476 eab8 97f3 513b aa00 473d
000000f0: ab39 59bc 44d1 043d 3269 28bb 43a7 90bc
00000100: e947 293b 139c c7bc 484c c1bb fb78 09bd
00000110: 67f2 f6ba cc55 b63d 09cb 783c de23 dd3a
00000120: e332 bcbb a4d7 b7bc 2370 b6bc 8858 a53a
00000130: 179a 4a3d b893 78bb 266d 903d b11b 29bc
00000140: c902 9a3c fb23 3dbc e348 023d 5219 ac3c
00000150: 82c6 0b3e 8ca6 333a 3565 94bc 83cb b7bc
00000160: 3433 d1ba 9404 ab3a 3768 0d3d 3e6b 91bc
00000170: 04a9 213c 6f11 0fbd db48 223d 2cd6 f33c
00000180: 3d26 133d 7187 f03b 8616 803c 5de8 3d3d
00000190: fe19 233b b8d8 9bbc f74d cb3a c911 8ebc
000001a0: 26af 96bc d979 a3bc f7cc ca3c e188 f83c
000001b0: 402d 38bc 0158 c5bb b4f2 debc 5be0 5a3d
000001c0: 189f dfbc f583 aebb 1b5b e73c 1af0 b0bc
000001d0: 820a b7bc 4c10 9c3c 6c7c 69bc 47c5 0abe
000001e0: 5c46 9cbc b7a4 293c 6038 423d bc1d 06bd
000001f0: 769b bc39 2b77 6cbb 70a6 3c3c 94a9 adbc
00000200: e839 f2bb 3d3b 1bbd b3bb a4bc 2111 51bb
00000210: 585f cc3b 343c 9fbc fa54 03bd 6399 8939
00000220: f9dc 81bd f4b5 46bc c3e5 1d3d 9c80 973c
00000230: 80bb 6ebb a0e5 c5bc 5e38 5c3c 4cf8 c83d
00000240: 3b78 db3c f932 82bc bdd7 82ba da07 9d3b
00000250: 7f7c 6a3d f6a4 703c 9acd 2cbc 853b 62bd
00000260: 2619 aebb 6c09 28bd ff64 d03c 56a4 37bc
00000270: d5bd 32ba d60f 4abd a025 1c3c c414 293d
00000280: 514a 423b ef26 48bc ac02 4ebd 11bc 323c
00000290: 1bd5 413c 8b4d da3b c82a 2c3d 0c19 3ebb
000002a0: fc69 843c c595 1dbd e865 c2bb 1198 a8bc
000002b0: 280f 36bd d351 9abb dc51 e53b 120f 63bd
000002c0: 93fe 15bb 1124 393d 88be 84bc 3ca7 52bb
000002d0: 9705 75bd 1349 19bc ab18 43ba fddf 99bd
000002e0: 3179 7a3c 2267 983c 29bd 5d3d 7c90 033c
000002f0: 6ea5 2ebc bf9d ce3b 5911 37bc 2fbf 443d
00000300: e6a4 5eba 087c 933d f22d 55bb 5c49 9e3c
00000310: 8940 023d 241b 11bd 116f ce3b ba50 c7bc
00000320: e134 b1bb 56b8 0c3b 4cc0 0d3d 7487 d1bb
00000330: 40f9 aa3c f3b1 dbbc 01e3 893b a7c5 18bd
00000340: a95d d4b7 984f 153a 5ad9 3a3c ac33 17bb
00000350: ef15 803d 948b 2c3c 625d 033d 5a6b a53a
00000360: fbd7 a83c 5ea1 b83c 06e7 36bc 4e05 083c
00000370: c9cc 05bd 45ea 913d e065 613d 36c8 d03b
00000380: 2cfb 0b3c 0191 e3bc 62bd cebd 3404 19bc
00000390: 008c d6bc 0dc2 bebb 4f8a 013d 107c 74bc
000003a0: eb3b 663b 7a5b 5bbd 4a66 5dbc c940 e0bb
000003b0: 7283 1e3d fdf5 ee3b 70ec f9bb 5dab 0e3d
000003c0: 5b0f a03b a331 0cbc 9447 893d 8112 823d
000003d0: 2f5e 303b 8cfe c1bb f2e4 f2bc 9839 a3bc
000003e0: 3b9d 90bd 7785 893c 0c45 a43c d65c ab3d
000003f0: 6561 d9bd 0f48 12b8 111a efbb a345 553c
