logs/limx_arm/SF_TRON1A_ARM/exported/policies/policy.pt (torch, 763922 bytes, 8 tensors)

weight f4 [512, 44]
0	0x3d7f9d87	0.06240609
1	0xbdc52c70	-0.096276164
2	0x3dc1678a	0.09443577
3	0x3e290d81	0.16509058
4	0x3eb2d194	0.3492552
5	0x3e32e9de	0.17472026
6	0xbea3b30c	-0.3197254
7	0x3e136684	0.14394575
8	0x3ece8186	0.40333194
9	0xbfbd8f8d	-1.4809433
10	0x3f3d2dea	0.73898184
11	0x3ee6ba11	0.45063832
12	0x3d8c6c21	0.068565615
13	0x3ea1ec6c	0.31625688
14	0x3df04655	0.11732165
15	0xbe7a7af5	-0.24460967
16	0x3dcdf5e4	0.100566655
17	0xbe12b276	-0.1432589
18	0x3e488498	0.1958183
19	0xbdaf9e02	-0.085750595
20	0xbe8ecf33	-0.27892455
21	0xbd26d1ce	-0.04072743
22	0x3dc58711	0.096449025
23	0xbe329547	-0.17439757
24	0x3dd34e40	0.103176594
25	0xbe08dbd2	-0.13365105
26	0x3dba6579	0.091013856
27	0x3d357b90	0.04430729
28	0x3be03d79	0.0068432656
29	0x3d2be191	0.041963164
30	0xbd113ac2	-0.035456426
31	0xbb8865b2	-0.0041625137
32	0x3c6053d1	0.013691858
33	0x3d95c990	0.073138356
34	0x3e03a43c	0.12855619
35	0xbcef15d2	-0.02918521
36	0xbe3a741a	-0.18208352
37	0xbc562152	-0.013069468
38	0xbe11ad7d	-0.14226337
39	0x3d25837f	0.040408608
40	0x3cbc7397	0.023004336
41	0xbe5e9dfe	-0.21739957
42	0xbd9795ca	-0.07401617
43	0x3e87d6c6	0.26531047
44	0xbeca4eaf	-0.39513156
45	0xbd0334ef	-0.032032903
46	0x3e875ecf	0.2643952
47	0xbf3bddf9	-0.7338558
48	0x3f27447a	0.6533886
49	0xbe94f7eb	-0.29095396
50	0x3b5e884c	0.003395575
51	0xbbdc6f3e	-0.0067271283
52	0xbe1958bc	-0.14975256
53	0x3da24165	0.07922629
54	0x3f25b618	0.6473098
55	0xbf491d12	-0.7855998
56	0xbc999421	-0.018747391
57	0xbf0a8512	-0.541093
58	0x3ef44487	0.47708532
59	0xbdb945b1	-0.09046496
60	0x3d9a20c2	0.07525779
61	0x3f7a9006	0.9787601
62	0x3eefbc34	0.46823275
63	0x3ee4e84d	0.4470848
64	0xbdbc0ba0	-0.09181905
65	0xbf4b284a	-0.7935835
66	0x3f053dc3	0.52047366
67	0xbe6808e7	-0.22659646
68	0x3da37eb9	0.07983155
69	0xbccb3d24	-0.024809428
70	0xbc914d57	-0.017737074
71	0x3cdf23b5	0.027238706
72	0x3e019b71	0.12656952
73	0xbe08bd55	-0.13353474
74	0xbd8d2e04	-0.068935424
75	0xbd9a636e	-0.07538496
76	0x3dd009da	0.10158129
77	0xbd086324	-0.033297673
78	0xbe5f9181	-0.21832849
79	0xbc481986	-0.0122131165
80	0x3db8485b	0.08998176
81	0x3d0e3f03	0.03472806
82	0xbdbf47f9	-0.093398996
83	0x3df540b5	0.119752325
84	0xbdff1e48	-0.124569476
85	0xbdda19b8	-0.10649437
86	0x3e1fccbb	0.15605442
87	0x3de9afdb	0.11410495
88	0x3c07821e	0.008270768
89	0x3d897219	0.067112155
90	0x3e06784e	0.1313183
91	0x3e1383f8	0.14405811
92	0x3cce0564	0.025149055
93	0xbc9bfee7	-0.019042445
94	0xbe3f9b5f	-0.18711613
95	0x3d8c7653	0.06858506
96	0xbead6c21	-0.33871558
97	0x3f2296d9	0.63511425
98	0x3eff4ebe	0.49864763
99	0xbf10bbaa	-0.5653635
100	0x3d4a5360	0.04939592
101	0x3f1d7ad7	0.61515564
102	0xbe4e1bea	-0.20127836
103	0xbdf756ba	-0.12077089
104	0x3ee4086a	0.4453767
105	0xbe8a5491	-0.27017644
106	0x3ef74225	0.48292652
107	0x3e921438	0.2853105
108	0x3e36f9db	0.1786875
109	0x3e0612bf	0.13093089
110	0xbea18276	-0.31544846
111	0xbdffeed6	-0.12496726
112	0x3d13aca3	0.03605331
113	0xbd21c481	-0.03949404
114	0x3ce3ad2f	0.027792541
115	0xbd9c077c	-0.07618615
116	0x3ccdeaab	0.025136312
117	0xbce24279	-0.027619587
118	0xbd4072c2	-0.04698444
119	0x3dd7b8c3	0.105332874
120	0xbd4baa33	-0.04972286
121	0xbce84d2c	-0.02835711
122	0xbe01ec27	-0.12687741
123	0xbe19d9b7	-0.15024458
124	0x3c935b07	0.017987741
125	0x3e0d34ff	0.13789748
126	0x3d38bb3a	0.04510043
127	0x3d5d919d	0.054093946
128	0x3d762a6d	0.060099054
129	0x3ef167c2	0.47149473
130	0xbd979474	-0.07401362
131	0xbea6b510	-0.32560015
132	0xbea8f7be	-0.33001512
133	0xbc5e2534	-0.013558675
134	0xbdcf0f97	-0.101103954
135	0x3d370c92	0.044689722
136	0x3f294e0a	0.66134703
137	0x3f230b4d	0.6368912
138	0x3f67cee2	0.90550053
139	0xbe8ffa9a	-0.2812088
140	0x3d04ffbc	0.03247045
141	0x3e6ef06e	0.23333904
142	0x3e60b58a	0.21944252
143	0x3e7de14b	0.24792974
144	0xbebff39e	-0.37490553
145	0xbd266007	-0.040618923
146	0xbeeebd4b	-0.46628794
147	0x3ea46dcb	0.32115015
148	0xbe24cd2c	-0.16093892
149	0xbe6d737e	-0.23188588
150	0xbe9ba3aa	-0.30398303
151	0x3e4e2e23	0.20134787
152	0xbe2c691d	-0.16836973
153	0x3ee352a7	0.44398996
154	0xbee3cd5f	-0.44492623
155	0x3c09aafc	0.008402582
156	0x3e9b1631	0.30290368
157	0xbba5f12e	-0.0050641512
158	0x3ccffc18	0.025388762
159	0x3bf8f684	0.0075977463
160	0x394d2a68	0.00019566121
161	0x3ca5a976	0.020222407
162	0x3ca9a154	0.02070681
163	0xbda36717	-0.07978647
164	0xbd3ff6f8	-0.046866387
165	0xbe82c1b6	-0.25538415
166	0x3e5e9705	0.21737297
167	0xbe21e2b2	-0.15809134
168	0xbeb50e00	-0.35362244
169	0xbe21690c	-0.15762728
170	0x3dd50f50	0.10403311
171	0xbce07fda	-0.027404714
172	0xba5d2e22	-0.0008437355
173	0xbd9ed491	-0.077553876
174	0xbdf5df2c	-0.12005457
175	0xbe873ea5	-0.2641498
176	0xbe2727a5	-0.16323717
177	0xbdc331df	-0.095309965
178	0xbe815f38	-0.2526796
179	0x3e2b3c5f	0.16722248
180	0x3e938531	0.28812554
181	0x3db59798	0.08866805
182	0xbf56f5d6	-0.83968866
183	0xbf12b525	-0.57307655
184	0x3d29e260	0.041475654
185	0x3f03bdad	0.514613
186	0x3e9de9e4	0.30842507
187	0x3ecf36b0	0.4047141
188	0x3dc5a9e8	0.09651548
189	0xbe86cf22	-0.26329905
190	0x3f72196a	0.9457003
191	0xbe996179	-0.29957178
192	0xbe40ce19	-0.1882862
193	0x3f23f0d9	0.6403938
194	0xbd263e81	-0.040586952
195	0xbe6adad5	-0.2293504
196	0xbe25d048	-0.16192734
197	0x3dccbcda	0.09996958
198	0x3f56f385	0.8396533
199	0xbdc9f47c	-0.09861085
200	0xbe2e1a73	-0.17002277
201	0x3cfff1e3	0.03124327
202	0xbc9c418d	-0.019074226
203	0xbd03f9b2	-0.03222055
204	0xbdf686d0	-0.12037432
205	0xbd21775a	-0.039420463
206	0x3afd46be	0.0019323451
207	0x3bb79722	0.005602733
208	0x3d684207	0.056703594
209	0xbe419da8	-0.18907797
210	0xbe586a3f	-0.2113428
211	0x3d9b299a	0.07576294
212	0xbe567216	-0.20941958
213	0xbe7308f6	-0.23733887
214	0x3e9f1450	0.31070185
215	0x3c25a195	0.010109325
216	0xbc68feae	-0.014220877
217	0xbd338bcc	-0.043834493
218	0x3dadf40a	0.084938124
219	0xbea74654	-0.32670844
220	0x3e0d703b	0.13812344
221	0xbd81e846	-0.06343131
222	0x3de5847f	0.11206912
223	0xbd838e89	-0.06423671
224	0xbea5c615	-0.32377687
225	0xbe212581	-0.15736963
226	0xbe1509c8	-0.14554513
227	0xbf19fc18	-0.6015029
228	0xbb73a8a6	-0.003717938
229	0x3dc78316	0.097417995
230	0x3db908e3	0.09034898
231	0xbe9069e0	-0.28205776
232	0xbd0d04f5	-0.034428556
233	0xbf674369	-0.90337235
234	0x3f2c4fee	0.67309463
235	0x3e9d063d	0.30668822
236	0x3de67e7b	0.11254593
237	0x3f85b454	1.0445657
238	0x3dd96571	0.106150515
239	0xbedca0d5	-0.43091455
240	0xbe90436b	-0.28176436
241	0x3f2c1c6e	0.6723088
242	0x3ef1022c	0.4707197
243	0x3e314c1e	0.17314193
244	0xbd432fff	-0.047653195
245	0x3d0cbedd	0.03436171
246	0x3d3d7006	0.046249412
247	0x3df62395	0.120185055
248	0xbd922807	-0.07136541
249	0xbd385a55	-0.045008022
250	0xbda8cdfe	-0.08242415
251	0x3d9402cb	0.07227095
252	0x3d9ee939	0.077593274
253	0x3c597f86	0.013275033
254	0x3d6117d2	0.054954357
255	0xbd6263c8	-0.05527094

bias f4 [512]
0	0xbd78009a	-0.06054745
1	0xbbcd496c	-0.006264856
2	0x3d27da93	0.040979933
3	0xbdafecbe	-0.08590077
4	0xbe6ccea4	-0.23125702
5	0x3ea05031	0.3131118
6	0x3e64dbdf	0.22349499
7	0xbe216ad1	-0.15763403
8	0xbe22e0ef	-0.15906118
9	0x3d13fafe	0.036128037
10	0xbdee31cb	-0.11630591
11	0x3e8459e9	0.25849846
12	0x3e042fcb	0.12908857
13	0xbc5a5903	-0.013326886
14	0xbe649c11	-0.2232516
15	0xbc7e4b5b	-0.015520896
16	0xbecc284c	-0.39874494
17	0xbde602c2	-0.11230995
18	0xbd3bab73	-0.045817804
19	0xbd6203a8	-0.055179268
20	0x3e0ac0d9	0.13550128
21	0xbdcbf291	-0.09958375
22	0xbc5fa1f9	-0.013649457
23	0xbeca29c6	-0.39484996
24	0x3e94f807	0.2909548
25	0x3e02996e	0.12753841
26	0xbdca113b	-0.09866568
27	0xbd66909f	-0.056290265
28	0x3df2d2ad	0.118565895
29	0xbde6aeb4	-0.11263791
30	0x3dc67f5a	0.09692259
31	0x3ce90957	0.028446836
32	0xbe25945a	-0.16169873
33	0x3e845fa2	0.25854212
34	0xbca00a98	-0.019536301
35	0x3d4cf41e	0.050037496
36	0x3e41bc88	0.18919575
37	0x3dadd57a	0.08487983
38	0xbf0e5802	-0.5560304
39	0xbdfa7ad8	-0.12230462
40	0xbf2c51d5	-0.67312366
41	0x3d23a8c1	0.03995586
42	0x3ca184e7	0.019716693
43	0xbea00bae	-0.3125891
44	0x3e8c3dbe	0.27390856
45	0x3e575bb0	0.2103107
46	0xbe658d7f	-0.22417258
47	0x3da51825	0.08061246
48	0xbd8eec30	-0.06978643
49	0xbe52b627	-0.20577298
50	0xbdec254e	-0.11530553
51	0xbe069599	-0.13143004
52	0xbd880108	-0.06640822
53	0xbf4fd54d	-0.81184846
54	0x3dc56ffc	0.096405
55	0xbd618080	-0.055054188
56	0x3da990e4	0.08279589
57	0x3dd15544	0.10221341
58	0xbe5c91b0	-0.2153995
59	0xbea08341	-0.3135014
60	0xbdcf63f0	-0.101264834
61	0x3ebd37fd	0.36956778
62	0xbc7a76d8	-0.015287124
63	0x3e0bdaf6	0.13657746
64	0xbe2802f5	-0.16407378
65	0xbe91f7df	-0.28509423
66	0xbd65245c	-0.055942878
67	0xbda88e35	-0.08230249
68	0x3e065cbd	0.13121314
69	0xbe6c0498	-0.23048627
70	0xbcd028ab	-0.025410017
71	0x3e04a168	0.12952197
72	0xbc913a35	-0.01772795
73	0x3e9863e2	0.29763705
74	0xbd486385	-0.048923034
75	0xbe8669e2	-0.26252657
76	0xbd651630	-0.055929363
77	0xbe25b317	-0.16181599
78	0x3e14f1ed	0.14545412
79	0xbe210b37	-0.15726934
80	0x3e175b31	0.1478088
81	0x3e04a778	0.1295451
82	0xbcf692bd	-0.030099267
83	0xbd4c7f30	-0.049925983
84	0x3e2b182b	0.16708438
85	0x3e98dadf	0.29854485
86	0xbd33f17f	-0.04393148
87	0xbd9acb7c	-0.07558343
88	0xbec36c38	-0.38168502
89	0xba85dd9b	-0.0010213138
90	0xbdf44a64	-0.119282514
91	0x3e328575	0.17433722
92	0xbd51603b	-0.051117163
93	0xbca8a6f7	-0.020587428
94	0xbdd7a972	-0.10530366
95	0x3cf7a63a	0.03023063
96	0xbe4dfa34	-0.20114976
97	0x3e5578b8	0.20846832
98	0xbd796b91	-0.0608936
99	0xbc5dea7b	-0.013544674
100	0x3d22ffd5	0.03979476
101	0xbe25e62d	-0.16201086
102	0xbe8e8eda	-0.27843362
103	0x3e2075d1	0.15669943
104	0x3cd59204	0.026070602
105	0xbe36d6e1	-0.17855407
106	0x3dd7e350	0.10541403
107	0x3dbce153	0.09222665
108	0x3d9dad35	0.07699052
109	0xbd333018	-0.043747038
110	0xbdeb5aac	-0.11491904
111	0x3e761974	0.24033147
112	0x3cc99801	0.024608614
113	0xbe833a38	-0.25630355
114	0xbec0ecad	-0.3768057
115	0x3e816f9f	0.25280473
116	0xbd86b479	-0.06577391
117	0x3ea6ada0	0.3255434
118	0xbe802838	-0.25030684
119	0x3d44df1d	0.04806434
120	0x3d085090	0.033279955
121	0x3e63e4bd	0.22255225
122	0x3c9b2649	0.018939154
123	0xbe44064e	-0.1914303
124	0x3db40b41	0.08791209
125	0xbe3a852a	-0.1821486
126	0xbdde4dd6	-0.1085469
127	0xbea8bf9e	-0.32958692
128	0x3e6e8ada	0.23295155
129	0xbdbc47c0	-0.09193373
130	0xbd647220	-0.0557729
131	0x3b970596	0.00460882
132	0x3e3a9497	0.18220745
133	0xbe8570cb	-0.26062617
134	0x3d8673d3	0.065650605
135	0xbd0201a0	-0.03173983
136	0xbdf5cdf5	-0.12002174
137	0x3dddfe84	0.10839561
138	0xbe417d8c	-0.18895549
139	0x3dc2d0ad	0.09512458
140	0x3e41eb1c	0.18937343
141	0x3d80cf32	0.06289519
142	0xbe66d32a	-0.2254149
143	0x3d991613	0.074749134
144	0xbe46c933	-0.19412689
145	0x3c01494f	0.007891013
146	0xbdac1d07	-0.08403974
147	0x3c24ee98	0.010066651
148	0xbeb7e2e7	-0.359153
149	0x3e113c03	0.14183049
150	0x3e899a0f	0.2687535
151	0xbdcd85ac	-0.100352615
152	0x3d93667d	0.071972825
153	0x3e54c0b3	0.20776634
154	0x3dda71bb	0.106662236
155	0xbe87f454	-0.26553595
156	0xbe2c9dab	-0.1685702
157	0xbd2e886a	-0.042610563
158	0xbdd1bcae	-0.10241066
159	0x3d3352ad	0.043780018
160	0x3cd9d1c4	0.026589282
161	0x3e335266	0.17511901
162	0xbe657b4c	-0.22410315
163	0xbe254052	-0.16137818
164	0xbdbe77da	-0.093002036
165	0x3e6e5438	0.23274314
166	0x3dcc073a	0.09962316
167	0x3eae7f38	0.34081435
168	0xbd88e2f6	-0.06683914
169	0xbeb61c83	-0.35568628
170	0x3e0af5bc	0.13570303
171	0xbe491022	-0.1963506
172	0x3d8eae55	0.06966845
173	0x3d28e241	0.041231398
174	0xbe2bc7f7	-0.167755
175	0xbe5068b0	-0.20352435
176	0xbe87718f	-0.26453826
177	0xbe146ce9	-0.14494671
178	0x3e878fd2	0.26476914
179	0xbe407d18	-0.1879772
180	0x3cbfa514	0.023394145
181	0xbd6bdd69	-0.0575842
182	0xbd106f1a	-0.035262205
183	0xbb85b77d	-0.0040807114
184	0xbdbcb504	-0.092142135
185	0xbe9fc7a6	-0.31207007
186	0xbda9f2b4	-0.08298245
187	0xbdb4473b	-0.08802649
188	0x3e7ff0b6	0.24994168
189	0xbd4634b0	-0.04839009
190	0xbda290dc	-0.07937786
191	0xbe05e3ce	-0.13075182
192	0xbe987f55	-0.29784647
193	0xbec505df	-0.38481042
194	0xbe36f466	-0.17866668
195	0x3b83b74f	0.004019655
196	0x3e01c18b	0.12671487
197	0x3e49db1f	0.19712494
198	0xbca04df0	-0.019568413
199	0x3e4001a5	0.18750627
200	0xbc627b60	-0.01382336
201	0xbe48a0ca	-0.19592586
202	0xbe54c210	-0.20777154
203	0xbe9683c7	-0.29397413
204	0x3d5491ac	0.051896736
205	0xbe38d76f	-0.18050931
206	0xbdebdca3	-0.115166925
207	0xbc23d0f0	-0.009998545
208	0xbe07e66e	-0.13271496
209	0xbe8a490f	-0.27008864
210	0xbe2a17c6	-0.16610631
211	0xbdcc65b7	-0.09980338
212	0xbd840883	-0.06446936
213	0xbe88c08b	-0.267094
214	0x3e5e5f28	0.21715987
215	0xbe1a9d06	-0.15098962
216	0x3d83f353	0.06442895
217	0x3c7429d7	0.0149025535
218	0xbe04f219	-0.12982978
219	0xbe176de4	-0.14788014
220	0xbe164a08	-0.14676678
221	0x3e0056f2	0.12533167
222	0x3dc8e280	0.098088264
223	0xbe0bd35b	-0.13654844
224	0x3d37f3b2	0.04491014
225	0x3e1be209	0.15222944
226	0xbe84bcd0	-0.25925303
227	0x3dd27694	0.10276523
228	0x3d3b6898	0.045754045
229	0xbe10c8bc	-0.14139074
230	0xbe844859	-0.25836447
231	0x3e04b6fe	0.12960431
232	0xbe903495	-0.28165117
233	0xbcd150b1	-0.025551172
234	0xbdbb0dac	-0.09133467
235	0x3d8beb21	0.06831957
236	0xbe9375a8	-0.28800702
237	0x3e46d978	0.19418895
238	0xbebcf919	-0.36908796
239	0x3d97790f	0.07396137
240	0x3dc51092	0.09622301
241	0x3e969732	0.29412228
242	0xbd848f89	-0.0647269
243	0x3d18ce06	0.037305854
244	0x3df5edd7	0.12008255
245	0xbe0b56ca	-0.13607326
246	0x3d9df99f	0.07713627
247	0xbf3809e8	-0.71890116
248	0xbde9fc5d	-0.114250876
249	0xbe4015ae	-0.1875827
250	0x3e59e4b9	0.21278657
251	0x3de1a311	0.110174306
252	0x3e0331d7	0.12811981
253	0x3e264d67	0.16240464
254	0xbd12bc90	-0.03582436
255	0xbe886353	-0.26638278

weight f4 [256, 512]
0	0xbdaf7762	-0.08567692
1	0xbea596f3	-0.32341728
2	0x3b262ade	0.002535514
3	0x3ddf265b	0.108959876
4	0xbe861bea	-0.26193172
5	0xbe631440	-0.22175694
6	0xbd2ca78e	-0.04215198
7	0x3dedad05	0.116052665
8	0xbdf095a0	-0.11747289
9	0xbe16dbaa	-0.14732233
10	0x3e03cc0d	0.12870808
11	0xbe46792e	-0.19382164
12	0xbcad9538	-0.021189317
13	0xbe3ebe07	-0.18627177
14	0xbd452bf7	-0.04813763
15	0xbe8262c0	-0.25465965
16	0x3be6af73	0.007039958
17	0xbe26388c	-0.16232508
18	0x3e8da43f	0.27664372
19	0x3e0ce0e4	0.13757664
20	0xbebf72dd	-0.3739232
21	0xbe4d1ebf	-0.2003126
22	0xbf1a9d07	-0.60395855
23	0xbdb2a70b	-0.08723267
24	0xbe9c917a	-0.3057974
25	0xbe6c94cb	-0.23103635
26	0x3e23a5d1	0.15981223
27	0x3d39d986	0.045373462
28	0xbec5c95c	-0.38630188
29	0x3ea090bf	0.31360433
30	0xbe9c01bc	-0.30470073
31	0x3db41b62	0.08794285
32	0x3d024a21	0.031808976
33	0xbdd86c7a	-0.10567565
34	0xbf106644	-0.56406045
35	0x3df903e9	0.12158949
36	0xbdbe9eed	-0.093076564
37	0xbeda7717	-0.42668983
38	0x3dfc3ecf	0.12316667
39	0x3d3c8f76	0.046035253
40	0xbc8fded3	-0.017562306
41	0xbd9a5f43	-0.07537701
42	0x3e231160	0.15924597
43	0xbdc4e28f	-0.09613525
44	0xbe0c4341	-0.1369753
45	0xbe7e0f23	-0.24810462
46	0xbe33afd7	-0.17547546
47	0xbd411780	-0.047141552
48	0x3d8a8854	0.06764284
49	0x3eaf9134	0.3429047
50	0x3e72d15b	0.23712675
51	0xbd866c7b	-0.0656366
52	0xbe83e0fe	-0.25757593
53	0x3e156a9e	0.14591452
54	0xbe11e3b9	-0.14247026
55	0xbdf2e933	-0.118608855
56	0x3e0e62f9	0.13904943
57	0x3e0175f5	0.12642653
58	0xbdf1bde9	-0.118038006
59	0xbdb1ccc9	-0.08681638
60	0xbdd770fa	-0.105195954
61	0xbe393bda	-0.18089238
62	0x3dc61312	0.09671606
63	0x3dc02ca3	0.09383514
64	0x3ddaea9a	0.10689278
65	0xbd8e5ccd	-0.06951294
66	0x3e31cd51	0.17363478
67	0xbeb8198f	-0.35957
68	0x3d20261a	0.039098836
69	0xbe0af767	-0.13570939
70	0x3d15b5b6	0.036550246
71	0xbeb93fd0	-0.36181498
72	0x3dc20b0e	0.09474765
73	0xbf22688e	-0.6344079
74	0xbe3bcecd	-0.18340607
75	0x3b4834e8	0.0030549113
76	0x3d19915c	0.03749214
77	0xbd9b60df	-0.07586836
78	0x3e05ab29	0.13053574
79	0xbbcd1fb4	-0.006259883
80	0x3cf0f10e	0.029411819
81	0x3d99498e	0.074847326
82	0xbe4bcc4c	-0.19902152
83	0xbe25278d	-0.16128369
84	0xbd8cb6aa	-0.06870778
85	0xbda3fb76	-0.08006947
86	0xbeb5dfaf	-0.3552222
87	0xbe568ef3	-0.20952968
88	0xbdb0a5b6	-0.08625357
89	0xbecad712	-0.3961721
90	0xbeb6dede	-0.3571691
91	0xbdc3d03c	-0.09561202
92	0x3ee57a8f	0.44820067
93	0xbd197ce1	-0.03747261
94	0x3c2e4dc0	0.010638654
95	0xbe1b5a2b	-0.15171115
96	0xbc64adad	-0.013957423
97	0x3ca5a184	0.020218618
98	0x3e922086	0.28540438
99	0xbe8dc6d6	-0.27690762
100	0x3d31b649	0.04338673
101	0xbc40cc62	-0.011767479
102	0x3e282f4a	0.1642429
103	0xbde77b57	-0.11302822
104	0x3d483b7d	0.048884857
105	0x3df5e2d9	0.120061584
106	0xbd8442ff	-0.06458091
107	0x3e97f9a9	0.29682663
108	0x3cbf437a	0.023347605
109	0xbdb50ee5	-0.088407315
110	0x3bd8c7e7	0.006615627
111	0xbe8174d8	-0.25284457
112	0xbd7a407b	-0.06109665
113	0xbe8c7d73	-0.2743946
114	0x3d7198af	0.0589835
115	0xbd2596a0	-0.04042685
116	0xbdb31ba7	-0.08745509
117	0x3d432526	0.04764285
118	0xbdf6042e	-0.12012516
119	0x3ca6bd12	0.020353828
120	0x3d96819f	0.07348942
121	0x3deae77d	0.11469934
122	0xbe73fc2c	-0.23826665
123	0x3dfafc11	0.12255109
124	0xbe7e02e1	-0.24805786
125	0x3e394c3f	0.18095492
126	0x3db92026	0.09039335
127	0xbdb182ab	-0.08667501
128	0xbe71047c	-0.23536867
129	0x3d822c15	0.06356064
130	0x3e0710b8	0.13189971
131	0xbd18d2c5	-0.03731038
132	0xbd59b9f9	-0.053155873
133	0x3e0fe641	0.14052679
134	0x3ddbe7e9	0.10737593
135	0x3c0ed860	0.00871858
136	0xbd263385	-0.040576477
137	0x3db47ecb	0.08813246
138	0x3e7601f7	0.24024187
139	0x3e929860	0.28631878
140	0x3c6ca779	0.0144442255
141	0x3e099a73	0.13437824
142	0xbdcc486b	-0.0997475
143	0x3d8420ae	0.06451546
144	0xbe52b7a6	-0.20577869
145	0xbd2f314d	-0.042771626
146	0x3e3bf5d5	0.18355496
147	0x3edccd31	0.431253
148	0x3bb2fc7d	0.005462228
149	0xbc8cc189	-0.017182129
150	0xbe3416b8	-0.17586792
151	0xbe053112	-0.13007
152	0xbdfcb7e3	-0.12339761
153	0x3e103cee	0.14085743
154	0x3e69f5fb	0.2284774
155	0xbda30197	-0.079592876
156	0xbe5ec4f9	-0.21754827
157	0x3d6e613c	0.0581982
158	0xbe834e6b	-0.25645766
159	0xbebc70ae	-0.36804718
160	0xbd97a101	-0.07403756
161	0xbf186204	-0.5952456
162	0xbd8b8ee6	-0.06814365
163	0xbf070b2b	-0.52751416
164	0xbe03cab1	-0.1287029
165	0xbf4cd07f	-0.8000564
166	0x3da736a3	0.08164718
167	0x3d6a4768	0.057197005
168	0xbe012577	-0.12611948
169	0xbdac640a	-0.084175184
170	0xbcf6e438	-0.03013812
171	0x3ce5bf7e	0.028045412
172	0x3cb63221	0.0222407
173	0xbe86bd03	-0.2631608
174	0xbd5aa9d5	-0.05338462
175	0xbe1ccd24	-0.1531263
176	0x3e8a3f1a	0.27001268
177	0x3dd72baa	0.10506375
178	0xbde0004a	-0.10937555
179	0x3e33698f	0.17520736
180	0xbdfc5990	-0.1232177
181	0x3c7badb9	0.015361243
182	0x3da2edaf	0.07955491
183	0xbab231cd	-0.0013595164
184	0xbe4a4fb4	-0.19756967
185	0x3d9d2e0e	0.076748
186	0x3e3ed71f	0.1863675
187	0xbe853b79	-0.26021937
188	0xbc93a831	-0.018024536
189	0x3e17792f	0.14792322
190	0xbe0868b1	-0.13321187
191	0xbe211d74	-0.15733892
192	0x3d6e9936	0.058251582
193	0xbecab46f	-0.39590785
194	0xbc483e2d	-0.012221855
195	0x3e0f4f7c	0.13995165
196	0xbd45ad56	-0.04826101
197	0xbe24f0ad	-0.16107436
198	0x3d523602	0.051321037
199	0xbe2eccca	-0.17070308
200	0xbe9c3e43	-0.30516252
201	0xbe4397d7	-0.19100891
202	0x3dc4b842	0.09605457
203	0x3d9935cb	0.07480963
204	0x3d1a8a9b	0.03772984
205	0x3df97ea8	0.12182361
206	0xbe052735	-0.13003238
207	0xbe7b04ab	-0.245135
208	0xbde7dff2	-0.11322011
209	0x3d212443	0.039341222
210	0x3d5ed071	0.054398004
211	0xbe091c6c	-0.13389748
212	0x3c1b9db6	0.00949805
213	0x3bfb8bcd	0.0076765777
214	0xbe0d324f	-0.13788722
215	0x3ce30e85	0.027716884
216	0xbe6d7173	-0.23187809
217	0x3d8adf1a	0.067808345
218	0xbe62516e	-0.22101375
219	0xbe17b76a	-0.1481606
220	0xbdf2527f	-0.11832141
221	0xbe571db4	-0.21007425
222	0xbc0e6a57	-0.008692346
223	0x3ebb975d	0.3663892
224	0x3db61d08	0.08892256
225	0xbe0f733c	-0.14008802
226	0xbdbc4d98	-0.09194487
227	0xbdf4fd4d	-0.11962376
228	0x3ee1c043	0.44091997
229	0xbe593beb	-0.21214263
230	0xbde0ea56	-0.10982196
231	0xbeda28d1	-0.42609265
232	0xbd280106	-0.0410166
233	0x3da85bb5	0.08220617
234	0xbe0760e2	-0.13220552
235	0xbce81d7f	-0.028334377
236	0x3e5c3e11	0.21508051
237	0xbd64ca0e	-0.055856757
238	0xbe19c00f	-0.15014671
239	0x3d5a3698	0.05327472
240	0x3c52422e	0.012833161
241	0x3e8cff8d	0.2753872
242	0x3da40043	0.080078624
243	0xbddf93c6	-0.109168574
244	0x3d3eb901	0.046563152
245	0xbe2adab5	-0.16684993
246	0xbe36df49	-0.17858614
247	0x3bf35e6d	0.007427028
248	0x3e0d1bb7	0.13780104
249	0xbdbbe9e0	-0.091754675
250	0xbd3d51a8	-0.04622045
251	0xbe1a7fe6	-0.15087852
252	0x3c720768	0.014772274
253	0xbdc0f4be	-0.09421681
254	0xbd057e27	-0.03259101
255	0x3d3b08a1	0.045662526

bias f4 [256]
0	0xbdc6bf44	-0.0970445
1	0xbe0cc13c	-0.13745588
2	0xbe3d8c18	-0.18510473
3	0xbdae77e8	-0.08518964
4	0xbe33daaa	-0.17563882
5	0xbe843df1	-0.25828508
6	0xbda1b9f3	-0.07896795
7	0xbe3fd980	-0.18735313
8	0xbe15d6db	-0.14632742
9	0xbe1554bb	-0.14583103
10	0xbcd7947f	-0.026315926
11	0xbe77307e	-0.24139592
12	0xbe0c94c5	-0.13728626
13	0xbd053332	-0.032519527
14	0xbed8644d	-0.42264023
15	0x3cba9075	0.02277396
16	0xbe19ede7	-0.15032159
17	0xbeb6986c	-0.35663164
18	0xbdb57499	-0.0886013
19	0xbe2dd29b	-0.16974871
20	0xbda8224d	-0.08209667
21	0xbe3c132a	-0.18366686
22	0xbe1f7c42	-0.15574744
23	0xbe3fac35	-0.18718036
24	0xbe835ff4	-0.25659144
25	0xbe41a4f2	-0.18910578
26	0xbe94df6d	-0.2907671
27	0xbe21a42b	-0.15785281
28	0xbe2fb157	-0.17157494
29	0xbe04e12b	-0.1297652
30	0xbe17f7da	-0.14840642
31	0xbe685662	-0.22689202
32	0xbe9f4dc9	-0.31114033
33	0xbd3f6239	-0.04672453
34	0xbe46d3d8	-0.1941675
35	0xbe121aa6	-0.14267978
36	0xbdef92bd	-0.1169791
37	0xbe505c59	-0.20347728
38	0xbe8f0853	-0.27936038
39	0xbc1ce312	-0.009575622
40	0xbf13d11a	-0.5774094
41	0xbe7ec65a	-0.24880353
42	0xbe45eede	-0.19329402
43	0xbe914ac4	-0.28377354
44	0xbe5f2d84	-0.21794707
45	0xbeb3896e	-0.35065788
46	0xbe5b3805	-0.21408089
47	0xbe340b6c	-0.17582482
48	0xbf25c9e1	-0.6476117
49	0xbe14c284	-0.14527327
50	0xbed0173d	-0.4064273
51	0xbde02972	-0.10945405
52	0xbe87d957	-0.26533005
53	0xbc1378bf	-0.009000956
54	0x3d64acc8	0.05582884
55	0xbde13023	-0.109955095
56	0xbe836af9	-0.2566755
57	0xbea0acf4	-0.31381953
58	0xbe80a481	-0.25125507
59	0x3e388844	0.18020731
60	0xbcd0ae83	-0.025473839
61	0xbec62f54	-0.38707983
62	0xbe8e136a	-0.27749187
63	0xbe8b94bd	-0.27261916
64	0xbe98390e	-0.2973103
65	0xbefffe76	-0.49998826
66	0xbee4730f	-0.44619033
67	0x3e12099f	0.14261483
68	0xbd9005a9	-0.070323296
69	0xbe9f2eaa	-0.3109029
70	0xbecfe1ef	-0.4060206
71	0xbe67495e	-0.22586581
72	0xbc7dc5b2	-0.015489029
73	0xbe8d9aad	-0.2765707
74	0xbc87d45d	-0.016580755
75	0xbe212fb5	-0.15740855
76	0xbe602869	-0.21890415
77	0xbe6f5ff9	-0.23376454
78	0xbe2bbf73	-0.16772251
79	0xbe2cf47b	-0.16890137
80	0xbe4b99c9	-0.19882883
81	0xbe319550	-0.17342114
82	0xbe987a3d	-0.2978076
83	0xbe502bb0	-0.20329165
84	0xbe9ed311	-0.31020406
85	0xbda289ee	-0.07936464
86	0xbe6c9eec	-0.23107499
87	0xbd1b5e6e	-0.037931852
88	0xbd61cedd	-0.05512892
89	0x3bf28663	0.007401274
90	0xbe8a8ee9	-0.27062157
91	0xbe55e856	-0.2088941
92	0xbe14876a	-0.14504781
93	0xbe3d3e46	-0.18480787
94	0xbe8c6b2e	-0.27425522
95	0xbec03287	-0.3753855
96	0xbed5adac	-0.41734064
97	0xbe230a3f	-0.15921877
98	0xbe343e7b	-0.1760196
99	0xbdbf965b	-0.0935485
100	0xbe51784a	-0.20456043
101	0xbe6615c1	-0.22469236
102	0xbe270ff3	-0.16314678
103	0xbe8ad4d7	-0.2711551
104	0x3da2700d	0.07931528
105	0xbe9d0be5	-0.30673137
106	0xbe391ca2	-0.18077329
107	0xbeabe764	-0.33574975
108	0xbe923d65	-0.28562465
109	0xbe38d43b	-0.1804971
110	0xbd898e3e	-0.06716584
111	0xbef1525f	-0.47133157
112	0xbdda4306	-0.10657315
113	0xbe4f33d6	-0.20234618
114	0xbe5e9c2e	-0.21739265
115	0xbcb59fce	-0.022170927
116	0xbe9b21f3	-0.3029934
117	0xbe818853	-0.2529932
118	0xbe0552dd	-0.13019891
119	0xbeb67066	-0.35632628
120	0x3dc84603	0.09778979
121	0xbee5432f	-0.4477782
122	0x3e6e41c8	0.23267281
123	0xbec7c028	-0.3901379
124	0xbd41fec5	-0.047362108
125	0xbe2e7555	-0.17036946
126	0xbea70260	-0.32619
127	0xbd8261b0	-0.06366289
128	0xbeacb37b	-0.33730683
129	0xbc4011c7	-0.011722988
130	0xbd692c08	-0.056926757
131	0xbe38e255	-0.18055089
132	0xbe97d144	-0.29651845
133	0xbe9cf86b	-0.30658278
134	0xbe726330	-0.2367065
135	0xbef35664	-0.47526848
136	0xbe1c3241	-0.15253545
137	0xbe5191fa	-0.20465842
138	0xbd8ef811	-0.06980909
139	0xbea94f35	-0.33068243
140	0xbe208acc	-0.15677947
141	0xbe822543	-0.25419053
142	0xbe4eabc0	-0.20182705
143	0xbe8adaa8	-0.27119946
144	0xbe6b2e4c	-0.2296688
145	0xbdc44c25	-0.09584836
146	0x3d1a8888	0.037727863
147	0xbe317421	-0.17329456
148	0xbe90029b	-0.28126988
149	0xbe2c6d9d	-0.16838689
150	0xbdbe49c3	-0.09291413
151	0xbe2dbeb8	-0.16967285
152	0xbe5d7e4c	-0.2163021
153	0xbe27c0a1	-0.16382076
154	0xbc854686	-0.01626898
155	0xbe1f3f61	-0.15551521
156	0xbe7e2bab	-0.24821346
157	0xbc45ba12	-0.012068288
158	0xbe31a38e	-0.17347547
159	0xbe0f2329	-0.13978256
160	0xbe4ae756	-0.1981481
161	0xbe35c1d9	-0.17749728
162	0xbd4906e6	-0.049078844
163	0xbea5d1a5	-0.3238651
164	0xbd88d637	-0.06681483
165	0xbe74794e	-0.23874399
166	0xbe9bac30	-0.30404806
167	0x3dd48871	0.10377587
168	0xbe34de26	-0.17662868
169	0xbe5e7f81	-0.21728326
170	0xbe872193	-0.26392803
171	0xbe811553	-0.25211582
172	0xbde0d77f	-0.109786026
173	0x3db3fd71	0.087885745
174	0xbeb7e7d1	-0.3591905
175	0xbe262f79	-0.16229047
176	0xbe8b8365	-0.27248684
177	0xbe42d24b	-0.19025533
178	0xbe1aca90	-0.15116334
179	0x3d4365e3	0.04770459
180	0xbe596dc1	-0.21233274
181	0xbe198890	-0.149935
182	0xbe80947e	-0.2511329
183	0xbe310ff8	-0.17291248
184	0xbe0132fe	-0.12617108
185	0xbecc86ba	-0.39946538
186	0xbe99ac76	-0.3001439
187	0xbe5e593c	-0.21713728
188	0x3df7b670	0.12095344
189	0xbe363cd8	-0.17796648
190	0xbebc11fc	-0.3673247
191	0xbe5a8d75	-0.21343024
192	0xbe06a2f7	-0.13148104
193	0xbe6727a0	-0.2257371
194	0xbe4a1f66	-0.1973854
195	0xbe20d30f	-0.15705512
196	0xbea70494	-0.3262068
197	0xbeb69917	-0.35663673
198	0xbc907973	-0.017636037
199	0xbe6f07fa	-0.23342887
200	0xbe55d904	-0.20883566
201	0xbe18bb15	-0.14915116
202	0x3e35de6f	0.17760633
203	0xbec9d3da	-0.39419442
204	0xbe61399e	-0.21994635
205	0xbe7e26f6	-0.2481955
206	0xbe411e9b	-0.18859331
207	0xbe86b51f	-0.2631006
208	0xbdec11bd	-0.11526821
209	0xbdde6b77	-0.10860341
210	0xbea050e6	-0.3131172
211	0xbdef869c	-0.116955966
212	0xbe409407	-0.18806468
213	0xbe7886f2	-0.24270228
214	0xbee53cca	-0.4477294
215	0xbeb9fa79	-0.36323908
216	0x3b81ce0e	0.003961331
217	0x3c350ea9	0.011050859
218	0xbe0bb781	-0.1364422
219	0xbe883714	-0.2660452
220	0xbec0ae7a	-0.37633115
221	0xbebd5a1a	-0.36982805
222	0xbe47f0a3	-0.1952539
223	0xbe91fd9f	-0.2851381
224	0xbe93b5a4	-0.28849518
225	0xbd9412ff	-0.07230186
226	0xbe66a6f0	-0.22524619
227	0xbeac0b44	-0.33602345
228	0xbdd07650	-0.10178816
229	0xbe9edd61	-0.31028274
230	0x3bcc30f5	0.006231422
231	0xbe49a092	-0.19690159
232	0xbe6e1e93	-0.2325385
233	0xbd48b93f	-0.04900479
234	0x3eadaf50	0.33922815
235	0xbe7ff87d	-0.24997135
236	0xbebf1245	-0.37318626
237	0xbd45522c	-0.04817407
238	0xbdff62ff	-0.12470054
239	0xbe159798	-0.1460861
240	0xbe68cccc	-0.22734374
241	0xbdc23df1	-0.09484471
242	0xbe5fb6ee	-0.21847126
243	0xbec13a0f	-0.37739608
244	0xbdf13079	-0.117768236
245	0xbeccfda8	-0.40037274
246	0xbe938263	-0.28810415
247	0xbe375bd1	-0.17906119
248	0xbe6f464d	-0.23366661
249	0xbe4c06bd	-0.19924445
250	0xbe0560dd	-0.13025232
251	0xbe6dc08b	-0.2321798
252	0xbe67124f	-0.22565578
253	0xbf0f9814	-0.5609143
254	0xbdfe7c8e	-0.12426101
255	0xbe18d89d	-0.14926381

weight f4 [128, 256]
0	0x3defda5f	0.11711573
1	0x3e80442e	0.25052017
2	0x3d952f81	0.07284451
3	0xbe154d83	-0.1458035
4	0x3ec01c8b	0.37521777
5	0x3d49e328	0.0492889
6	0xbe046d07	-0.12932216
7	0x3ebf52ba	0.37367803
8	0xbe71d78b	-0.2361738
9	0x3d8f8593	0.07007899
10	0xbe19cc57	-0.15019356
11	0x3e0b6d35	0.13615878
12	0x3e2d50ba	0.16925326
13	0xbd4968ab	-0.049172085
14	0x3ecf783e	0.40521425
15	0x3ea678fd	0.32514182
16	0xbed96640	-0.42460823
17	0x3e6c6973	0.230871
18	0x3e603da9	0.21898521
19	0x3e0d8385	0.13819702
20	0xbc16bd29	-0.009200373
21	0xbdf73cd6	-0.120721504
22	0x3e51af3a	0.20477
23	0x3db78a88	0.089619696
24	0x3d2abd75	0.041684587
25	0x3e2926cd	0.16518708
26	0xbd2898fe	-0.04116153
27	0x3d9006ce	0.07032548
28	0x3bde9091	0.006792136
29	0xba54d480	-0.0008118823
30	0xbe3b33b7	-0.18281446
31	0x3e2d20c2	0.16907027
32	0xbe0080c4	-0.1254912
33	0x3eb55f71	0.3542438
34	0x3dd95bd9	0.10613222
35	0xbe9251db	-0.28578076
36	0xbb3c74bb	-0.00287561
37	0x3c9a66bc	0.018847816
38	0x3ec66616	0.3874976
39	0x3d9753fa	0.07389064
40	0x3e09ddf6	0.13463578
41	0x3d1af876	0.037834607
42	0x3d1f46a9	0.038885746
43	0x3ea56845	0.32306114
44	0x3e5df185	0.21674164
45	0x3e33d20b	0.17560594
46	0xbbf2ff2f	-0.007415674
47	0x3e1bb705	0.15206535
48	0x3e067a9a	0.13132706
49	0xbe116edc	-0.14202446
50	0x3ce5742c	0.028009497
51	0xbd380073	-0.044922303
52	0x3e6d0ca2	0.2314935
53	0x3db7c47c	0.08973023
54	0x3dafc0bb	0.08581682
55	0x3c85be68	0.016326144
56	0xbd9073b8	-0.070533216
57	0xbd53243a	-0.05154822
58	0xbd6d66b0	-0.05795926
59	0xbeeabd44	-0.45847523
60	0x3d4e7d86	0.050412677
61	0xbde0f3f4	-0.1098403
62	0xbb5d3e5d	-0.0033759095
63	0x3d5a9e43	0.053373586
64	0x3e4c9e64	0.19982296
65	0x3e548f8b	0.20757882
66	0x3e52fd4a	0.20604435
67	0xbe463249	-0.1935512
68	0xbe9f04df	-0.31058404
69	0x3d0af9ce	0.03392964
70	0x3d85fc56	0.0654227
71	0xbe9a505f	-0.30139443
72	0xbe86fa68	-0.2636292
73	0xbd94af99	-0.07260055
74	0xbb6e9e5c	-0.0036410308
75	0xbe552826	-0.20816097
76	0xbc65ccc1	-0.014025868
77	0x3e387932	0.18014982
78	0xbe20b920	-0.1569562
79	0xbde3dbe7	-0.111259274
80	0x3e09652a	0.13417497
81	0xbe149bc4	-0.14512545
82	0x3b9e046f	0.004822306
83	0x3d0a6ffb	0.0337982
84	0xbd757abb	-0.059931498
85	0xbd9a80cc	-0.07544097
86	0x3e2792a4	0.16364533
87	0xbeac24d6	-0.33621854
88	0xbe3aee3f	-0.18254946
89	0xbe82310b	-0.25428042
90	0x3e3b2eeb	0.18279617
91	0x3d952c23	0.07283809
92	0x3e2e5160	0.1702323
93	0xbd891bfb	-0.0669479
94	0x3e07e345	0.1327029
95	0x3dcfc55f	0.101450674
96	0x3e47d323	0.19514136
97	0xbe0ba81c	-0.13638347
98	0x3e3d85e5	0.18508108
99	0x3c06a9a2	0.008219155
100	0x3e89a8b2	0.26886517
101	0x3e2f2424	0.1710363
102	0x3e37afe2	0.17938188
103	0x3d91cd67	0.071192555
104	0x3e5da193	0.21643667
105	0xbc5c2d8f	-0.013438596
106	0xbe8e9a68	-0.27852178
107	0x3e6a8487	0.22902118
108	0xbe4ba4ec	-0.19887131
109	0xbef62f01	-0.48082736
110	0x3d1f437d	0.03888272
111	0x3ddf75b2	0.109111205
112	0xbe31da66	-0.17368469
113	0x3ef7069b	0.48247227
114	0xbdc31b2a	-0.095266655
115	0x3b9e4d94	0.0048310254
116	0x3deefca8	0.11669284
117	0x3e1e9aa5	0.1548868
118	0x3d6f2d7a	0.05839298
119	0x3df6fd08	0.12059981
120	0xbe2e676f	-0.17031644
121	0xbde09c3e	-0.10967301
122	0xbebbc173	-0.36671028
123	0x3e753b2f	0.23948358
124	0xbdeb4055	-0.1148688
125	0xbba04eaa	-0.00489219
126	0x3e9cbb10	0.30611467
127	0xbd2a6b3a	-0.041606165
128	0x3df8dee7	0.1215189
129	0xbe4c274f	-0.1993687
130	0x3e2b3e19	0.16722907
131	0xbe2f7c52	-0.17137268
132	0x3db2cd9e	0.087306246
133	0x3db60be0	0.08888984
134	0x3c8777ab	0.016536554
135	0x3dd84b29	0.10561211
136	0xbeb501da	-0.35352975
137	0xbc062df2	-0.008189665
138	0x3d1f1321	0.038836602
139	0x3ebe2f23	0.37145337
140	0x3e8ce86e	0.2752108
141	0xbd60f1eb	-0.05491821
142	0xbeea0f87	-0.4571497
143	0xb7c83ef8	-2.387118e-05
144	0xbcba6af8	-0.022756085
145	0x3df0ac0b	0.117515646
146	0xbed049dd	-0.40681353
147	0xbe38051f	-0.17970704
148	0x3e4237dd	0.18966623
149	0x3eaf210b	0.34204897
150	0x3e9c562a	0.30534488
151	0x3dd8ad4d	0.105799295
152	0xbdcc50d0	-0.09976351
153	0xbcb27c9a	-0.02178793
154	0xbe8f3433	-0.27969512
155	0xbe10b438	-0.14131248
156	0x3e06a97c	0.1315059
157	0xbd6a7d02	-0.057248123
158	0xbc4912ce	-0.01227255
159	0xbe90d028	-0.2828381
160	0x3bce2189	0.006290619
161	0x3e71c0df	0.2360873
162	0xbd86ee47	-0.065884165
163	0x3e43a833	0.19107132
164	0xbe1d336b	-0.15351646
165	0x3ee7c166	0.4526474
166	0xbdba85b7	-0.09107535
167	0xbe233152	-0.15936783
168	0x3d5c0c27	0.053722527
169	0x3e491cc2	0.19639876
170	0x3e48f86d	0.19626017
171	0x3c574212	0.013138311
172	0x3d6ed77a	0.058310963
173	0x3e3908f1	0.18069817
174	0xbcc1eaef	-0.023671595
175	0xbcde08a0	-0.027103722
176	0x3d998c8d	0.07497511
177	0xbe8d43c9	-0.27590778
178	0x3e002080	0.12512398
179	0xbeed316a	-0.46326762
180	0x3e3cf3d6	0.18452391
181	0x3e21716b	0.15765922
182	0x3e14b51c	0.14522213
183	0xbe1df32c	-0.15424794
184	0xbe37cfbd	-0.1795034
185	0x3dba1711	0.09086431
186	0x3ea8adcc	0.32945096
187	0x3d7b8b77	0.0614123
188	0xbde694e3	-0.11258867
189	0x3cbc225b	0.0229656
190	0x3e0afb1a	0.1357235
191	0xbd9b4a89	-0.07582576
192	0xbe81c256	-0.2534358
193	0x3eaecacb	0.34139094
194	0xbcf4f817	-0.029903455
195	0xbe01205e	-0.12610003
196	0x3db2a58a	0.0872298
197	0x3dfd8978	0.12379736
198	0x3def12b1	0.11673487
199	0x3b64f56e	0.0034936327
200	0x3e8466d1	0.25859693
201	0x3ea5b9b5	0.32368246
202	0xbe63da17	-0.22251163
203	0x3e78d79e	0.24301001
204	0x3d7ad11b	0.061234575
205	0x3d575206	0.052568458
206	0xbebe3ee4	-0.37157357
207	0xbdf3dae0	-0.119069815
208	0xbd802f46	-0.06259017
209	0xbe6c4b4f	-0.23075603
210	0x3e3f3bd3	0.18675165
211	0x3e59ac7f	0.21257208
212	0x3e3aaa71	0.1822908
213	0xbe72bc1e	-0.23704574
214	0x3e964a3f	0.2935352
215	0x3e355338	0.17707527
216	0xbb23e254	-0.0025006728
217	0x3ea403b9	0.3203409
218	0xbeb5cadc	-0.35506332
219	0x3dcb7f6b	0.099364124
220	0x3e986369	0.29763344
221	0xbba8614c	-0.005138552
222	0x3d860317	0.06543558
223	0x3deae6f8	0.11469835
224	0xbcd2d820	-0.025737822
225	0x3e018f06	0.12652215
226	0xbdf18533	-0.11792984
227	0xbe01b967	-0.12668382
228	0x3e9e96f3	0.3097454
229	0x3ce89518	0.028391406
230	0xbebd3e1d	-0.3696145
231	0xbe0260ac	-0.1273219
232	0xbdbfa6fc	-0.093580216
233	0x3e61a78d	0.22036572
234	0xbd7aac6c	-0.06119959
235	0x3ebf1d09	0.3732684
236	0x3eb54869	0.35406807
237	0xbcf90372	-0.03039715
238	0x3cc13a6f	0.023587434
239	0xbe75fe35	-0.24022754
240	0x3ebeef8c	0.37292135
241	0x3d8d65e7	0.06904202
242	0x3d526da5	0.051374096
243	0x3c5391fc	0.012913223
244	0x3e8b3bad	0.27193967
245	0x3edde07f	0.4333534
246	0x3e202559	0.15639247
247	0x3e57acdd	0.21062036
248	0xba5771a0	-0.00082185306
249	0xbdb76256	-0.08954303
250	0xbdcc509d	-0.09976313
251	0xbe87e947	-0.26545164
252	0x3e61fefe	0.22069928
253	0x3f18de86	0.59714544
254	0xbba75bd9	-0.0051073846
255	0x3d1d2bb3	0.038371753

bias f4 [128]
0	0xbe674a66	-0.22586975
1	0xbdc2370b	-0.09483155
2	0xbe7ecec2	-0.2488356
3	0xbeaa3dd1	-0.33250287
4	0xbe03a63d	-0.12856384
5	0xbe720aff	-0.23637007
6	0xbe8afce2	-0.2714606
7	0xbd1950c3	-0.037430536
8	0xbdb3f837	-0.087875776
9	0xbe30e2fe	-0.1727409
10	0xbe5b570b	-0.21419923
11	0xbeb870d9	-0.36023596
12	0xbdef975e	-0.11698793
13	0xbdea0056	-0.11425845
14	0xbe9ebba4	-0.31002533
15	0xbe027e45	-0.1274348
16	0xbec287f6	-0.37994355
17	0xbe33613d	-0.17517562
18	0xbec6a15e	-0.38794988
19	0xbd851e88	-0.06499964
20	0xbe59ba02	-0.21262363
21	0xbf0489b0	-0.51772594
22	0xbeb29d3f	-0.34885594
23	0xbdd86c3d	-0.1056752
24	0xbe543551	-0.20723464
25	0xbe7ce6e1	-0.24697448
26	0xbed23248	-0.41053987
27	0xbda17413	-0.078834675
28	0xbde1f3ab	-0.11032804
29	0xbe31c1f5	-0.17359145
30	0xbe30ac38	-0.17253196
31	0x3d3c9a7b	0.04604576
32	0xbec1fab3	-0.3788658
33	0xbde04fff	-0.10952758
34	0xbe82365e	-0.25432104
35	0xbb30df9c	-0.002698875
36	0xbe658412	-0.22413662
37	0xbe101142	-0.14069083
38	0xbe81832b	-0.25295386
39	0xbe3d68a5	-0.1849695
40	0x3af973c1	0.001903169
41	0xbb2f247a	-0.0026724623
42	0xbeba28c6	-0.36359233
43	0xbe145e08	-0.14488995
44	0xbe3cc586	-0.18434724
45	0xbdbc1a7f	-0.09184741
46	0xbda1cbbf	-0.079001896
47	0xbd729705	-0.059226055
48	0xbe4845b5	-0.19557841
49	0xbe3c575c	-0.183927
50	0xbe96eeb2	-0.29478985
51	0xbdbd69ce	-0.09248696
52	0xbe95bb04	-0.29244244
53	0xbd4e8092	-0.050415583
54	0xbe44316f	-0.19159482
55	0xbe425833	-0.18978958
56	0xbc555c15	-0.013022442
57	0xbdee3d87	-0.11632829
58	0xbf0a9eaf	-0.5414838
59	0xbf0a45ee	-0.54012954
60	0xbe24330b	-0.16035096
61	0xbe88a220	-0.26686192
62	0xbe723c76	-0.23655877
63	0xbe55eff0	-0.2089231
64	0xbe97e400	-0.29666138
65	0xbeb952dd	-0.36196032
66	0xbde9d618	-0.11417788
67	0x3e1d0dee	0.15337345
68	0xbd471fe1	-0.048614386
69	0xbe845aa5	-0.25850406
70	0xbc803401	-0.015649797
71	0xbe6e1708	-0.23250973
72	0xbedf85f6	-0.43656892
73	0xbec1200c	-0.37719762
74	0xbd82dbf7	-0.06389611
75	0xbd10e903	-0.035378467
76	0xbeb753ad	-0.35806027
77	0xbdf90c23	-0.12160518
78	0xbe791e3d	-0.24327941
79	0xbc1e5330	-0.009663388
80	0xbf0006e7	-0.5001053
81	0xbd007f56	-0.031371437
82	0xbe1f40af	-0.15552019
83	0x3c927361	0.017877283
84	0xbd19f543	-0.037587415
85	0xbe224290	-0.15845704
86	0xbd10f136	-0.035386287
87	0xbe2aee17	-0.16692387
88	0xbea18218	-0.31544566
89	0xbe86e122	-0.26343638
90	0xbe319766	-0.1734291
91	0xbdbc4b50	-0.09194052
92	0xbe4f428b	-0.20240228
93	0xbeb93c2b	-0.36178717
94	0xbe487e72	-0.19579485
95	0xbe96e18e	-0.2946896
96	0xbd7fe8f6	-0.06247803
97	0xbf0c493d	-0.5479925
98	0xbe26fbc8	-0.16306984
99	0xbe373cb2	-0.17894247
100	0xbeeb5705	-0.45964828
101	0xbe579a9b	-0.21055071
102	0xbe511d24	-0.20421273
103	0xbe36ffb9	-0.17870988
104	0xbe9a7e2c	-0.30174387
105	0xbe8ebfcc	-0.27880704
106	0xbd543722	-0.05181039
107	0xbeb2b0ef	-0.34900615
108	0xbf2d17cf	-0.67614454
109	0xbec0790e	-0.37592357
110	0xbe96991c	-0.29413688
111	0xbed8bcb0	-0.42331457
112	0xbd6520a6	-0.05593934
113	0xbe3067b9	-0.17227067
114	0xbee881e5	-0.45411602
115	0xbe7600e7	-0.24023782
116	0xbeb0e7ce	-0.34551853
117	0xbc8b3596	-0.016993325
118	0x3d74a240	0.059725046
119	0xbc80216d	-0.015640939
120	0xbebc7844	-0.36810505
121	0xbe119552	-0.14217117
122	0xbebaff69	-0.36522987
123	0xbe40ca13	-0.18827085
124	0xbcedce89	-0.029029148
125	0xbe0291eb	-0.12750976
126	0xbeaa58e3	-0.3327094
127	0xbeafe3c1	-0.3435345

weight f4 [8, 128]
0	0xbd2ed778	-0.042685956
1	0x3a35f025	0.00069403864
2	0xbd01be45	-0.031675596
3	0xbabeb3a0	-0.0014549382
4	0xbe191df5	-0.14952834
5	0xbd827b81	-0.06371213
6	0xbb822580	-0.0039717555
7	0x3da13996	0.07872312
8	0xbd2617ae	-0.040549926
9	0x3d724fb5	0.059158046
10	0xbce206f0	-0.027591199
11	0xbc3c598a	-0.011495957
12	0x3cefbad3	0.02926389
13	0x3da3c2c4	0.07996133
14	0x3d5d5f17	0.054045763
15	0xbc39f5d3	-0.011350113
16	0xbd198692	-0.037481852
17	0xbcff27c3	-0.03114689
18	0xbd8f3067	-0.06991654
19	0xbcb744b6	-0.022371631
20	0x3cfdd777	0.03098653
21	0x3bb06176	0.005382712
22	0x3d61794e	0.055047326
23	0x3b2a78d5	0.0026011963
24	0xbe173fba	-0.14770404
25	0xbd5a9f43	-0.05337454
26	0xbce72ea9	-0.028220491
27	0x3e339f58	0.17541254
28	0x3bd256dd	0.0064190463
29	0xbcb932ba	-0.022607196
30	0x3da26297	0.07928961
31	0xbca31ce5	-0.019911239
32	0x3d655a1c	0.055994138
33	0x3b6b1673	0.0035871535
34	0xbd4bdd89	-0.04977182
35	0x3caf7d8b	0.021422168
36	0xbdd7a72c	-0.105299324
37	0x3b031450	0.002000112
38	0xbd74cc50	-0.05976516
39	0xbc9e2652	-0.019305382
40	0x3d36d985	0.044641037
41	0xbb683330	-0.00354309
42	0xbc550677	-0.01300203
43	0x3dc30add	0.095235564
44	0xbdaa397f	-0.08311748
45	0x3d36145a	0.044453003
46	0x3d108ea7	0.035292294
47	0x3ce388aa	0.027775127
48	0x3c6cf886	0.0144635495
49	0xbc666b7f	-0.014063715
50	0xbe34706a	-0.17621008
51	0xbd69cca0	-0.05707991
52	0x3dbdbc5e	0.09264444
53	0x3e250d6b	0.161184
54	0x3d5bbe92	0.05364854
55	0xbd041ecc	-0.032255933
56	0xbd8da049	-0.069153376
57	0xbd87fd5c	-0.06640121
58	0xbe7428c8	-0.23843682
59	0xbd592b81	-0.053020004
60	0xbca2eb79	-0.019887673
61	0x3c940e49	0.018073218
62	0xbcbc1eda	-0.02296393
63	0x3dcdf282	0.1005602
64	0x3caead99	0.021323012
65	0x3d015f54	0.031585053
66	0xbdd243b8	-0.102668226
67	0x3e157a92	0.14597538
68	0xbd395287	-0.04524472
69	0x3d3840e0	0.044983745
70	0x3d4e2e84	0.05033733
71	0x3caf71f7	0.021416647
72	0xbda9ad56	-0.08285014
73	0x3d3ffdc0	0.046872854
74	0x3d09d321	0.033648614
75	0x3d16e3d6	0.036838375
76	0xbd93d5f1	-0.072185405
77	0x3be88e60	0.0070970505
78	0x3ca9c189	0.020722168
79	0x3dbaf60d	0.09128962
80	0xbdae2342	-0.08502819
81	0x3d795ea0	0.060881257
82	0xbd477808	-0.048698455
83	0x3daacf53	0.08340325
84	0xbc68a153	-0.014198619
85	0xbb3cca3e	-0.002880707
86	0x3dbf8ffe	0.09353636
87	0xbc7f2a34	-0.015574027
88	0x3e098e16	0.13433108
89	0xbd0c81c0	-0.034303427
90	0x3d963dce	0.07336007
91	0xbc61aa13	-0.013773459
92	0x3d427609	0.04747585
93	0xbd04369c	-0.032278642
94	0xbca952a4	-0.020669289
95	0xbd8f45d7	-0.06995743
96	0x3c9875ec	0.018610917
97	0xbe09f80b	-0.13473527
98	0xbd818622	-0.06324412
99	0x3ca42686	0.0200379
100	0x3da9c906	0.08290295
101	0x3cad7521	0.021174015
102	0xbaeac08b	-0.0017910165
103	0x3d78dcd7	0.060757484
104	0x3ddb7f0a	0.1071759
105	0x3cdcbaba	0.026944507
106	0xbd275a41	-0.040857557
107	0x3c9a589b	0.018841079
108	0xbda0aaaf	-0.07845055
109	0x3d99df96	0.07513349
110	0x3d31d173	0.043412637
111	0xbda0843f	-0.07837724
112	0x3e19e940	0.15030384
113	0xbaae7a39	-0.0013311572
114	0xbd083501	-0.033253673
115	0x3d2171c0	0.03941512
116	0xbd8a25d6	-0.06745498
117	0xbd1ef254	-0.03880532
118	0x3cbd9c5b	0.023145845
119	0xbd00fd11	-0.031491343
120	0x3ccf51ab	0.025307497
121	0x3d5cd7fa	0.05391691
122	0xbd1b8b4e	-0.03797465
123	0xbbf81823	-0.0075712367
124	0xbc3cd962	-0.0115264375
125	0x3ce2899d	0.02765351
126	0x3e18081d	0.14846845
127	0xbc5fed01	-0.013667346
128	0xbda483fc	-0.080329865
129	0x3e0a5a48	0.13511002
130	0xbbff9239	-0.0077994135
131	0xbe0b608b	-0.13611047
132	0xbc398660	-0.011323541
133	0x3e19d23f	0.15021609
134	0x3c88e6b8	0.016711578
135	0xbccae944	-0.024769433
136	0xbc3add1d	-0.011405257
137	0x3e065022	0.13116506
138	0x3ddb6d8e	0.10714255
139	0xbda1c92d	-0.07899699
140	0x3d211620	0.03932774
141	0xbaff128c	-0.0019460483
142	0x3d8bcc2c	0.06826052
143	0x3c87913c	0.016548745
144	0x3d42a65c	0.047521934
145	0xbc1a8e9b	-0.009433414
146	0xbddd520d	-0.108066656
147	0xbcca82df	-0.024720607
148	0x3dbdb60c	0.09263238
149	0x3c30164c	0.0107475035
150	0xbda2d6fe	-0.07951163
151	0xbdfe61ab	-0.124209724
152	0x3de3c943	0.11122372
153	0x3d474805	0.048652668
154	0x3d4493ec	0.04799263
155	0x3d083683	0.03325511
156	0xbc574b71	-0.013140545
157	0x3d857074	0.06515589
158	0x3d2116cc	0.03932838
159	0x3cbb333a	0.022851575
160	0x3ca1617c	0.019699804
161	0xbc87bf29	-0.016570644
162	0x3dd3da6e	0.103443965
163	0xbd87f084	-0.066376716
164	0xbdbfe8cb	-0.093705736
165	0xbd5cb917	-0.053887453
166	0xbc9f83e2	-0.019472066
167	0xbcbf20b0	-0.023331016
168	0x3c17d0ff	0.009266137
169	0x3d36dd2e	0.044644527
170	0xbdc52548	-0.096262515
171	0x3c82baeb	0.01595827
172	0x3dacf149	0.08444459
173	0xbd0b434d	-0.03399973
174	0xbd859b6a	-0.065237835
175	0xbac31b6c	-0.0014885492
176	0x3daff195	0.08591
177	0xbda5dcd8	-0.08098763
178	0x3d3678b9	0.044548724
179	0xbc97c77a	-0.018527735
180	0x3d2450f6	0.040116273
181	0xbe036c03	-0.12834172
182	0x3b6718cc	0.0035262583
183	0xbdcaa144	-0.0989404
184	0xbbe00f41	-0.006837756
185	0x3d6b2e99	0.057417486
186	0xbd105876	-0.035240613
187	0x3dc8eef5	0.098112024
188	0xbd66db5c	-0.05636154
189	0x3c913c82	0.017729048
190	0xbd9fc05a	-0.0780036
191	0x3cb4cfa7	0.022071673
192	0xbc9efadc	-0.019406728
193	0xbe34e749	-0.17666353
194	0xbcebe27b	-0.028794518
195	0x3ce06cb8	0.027395591
196	0x3da474ce	0.08030091
197	0x3c47e82d	0.012201351
198	0xbd234cfa	-0.039868332
199	0xbd165e82	-0.036711223
200	0x3bf48c39	0.007463005
201	0xbe6e0731	-0.23244931
202	0x3d48035a	0.04883132
203	0xbcc480db	-0.023987224
204	0xbc9c6c6b	-0.019094666
205	0xbdf9c0f6	-0.121950075
206	0xbd27ca9c	-0.040964708
207	0x3b85af22	0.0040797153
208	0xbc8bc0e5	-0.017059753
209	0x3bef42ae	0.00730165
210	0xbba12565	-0.004917788
211	0xbcb6f344	-0.022332795
212	0x3d8b5731	0.0680374
213	0x3cfa3761	0.030543985
214	0xbcf6d51f	-0.030130921
215	0xbdb6e3b7	-0.08930152
216	0x3d215199	0.03938446
217	0xbd6a95c0	-0.05727172
218	0xbb3a46a8	-0.0028423462
219	0xbb997ff2	-0.0046844417
220	0xbd249829	-0.040184174
221	0x3d90984a	0.07060297
222	0x3dcd5598	0.10026091
223	0xbd16bf83	-0.036803734
224	0xbc60d5bf	-0.013722836
225	0x3c518e77	0.012790314
226	0xbc5612bf	-0.013065993
227	0xbde3fa6f	-0.11131751
228	0xbe4af0ca	-0.19818416
229	0xbd0749e6	-0.03302946
230	0x3c3249bf	0.01088184
231	0xbd319b1e	-0.043360822
232	0x3dc39c29	0.095512696
233	0xbe002d8b	-0.12517373
234	0xbda42963	-0.080157064
235	0x3dd2c987	0.102923445
236	0x3d3679d4	0.044549778
237	0x3dd7b0d3	0.105317734
238	0x3c79b84b	0.015241693
239	0xbc864ebe	-0.01639497
240	0xbc8c0f06	-0.017097007
241	0xbe116d3a	-0.14201823
242	0xbd037129	-0.03209034
243	0xbdc211ed	-0.09476075
244	0xbe14947f	-0.14509772
245	0xbcb01132	-0.021492574
246	0x39fe0918	0.0004845343
247	0x3ddfd583	0.10929396
248	0xbe864b9f	-0.2622957
249	0xbd322efc	-0.04350184
250	0xbe361c64	-0.17784268
251	0xbba23bdb	-0.004950983
252	0xbcd5531d	-0.026040608
253	0x3d9eaf50	0.07748282
254	0x3d6b561d	0.05745517
255	0x3d74d5c3	0.05977417

bias f4 [8]
0	0x3e0f50a5	0.13995607
1	0x3e065305	0.13117607
2	0xbdfe3a6c	-0.12413487
3	0x3e1b4e65	0.15166624
4	0xbedbf631	-0.42961267
5	0xbd77e45f	-0.060520526
6	0x3e7fc68d	0.24978085
7	0xbe331b86	-0.17490968
