logs/limx_arm/SF_TRON1A_ARM/exported/policies/policy.onnx (onnx, 777715 bytes, 8 tensors)

0.bias f4 [512]
00000000: 9a00 78bd 6c49 cdbb 93da 273d beec afbd
00000010: a4ce 6cbe 3150 a03e dfdb 643e d16a 21be
00000020: efe0 22be fefa 133d cb31 eebd e959 843e
00000030: cb2f 043e 0359 5abc 119c 64be 5b4b 7ebc
00000040: 4c28 ccbe c202 e6bd 73ab 3bbd a803 62bd
00000050: d9c0 0a3e 91f2 cbbd f9a1 5fbc c629 cabe
00000060: 07f8 943e 6e99 023e 3b11 cabd 9f90 66bd
00000070: add2 f23d b4ae e6bd 5a7f c63d 5709 e93c
00000080: 5a94 25be a25f 843e 980a a0bc 1ef4 4c3d
00000090: 88bc 413e 7ad5 ad3d 0258 0ebf d87a fabd
000000a0: d551 2cbf c1a8 233d e784 a13c ae0b a0be
000000b0: be3d 8c3e b05b 573e 7f8d 65be 2518 a53d
000000c0: 30ec 8ebd 27b6 52be 4e25 ecbd 9995 06be
000000d0: 0801 88bd 4dd5 4fbf fc6f c53d 8080 61bd
000000e0: e490 a93d 4455 d13d b091 5cbe 4183 a0be
000000f0: f063 cfbd fd37 bd3e d876 7abc f6da 0b3e
00000100: f502 28be dff7 91be 5c24 65bd 358e a8bd
00000110: bd5c 063e 9804 6cbe ab28 d0bc 68a1 043e
00000120: 353a 91bc e263 983e 8563 48bd e269 86be
00000130: 3016 65bd 17b3 25be edf1 143e 370b 21be
00000140: 315b 173e 78a7 043e bd92 f6bc 307f 4cbd
00000150: 2b18 2b3e dfda 983e 7ff1 33bd 7ccb 9abd
00000160: 386c c3be 9bdd 85ba 644a f4bd 7585 323e
00000170: 3b60 51bd f7a6 a8bc 72a9 d7bd 3aa6 f73c
00000180: 34fa 4dbe b878 553e 916b 79bd 7bea 5dbc
00000190: d5ff 223d 2de6 25be da8e 8ebe d175 203e
000001a0: 0492 d53c e1d6 36be 50e3 d73d 53e1 bc3d
000001b0: 35ad 9d3d 1830 33bd ac5a ebbd 7419 763e
000001c0: 0198 c93c 383a 83be adec c0be 9f6f 813e
000001d0: 79b4 86bd a0ad a63e 3828 80be 1ddf 443d
000001e0: 9050 083d bde4 633e 4926 9b3c 4e06 44be
000001f0: 410b b43d 2a85 3abe d64d debd 9ebf a8be
00000200: da8a 6e3e c047 bcbd 2072 64bd 9605 973b
00000210: 9794 3a3e cb70 85be d373 863d a001 02bd
00000220: f5cd f5bd 84fe dd3d 8c7d 41be add0 c23d
00000230: 1ceb 413e 32cf 803d 2ad3 66be 1316 993d
00000240: 33c9 46be 4f49 013c 071d acbd 98ee 243c
00000250: e7e2 b7be 033c 113e 0f9a 893e ac85 cdbd
00000260: 7d66 933d b3c0 543e bb71 da3d 54f4 87be
00000270: ab9d 2cbe 6a88 2ebd aebc d1bd ad52 333d
00000280: c4d1 d93c 6652 333e 4c7b 65be 5240 25be
00000290: da77 bebd 3854 6e3e 3a07 cc3d 387f ae3e
000002a0: f6e2 88bd 831c b6be bcf5 0a3e 2210 49be
000002b0: 55ae 8e3d 41e2 283d f7c7 2bbe b068 50be
000002c0: 8f71 87be e96c 14be d28f 873e 187d 40be
000002d0: 14a5 bf3c 69dd 6bbd 1a6f 10bd 7db7 85bb
000002e0: 04b5 bcbd a6c7 9fbe b4f2 a9bd 3b47 b4bd
000002f0: b6f0 7f3e b034 46bd dc90 a2bd cee3 05be
00000300: 557f 98be df05 c5be 66f4 36be 4fb7 833b
00000310: 8bc1 013e 1fdb 493e f04d a0bc a501 403e
00000320: 607b 62bc caa0 48be 10c2 54be c783 96be
00000330: ac91 543d 6fd7 38be a3dc ebbd f0d0 23bc
00000340: 6ee6 07be 0f49 8abe c617 2abe b765 ccbd
00000350: 8308 84bd 8bc0 88be 285f 5e3e 069d 1abe
00000360: 53f3 833d d729 743c 19f2 04be e46d 17be
00000370: 084a 16be f256 003e 80e2 c83d 5bd3 0bbe
00000380: b2f3 373d 09e2 1b3e d0bc 84be 9476 d23d
00000390: 9868 3b3d bcc8 10be 5948 84be feb6 043e
000003a0: 9534 90be b150 d1bc ac0d bbbd 21eb 8b3d
000003b0: a875 93be 78d9 463e 19f9 bcbe 0f79 973d
000003c0: 9210 c53d 3297 963e 898f 84bd 06ce 183d
000003d0: d7ed f53d ca56 0bbe 9ff9 9d3d e809 38bf
000003e0: 5dfc e9bd ae15 40be b9e4 593e 11a3 e13d
000003f0: d731 033e 674d 263e 90bc 12bd 5363 88be
-0.06054745 -0.006264856 0.040979933 -0.08590077 -0.23125702 0.3131118 0.22349499 -0.15763403
-0.15906118 0.036128037 -0.11630591 0.25849846 0.12908857 -0.013326886 -0.2232516 -0.015520896
-0.39874494 -0.11230995 -0.045817804 -0.055179268 0.13550128 -0.09958375 -0.013649457 -0.39484996
0.2909548 0.12753841 -0.09866568 -0.056290265 0.118565895 -0.11263791 0.09692259 0.028446836
-0.16169873 0.25854212 -0.019536301 0.050037496 0.18919575 0.08487983 -0.5560304 -0.12230462
-0.67312366 0.03995586 0.019716693 -0.3125891 0.27390856 0.2103107 -0.22417258 0.08061246
-0.06978643 -0.20577298 -0.11530553 -0.13143004 -0.06640822 -0.81184846 0.096405 -0.055054188
0.08279589 0.10221341 -0.2153995 -0.3135014 -0.101264834 0.36956778 -0.015287124 0.13657746
-0.16407378 -0.28509423 -0.055942878 -0.08230249 0.13121314 -0.23048627 -0.025410017 0.12952197
-0.01772795 0.29763705 -0.048923034 -0.26252657 -0.055929363 -0.16181599 0.14545412 -0.15726934
0.1478088 0.1295451 -0.030099267 -0.049925983 0.16708438 0.29854485 -0.04393148 -0.07558343
-0.38168502 -0.0010213138 -0.119282514 0.17433722 -0.051117163 -0.020587428 -0.10530366 0.03023063
-0.20114976 0.20846832 -0.0608936 -0.013544674 0.03979476 -0.16201086 -0.27843362 0.15669943
0.026070602 -0.17855407 0.10541403 0.09222665 0.07699052 -0.043747038 -0.11491904 0.24033147
0.024608614 -0.25630355 -0.3768057 0.25280473 -0.06577391 0.3255434 -0.25030684 0.04806434
0.033279955 0.22255225 0.018939154 -0.1914303 0.08791209 -0.1821486 -0.1085469 -0.32958692
0.23295155 -0.09193373 -0.0557729 0.00460882 0.18220745 -0.26062617 0.065650605 -0.03173983
-0.12002174 0.10839561 -0.18895549 0.09512458 0.18937343 0.06289519 -0.2254149 0.074749134
-0.19412689 0.007891013 -0.08403974 0.010066651 -0.359153 0.14183049 0.2687535 -0.100352615
0.071972825 0.20776634 0.106662236 -0.26553595 -0.1685702 -0.042610563 -0.10241066 0.043780018
0.026589282 0.17511901 -0.22410315 -0.16137818 -0.093002036 0.23274314 0.09962316 0.34081435
-0.06683914 -0.35568628 0.13570303 -0.1963506 0.06966845 0.041231398 -0.167755 -0.20352435
-0.26453826 -0.14494671 0.26476914 -0.1879772 0.023394145 -0.0575842 -0.035262205 -0.0040807114
-0.092142135 -0.31207007 -0.08298245 -0.08802649 0.24994168 -0.04839009 -0.07937786 -0.13075182
-0.29784647 -0.38481042 -0.17866668 0.004019655 0.12671487 0.19712494 -0.019568413 0.18750627
-0.01382336 -0.19592586 -0.20777154 -0.29397413 0.051896736 -0.18050931 -0.115166925 -0.009998545
-0.13271496 -0.27008864 -0.16610631 -0.09980338 -0.06446936 -0.267094 0.21715987 -0.15098962
0.06442895 0.0149025535 -0.12982978 -0.14788014 -0.14676678 0.12533167 0.098088264 -0.13654844
0.04491014 0.15222944 -0.25925303 0.10276523 0.045754045 -0.14139074 -0.25836447 0.12960431
-0.28165117 -0.025551172 -0.09133467 0.06831957 -0.28800702 0.19418895 -0.36908796 0.07396137
0.09622301 0.29412228 -0.0647269 0.037305854 0.12008255 -0.13607326 0.07713627 -0.71890116
-0.114250876 -0.1875827 0.21278657 0.110174306 0.12811981 0.16240464 -0.03582436 -0.26638278

2.bias f4 [256]
00000000: 44bf c6bd 3cc1 0cbe 188c 3dbe e877 aebd
00000010: aada 33be f13d 84be f3b9 a1bd 80d9 3fbe
00000020: dbd6 15be bb54 15be 7f94 d7bc 7e30 77be
00000030: c594 0cbe 3233 05bd 4d64 d8be 7590 ba3c
00000040: e7ed 19be 6c98 b6be 9974 b5bd 9bd2 2dbe
00000050: 4d22 a8bd 2a13 3cbe 427c 1fbe 35ac 3fbe
00000060: f45f 83be f2a4 41be 6ddf 94be 2ba4 21be
00000070: 57b1 2fbe 2be1 04be daf7 17be 6256 68be
00000080: c94d 9fbe 3962 3fbd d8d3 46be a61a 12be
00000090: bd92 efbd 595c 50be 5308 8fbe 12e3 1cbc
000000a0: 1ad1 13bf 5ac6 7ebe deee 45be c44a 91be
000000b0: 842d 5fbe 6e89 b3be 0538 5bbe 6c0b 34be
000000c0: e1c9 25bf 84c2 14be 3d17 d0be 7229 e0bd
000000d0: 57d9 87be bf78 13bc c8ac 643d 2330 e1bd
000000e0: f96a 83be f4ac a0be 81a4 80be 4488 383e
000000f0: 83ae d0bc 542f c6be 6a13 8ebe bd94 8bbe
00000100: 0e39 98be 76fe ffbe 0f73 e4be 9f09 123e
00000110: a905 90bd aa2e 9fbe efe1 cfbe 5e49 67be
00000120: b2c5 7dbc ad9a 8dbe 5dd4 87bc b52f 21be
00000130: 6928 60be f95f 6fbe 73bf 2bbe 7bf4 2cbe
00000140: c999 4bbe 5095 31be 3d7a 98be b02b 50be
00000150: 11d3 9ebe ee89 a2bd ec9e 6cbe 6e5e 1bbd
00000160: ddce 61bd 6386 f23b e98e 8abe 56e8 55be
00000170: 6a87 14be 463e 3dbe 2e6b 8cbe 8732 c0be
00000180: acad d5be 3f0a 23be 7b3e 34be 5b96 bfbd
00000190: 4a78 51be c115 66be f30f 27be d7d4 8abe
000001a0: 0d70 a23d e50b 9dbe a21c 39be 64e7 abbe
000001b0: 653d 92be 3bd4 38be 3e8e 89bd 5f52 f1be
000001c0: 0643 dabd d633 4fbe 2e9c 5ebe ce9f b5bc
000001d0: f321 9bbe 5388 81be dd52 05be 6670 b6be
000001e0: 0346 c83d 2f43 e5be c841 6e3e 28c0 c7be
000001f0: c5fe 41bd 5575 2ebe 6002 a7be b061 82bd
00000200: 7bb3 acbe c711 40bc 082c 69bd 55e2 38be
00000210: 44d1 97be 6bf8 9cbe 3063 72be 6456 f3be
00000220: 4132 1cbe fa91 51be 11f8 8ebd 354f a9be
00000230: cc8a 20be 4325 82be c0ab 4ebe a8da 8abe
00000240: 4c2e 6bbe 254c c4bd 8888 1a3d 2174 31be
00000250: 9b02 90be 9d6d 2cbe c349 bebd b8be 2dbe
00000260: 4c7e 5dbe a1c0 27be 8646 85bc 613f 1fbe
00000270: ab2b 7ebe 12ba 45bc 8ea3 31be 2923 0fbe
00000280: 56e7 4abe d9c1 35be e606 49bd a5d1 a5be
00000290: 37d6 88bd 4e79 74be 30ac 9bbe 7188 d43d
000002a0: 26de 34be 817f 5ebe 9321 87be 5315 81be
000002b0: 7fd7 e0bd 71fd b33d d1e7 b7be 792f 26be
000002c0: 6583 8bbe 4bd2 42be 90ca 1abe e365 433d
000002d0: c16d 59be 9088 19be 7e94 80be f80f 31be
000002e0: fe32 01be ba86 ccbe 76ac 99be 3c59 5ebe
000002f0: 70b6 f73d d83c 36be fc11 bcbe 758d 5abe
00000300: f7a2 06be a027 67be 661f 4abe 0fd3 20be
00000310: 9404 a7be 1799 b6be 7379 90bc fa07 6fbe
00000320: 04d9 55be 15bb 18be 6fde 353e dad3 c9be
00000330: 9e39 61be f626 7ebe 9b1e 41be 1fb5 86be
00000340: bd11 ecbd 776b debd e650 a0be 9c86 efbd
00000350: 0794 40be f286 78be ca3c e5be 79fa b9be
00000360: 0ece 813b a90e 353c 81b7 0bbe 1437 88be
00000370: 7aae c0be 1a5a bdbe a3f0 47be 9ffd 91be
00000380: a4b5 93be ff12 94bd f0a6 66be 440b acbe
00000390: 5076 d0bd 61dd 9ebe f530 cc3b 92a0 49be
000003a0: 931e 6ebe 3fb9 48bd 50af ad3e 7df8 7fbe
000003b0: 4512 bfbe 2c52 45bd ff62 ffbd 9897 15be
000003c0: cccc 68be f13d c2bd eeb6 5fbe 0f3a c1be
000003d0: 7930 f1bd a8fd ccbe 6382 93be d15b 37be
000003e0: 4d46 6fbe bd06 4cbe dd60 05be 8bc0 6dbe
000003f0: 4f12 67be 1498 0fbf 8e7c febd 9dd8 18be
-0.0970445 -0.13745588 -0.18510473 -0.08518964 -0.17563882 -0.25828508 -0.07896795 -0.18735313
-0.14632742 -0.14583103 -0.026315926 -0.24139592 -0.13728626 -0.032519527 -0.42264023 0.02277396
-0.15032159 -0.35663164 -0.0886013 -0.16974871 -0.08209667 -0.18366686 -0.15574744 -0.18718036
-0.25659144 -0.18910578 -0.2907671 -0.15785281 -0.17157494 -0.1297652 -0.14840642 -0.22689202
-0.31114033 -0.04672453 -0.1941675 -0.14267978 -0.1169791 -0.20347728 -0.27936038 -0.009575622
-0.5774094 -0.24880353 -0.19329402 -0.28377354 -0.21794707 -0.35065788 -0.21408089 -0.17582482
-0.6476117 -0.14527327 -0.4064273 -0.10945405 -0.26533005 -0.009000956 0.05582884 -0.109955095
-0.2566755 -0.31381953 -0.25125507 0.18020731 -0.025473839 -0.38707983 -0.27749187 -0.27261916
-0.2973103 -0.49998826 -0.44619033 0.14261483 -0.070323296 -0.3109029 -0.4060206 -0.22586581
-0.015489029 -0.2765707 -0.016580755 -0.15740855 -0.21890415 -0.23376454 -0.16772251 -0.16890137
-0.19882883 -0.17342114 -0.2978076 -0.20329165 -0.31020406 -0.07936464 -0.23107499 -0.037931852
-0.05512892 0.007401274 -0.27062157 -0.2088941 -0.14504781 -0.18480787 -0.27425522 -0.3753855
-0.41734064 -0.15921877 -0.1760196 -0.0935485 -0.20456043 -0.22469236 -0.16314678 -0.2711551
0.07931528 -0.30673137 -0.18077329 -0.33574975 -0.28562465 -0.1804971 -0.06716584 -0.47133157
-0.10657315 -0.20234618 -0.21739265 -0.022170927 -0.3029934 -0.2529932 -0.13019891 -0.35632628
0.09778979 -0.4477782 0.23267281 -0.3901379 -0.047362108 -0.17036946 -0.32619 -0.06366289
-0.33730683 -0.011722988 -0.056926757 -0.18055089 -0.29651845 -0.30658278 -0.2367065 -0.47526848
-0.15253545 -0.20465842 -0.06980909 -0.33068243 -0.15677947 -0.25419053 -0.20182705 -0.27119946
-0.2296688 -0.09584836 0.037727863 -0.17329456 -0.28126988 -0.16838689 -0.09291413 -0.16967285
-0.2163021 -0.16382076 -0.01626898 -0.15551521 -0.24821346 -0.012068288 -0.17347547 -0.13978256
-0.1981481 -0.17749728 -0.049078844 -0.3238651 -0.06681483 -0.23874399 -0.30404806 0.10377587
-0.17662868 -0.21728326 -0.26392803 -0.25211582 -0.109786026 0.087885745 -0.3591905 -0.16229047
-0.27248684 -0.19025533 -0.15116334 0.04770459 -0.21233274 -0.149935 -0.2511329 -0.17291248
-0.12617108 -0.39946538 -0.3001439 -0.21713728 0.12095344 -0.17796648 -0.3673247 -0.21343024
-0.13148104 -0.2257371 -0.1973854 -0.15705512 -0.3262068 -0.35663673 -0.017636037 -0.23342887
-0.20883566 -0.14915116 0.17760633 -0.39419442 -0.21994635 -0.2481955 -0.18859331 -0.2631006
-0.11526821 -0.10860341 -0.3131172 -0.116955966 -0.18806468 -0.24270228 -0.4477294 -0.36323908
0.003961331 0.011050859 -0.1364422 -0.2660452 -0.37633115 -0.36982805 -0.1952539 -0.2851381
-0.28849518 -0.07230186 -0.22524619 -0.33602345 -0.10178816 -0.31028274 0.006231422 -0.19690159
-0.2325385 -0.04900479 0.33922815 -0.24997135 -0.37318626 -0.04817407 -0.12470054 -0.1460861
-0.22734374 -0.09484471 -0.21847126 -0.37739608 -0.117768236 -0.40037274 -0.28810415 -0.17906119
-0.23366661 -0.19924445 -0.13025232 -0.2321798 -0.22565578 -0.5609143 -0.12426101 -0.14926381

4.bias f4 [128]
00000000: 664a 67be 0b37 c2bd c2ce 7ebe d13d aabe
00000010: 3da6 03be ff0a 72be e2fc 8abe c350 19bd
00000020: 37f8 b3bd fee2 30be 0b57 5bbe d970 b8be
00000030: 5e97 efbd 5600 eabd a4bb 9ebe 457e 02be
00000040: f687 c2be 3d61 33be 5ea1 c6be 881e 85bd
00000050: 02ba 59be b089 04bf 3f9d b2be 3d6c d8bd
00000060: 5135 54be e1e6 7cbe 4832 d2be 1374 a1bd
00000070: abf3 e1bd f5c1 31be 38ac 30be 7b9a 3c3d
00000080: b3fa c1be ff4f e0bd 5e36 82be 9cdf 30bb
00000090: 1284 65be 4211 10be 2b83 81be a568 3dbe
000000a0: c173 f93a 7a24 2fbb c628 babe 085e 14be
000000b0: 86c5 3cbe 7f1a bcbd bfcb a1bd 0597 72bd
000000c0: b545 48be 5c57 3cbe b2ee 96be ce69 bdbd
000000d0: 04bb 95be 9280 4ebd 6f31 44be 3358 42be
000000e0: 155c 55bc 873d eebd af9e 0abf ee45 0abf
000000f0: 0b33 24be 20a2 88be 763c 72be f0ef 55be
00000100: 00e4 97be dd52 b9be 18d6 e9bd ee0d 1d3e
00000110: e11f 47bd a55a 84be 0134 80bc 0817 6ebe
00000120: f685 dfbe 0c20 c1be f7db 82bd 03e9 10bd
00000130: ad53 b7be 230c f9bd 3d1e 79be 3053 1ebc
00000140: e706 00bf 567f 00bd af40 1fbe 6173 923c
00000150: 43f5 19bd 9042 22be 36f1 10bd 17ee 2abe
00000160: 1882 a1be 22e1 86be 6697 31be 504b bcbd
00000170: 8b42 4fbe 2b3c b9be 727e 48be 8ee1 96be
00000180: f6e8 7fbd 3d49 0cbf c8fb 26be b23c 37be
00000190: 0557 ebbe 9b9a 57be 241d 51be b9ff 36be
000001a0: 2c7e 9abe ccbf 8ebe 2237 54bd efb0 b2be
000001b0: cf17 2dbf 0e79 c0be 1c99 96be b0bc d8be
000001c0: a620 65bd b967 30be e581 e8be e700 76be
000001d0: cee7 b0be 9635 8bbc 40a2 743d 6d21 80bc
000001e0: 4478 bcbe 5295 11be 69ff babe 13ca 40be
000001f0: 89ce edbc eb91 02be e358 aabe c1e3 afbe
-0.22586975 -0.09483155 -0.2488356 -0.33250287 -0.12856384 -0.23637007 -0.2714606 -0.037430536
-0.087875776 -0.1727409 -0.21419923 -0.36023596 -0.11698793 -0.11425845 -0.31002533 -0.1274348
-0.37994355 -0.17517562 -0.38794988 -0.06499964 -0.21262363 -0.51772594 -0.34885594 -0.1056752
-0.20723464 -0.24697448 -0.41053987 -0.078834675 -0.11032804 -0.17359145 -0.17253196 0.04604576
-0.3788658 -0.10952758 -0.25432104 -0.002698875 -0.22413662 -0.14069083 -0.25295386 -0.1849695
0.001903169 -0.0026724623 -0.36359233 -0.14488995 -0.18434724 -0.09184741 -0.079001896 -0.059226055
-0.19557841 -0.183927 -0.29478985 -0.09248696 -0.29244244 -0.050415583 -0.19159482 -0.18978958
-0.013022442 -0.11632829 -0.5414838 -0.54012954 -0.16035096 -0.26686192 -0.23655877 -0.2089231
-0.29666138 -0.36196032 -0.11417788 0.15337345 -0.048614386 -0.25850406 -0.015649797 -0.23250973
-0.43656892 -0.37719762 -0.06389611 -0.035378467 -0.35806027 -0.12160518 -0.24327941 -0.009663388
-0.5001053 -0.031371437 -0.15552019 0.017877283 -0.037587415 -0.15845704 -0.035386287 -0.16692387
-0.31544566 -0.26343638 -0.1734291 -0.09194052 -0.20240228 -0.36178717 -0.19579485 -0.2946896
-0.06247803 -0.5479925 -0.16306984 -0.17894247 -0.45964828 -0.21055071 -0.20421273 -0.17870988
-0.30174387 -0.27880704 -0.05181039 -0.34900615 -0.67614454 -0.37592357 -0.29413688 -0.42331457
-0.05593934 -0.17227067 -0.45411602 -0.24023782 -0.34551853 -0.016993325 0.059725046 -0.015640939
-0.36810505 -0.14217117 -0.36522987 -0.18827085 -0.029029148 -0.12750976 -0.3327094 -0.3435345

6.bias f4 [8]
00000000: a550 0f3e 0553 063e 6c3a febd 654e 1b3e
00000010: 31f6 dbbe 5fe4 77bd 8dc6 7f3e 861b 33be
0.13995607 0.13117607 -0.12413487 0.15166624 -0.42961267 -0.060520526 0.24978085 -0.17490968

onnx::MatMul_24 f4 [44, 512]
00000000: 879d 7f3d af4e cabe 1e82 073c bef7 a8be
00000010: a527 27be 3b70 0d3e 777b 303f 7e1e 263e
00000020: ce64 2a3e 97bd 5a3d ee9f 293e 36ce 7f3e
00000030: 124e 48be 48ae 033d b81f 8bbe 4c45 acbe
00000040: c5d8 b93d 60ea 7abe 8637 443f ebf4 acbd
00000050: 00a6 053e c8eb 26be 5e8b fdbd 1b98 bebd
00000060: 9bc2 40be 99c5 68be 0879 113e 015b 083e
00000070: 3997 963e fd04 be3e 8c2a c0bd 9485 563e
00000080: 77e6 ba3e 4180 773e a7f4 633d 2f5e 20bd
00000090: 8233 afbd 954a 513d 092a 423e 7c7d 233e
000000a0: b1f9 713d 9958 5f3e 653a f7bd c950 5a3d
000000b0: 81db 49be d918 b6be 5349 c93b 9275 5abe
000000c0: a728 9abe 0107 133e 6ac2 7c3f 56cf 2c3e
000000d0: 1399 783e d295 563e 329e 4f3f dca1 263e
000000e0: d66f 813e a8da 62be 03e6 a53e 7356 13be
000000f0: 259f 633e 8234 003d c114 96be 2721 bb3c
00000100: 613d a6bd 20d2 b73d 046a 8b3d a527 2dbe
00000110: 8330 6fbd 8fb2 29be f2ff 76bd fff0 6e3e
00000120: 1e31 8ebe 344e e6bc ce48 043f 1d86 f0bc
00000130: b7a7 d7bb 2d12 0dbd 7946 17bd f8f3 52be
00000140: 091a 26be ad3c 78bd 2c6a a73e c973 7ebe
00000150: a1cf 08be 3a4f 7bbe b969 48bc eca7 66bd
00000160: 285d aabd d7ad d5bd 6f76 d63e b228 87be
00000170: 34f8 0ebe ea22 d4bd e752 3abe 7a05 3bbd
00000180: fa56 1cbe 54c6 e43e ed21 3d3e 54a3 b5be
00000190: 6469 cebc 29c0 113d 3759 eb3d 21d1 873d
000001a0: 4fcc 3f3f 6caf 18bc 0860 8a3e 01f7 3abd
000001b0: 5372 15be dca0 0cbd a5e4 0cbe 5046 433e
000001c0: d854 3c3d a196 3d3d a8c6 ed3d 0e0e 12be
000001d0: ecfb aa3e 769f c9bd c998 3abe ead8 203e
000001e0: 5d58 86be 12ab b63e b431 9d3e 8384 8a3e
000001f0: cf75 93bd 1ceb 20bd d0f7 65be 8c5e 173d
00000200: c775 4cbd a9be cfbd 8847 3cbe 5b13 483d
00000210: 2582 1b3c e2fb 8dbd 2a65 093e 8608 d4bd
00000220: 8029 f7be 75c3 bcbc dc13 9b3d 09aa 8c3d
00000230: e3ae 1abe 02bb af3d 66c3 3d3e cabb 2abf
00000240: 3df4 26bd 369f 15be d678 3bbe 0a50 1abd
00000250: 752e 073e b9f4 00be 63af 473e 84d6 533e
00000260: c374 0a3e 5d2b 1bbe 4160 a0bd 1d0e 33be
00000270: 018c a4bb 5558 813f 1374 9c3d 9a8b 5a3e
00000280: af0d e1be af02 0d3b 0122 f7bd 9d87 15be
00000290: 0b53 893e 03dd f63c a9c2 c53e 0f67 c23d
000002a0: 5ba0 783f fe48 4dbe 5440 003e f7f4 c43d
000002b0: 1fea db3e e4d4 e4be 54fd 13be db2a 1e3e
000002c0: 13a1 82be f3dd 613d 6fb0 6d3d 2799 f83d
000002d0: 8752 07bf bc34 803d dd27 0e3f da21 99be
000002e0: afe0 b63e 32c0 8cbe f3b8 5e3e 2c69 35bc
000002f0: 09fe 42be ebc1 49bd 3be4 833d 8e24 91bd
00000300: a953 36bd 6743 17be b3b0 25bd a1c0 3ebd
00000310: d86f e7be 4505 513e d4a5 b33e f6e2 dcbd
00000320: 3ffd fe3d b1b2 f2bd 4631 353e 3cce d53e
00000330: 00c0 73be 9e0b 0abe bc8a 933c 36fb d2bd
00000340: 2033 b33e 097e fabd b7e1 dfbd 356e 383d
00000350: 04f6 49bd a225 083e 0614 303d 90d4 793e
00000360: c237 abbe 5a73 8a3d a462 4bbe 7a63 2f3d
00000370: 5542 d9be b49b 7fbe 1998 1cbe 440c 8abc
00000380: 29c5 503d f7fc 143f 9a1d f0bc 1bdc 08bf
00000390: 98cd 8a3e 6b99 a1bc 66cc 363c c9b9 d0bd
000003a0: 8a92 303e b79a 5f3e dc95 04be b34b 583e
000003b0: 73bf 0f3e e2f3 9bbe a95b 1bbe af62 f4bd
000003c0: 6967 2b3c 7f7c 08bf 7177 4c3e f004 663e
000003d0: c435 a83e 1d4c a63e 6aab 423d bc73 343d
000003e0: fe90 93bd 22d2 2cbe f6c1 163e 637c 5e3e
000003f0: 2f47 63bf d424 33bd ae8b 083e 2385 a9be
0.06240609 -0.39513156 0.008270768 -0.33001512 -0.16323717 0.13812344 0.6893839 0.1622257
0.16640016 0.053403463 0.16564915 0.24981007 -0.19561031 0.03214863 -0.27172637 -0.3364662
0.09074549 -0.2450347 0.7664722 -0.08445152 0.13051605 -0.16300881 -0.12380098 -0.093063556
-0.18824236 -0.22731628 0.14206326 0.13315965 0.2941225 0.3711318 -0.09383115 0.20949394
0.36503956 0.24170019 0.05565324 -0.03915232 -0.08554746 0.051096518 0.18961348 0.15965837
0.059076015 0.21811141 -0.12071685 0.0532997 -0.1971264 -0.35565832 0.006142774 -0.21333912
-0.3010914 0.1435814 0.9873415 0.16875967 0.24277143 0.2095559 0.8110076 0.16272682
0.25280637 -0.22153723 0.32402048 -0.14388447 0.22228678 0.031300075 -0.2931271 0.022842957
-0.08117176 0.08975625 0.0680733 -0.16909654 -0.058395874 -0.16572021 -0.060302682 0.2333412
-0.27771848 -0.028113462 0.5167359 -0.029360825 -0.0065812725 -0.034441162 -0.036932442 -0.20600879
-0.16220869 -0.06060474 0.3269819 -0.24848856 -0.13360454 -0.24541941 -0.0122322375 -0.056312487
-0.083185494 -0.10433548 0.41887233 -0.26398236 -0.1396187 -0.10358222 -0.18195687 -0.04565952
-0.15267554 0.44682562 0.18469973 -0.35476172 -0.025196739 0.03558365 0.11491626 0.06631685
0.74921125 -0.009319168 0.2702639 -0.045645718 -0.14594392 -0.034333095 -0.13759096 0.19069791
0.04597935 0.04628623 0.11610156 -0.14263174 0.33395326 -0.09844868 -0.18222345 0.15707746
-0.2623929 0.3567739 0.30701983 0.27054223 -0.072002046 -0.039286718 -0.22457814 0.0369554
-0.04991701 -0.101437874 -0.18386662 0.048846584 0.009491478 -0.069328085 0.13417497 -0.10353188
-0.4827385 -0.02304242 0.07572147 0.06868369 -0.15105776 0.08580591 0.1853157 -0.66692793
-0.040760268 -0.14611515 -0.18307814 -0.037673987 0.13201316 -0.12593354 0.19500498 0.206873
0.13521104 -0.1515326 -0.07830859 -0.17485853 -0.0050215726 1.0105082 0.07639327 0.21342316
-0.43955752 0.0021516492 -0.120670326 -0.14602514 0.2682117 0.030134683 0.38625076 0.09492313
0.97119683 -0.20047376 0.12524539 0.09617036 0.42952058 -0.44693673 -0.14452106 0.15446036
-0.25513515 0.055143308 0.05802959 0.121385865 -0.528603 0.06260058 0.55529577 -0.2990864
0.35718295 -0.27490383 0.2175024 -0.011072438 -0.19042219 -0.0492572 0.06440016 -0.070870504
-0.04451338 -0.14771806 -0.040451717 -0.046570424 -0.45202518 0.20412166 0.35087454 -0.10785477
0.124506466 -0.11850489 0.17694578 0.41758907 -0.23803711 -0.13480994 0.01801049 -0.10301821
0.34999943 -0.122310705 -0.109317236 0.045026977 -0.049306884 0.13295606 0.042987846 0.24397492
-0.33440977 0.06760283 -0.19861847 0.042819478 -0.4243342 -0.2496174 -0.15292396 -0.016851552
0.050969277 0.58198494 -0.02931099 -0.53460854 0.2710998 -0.019726476 0.011157131 -0.10191686
0.172434 0.21836363 -0.12947792 0.21122627 0.14037876 -0.30459505 -0.15171684 -0.11932885
0.010461667 -0.53314966 0.19967438 0.22462821 0.3285352 0.32479945 0.047526754 0.044055685
-0.072053894 -0.16877034 0.14722428 0.21727137 -0.8878049 -0.043736294 0.13334534 -0.33109388

onnx::MatMul_25 f4 [512, 256]
00000000: 6277 afbd a4e9 c43d 5935 823e 2cfd a8bd
00000010: 2409 8cbd 5f11 cb3b 841c 2e3d 769e ddbd
00000020: 5518 c1bd 20ec 723e a4f1 64be b35e 46be
00000030: 0c41 ac3d 7c83 9abd 63e7 6dbd e3aa 9c3e
00000040: 5bc5 a7be 0587 be3e 2a59 67be ccb1 0abd
00000050: 4258 07bd 3abf 073c ab34 9ebc c459 babd
00000060: 4154 d1bd 6168 c6bd ecd1 9abb 6b60 893d
00000070: 2e3f 3e3d 3ca4 333e 8511 91be 61f4 1c3d
00000080: 0df1 9d3d f306 edbd 2ea6 95bd fb53 b3bd
00000090: 04bb 393e d0af 3a3d 167e 47bc 96ee f53d
000000a0: bdeb f83d 1a7c 42be 2788 4a3e 6c6d bb3e
000000b0: 98ac 2d3e 94ff a03d 2ad1 da3d 299d 973e
000000c0: 1b9e 313c 3ce3 5abe 3b9c bebd f45e 3a3e
000000d0: ce91 f93d b0ad 3cbd d7a0 71be 1f31 f0bc
000000e0: 111a 153f 24bf 01bd f409 813e 6395 cbbd
000000f0: 151d ee3d 34ed bc3d 9691 4dbe 1ef4 e6bd
00000100: ffbf 10bd ce44 7abc a22a 783d e2b2 92be
00000110: cb0e 5a3e 0dfb 0b3e b091 e9bd 355a c93d
00000120: ccf5 0e3e 3235 60bd 2c5d 093d b3e1 613b
00000130: ab25 423d 98e7 dfbd 9d71 123e c204 363d
00000140: 3222 0abd 685c 69be 24a7 103e ed86 a13e
00000150: 3973 c2bc 2e7c 8fbd 029f 7eb9 1874 7abd
00000160: df41 4a3c 3d2b 5dbe 2603 453e 49af 0bbe
00000170: a10c 983d e555 2a3d d948 df3e e7ec fdbd
00000180: 8f57 b73d 4783 d4bd 1714 8cbb 9337 40be
00000190: b36e 083d 68b6 04be d124 3b3e ba20 c33d
000001a0: 40ff 3f3d 424e d7be 1ede 5ebe bc0a d93e
000001b0: 8b38 253f a073 af3e bf2b a83d 0749 97bd
000001c0: 8f3f 0ebe 3e2e be3d af05 42be 17f5 883d
000001d0: cea1 a33e eff6 f83e 859d 16be f273 53bc
000001e0: 1374 a1bd 27e0 9dbd de58 073e 42dd 783e
000001f0: a977 01be 782f afbd 7433 963e 8e15 8a3e
00000200: 8d3d 7d3e b584 0a3e ddab 51bc dc9c a33d
00000210: a84c ae3e 8d97 ea3e b26b de3c f074 21be
00000220: e4d2 98bd 55c4 d8bd 036a 82bc d76a 193d
00000230: cd91 5b3d 0b94 cc3e bdf1 2b3f ffa6 e3bd
00000240: 4f42 37bd a292 c6bd 2d7d 1cbe 8d74 3b3e
00000250: f759 bf3e a8e8 2e3e e8d9 e13d aa84 aa3d
00000260: 624d e33d f15b 01bd 1d2b 7abb 0375 87bd
00000270: 166e 49bd fd48 e13d 7bee 41bc f3a0 a03d
00000280: fcb9 c53c 43c8 b2bd 0435 253d cc1f a9be
00000290: 8c67 8c3c ad2a 6a3d 9dea d4bd 11bf 30bd
000002a0: ebb8 60be 2ff5 12be acbe 983d e922 9c3e
000002b0: 77d4 ca3c 689a 563b c0e1 223e 8d52 e0bc
000002c0: c6cb 243e 3260 cfbd c0cf 723e 20b1 a03d
000002d0: 17b6 14be d7be 8f3d cdaa 643e 203f b83e
000002e0: 71de fdbd bfa7 333e 3203 e0bd b4a4 43be
000002f0: 9652 95be 17a9 663e 0acd 1b3d f426 a83d
00000300: c9f4 c3bd b033 4dbe 9c84 14be b2e3 d3bd
00000310: c89d 853e 4fc8 863e 1d7e 6e3e 5da2 343e
00000320: 88a8 633e 9357 b03d b82f 22bd b4db 23bd
00000330: c2bd 6ebe 6586 82bd bce0 ebbd d555 1d3f
00000340: f461 0d3d 1f04 77bd 5489 243f 7caa fb3d
00000350: dd96 a63e c1fd a93d 7094 473e 56a1 42be
00000360: 68cb e1bd 11fc 20be ff95 86be bf46 c93d
00000370: 4013 803e c3ad 673d 6037 5c3e 3130 53bc
00000380: c13c 9bbc a55c 5dbd 86a2 7fbe d0fe 683e
00000390: 3916 ac3d b02c 463e 4916 a93d cbde 8ebe
000003a0: 3114 0c3d 1ab3 dd3c 904f 433d 0039 9a3e
000003b0: 32c5 a83e 66fb b33d 810e 58be 83c4 433e
000003c0: 9c13 c83d d4de 2ebe 1143 95be 430d 9cbe
000003d0: 69da 253d c19e 4c3e 8fdd df3d dc31 27be
000003e0: 2b85 89be 5753 73be 7f18 d2bc c4f4 3f3e
000003f0: a319 863c 1b80 be3d d93d fd3d 93e4 843d
-0.08567692 0.09614876 0.25431326 -0.08251414 -0.06837681 0.006197139 0.042507663 -0.1082124
-0.09428469 0.23722887 -0.22357804 -0.19372062 0.08410844 -0.0754461 -0.058081996 0.30599126
-0.32767758 0.37212387 -0.22592607 -0.033860967 -0.033043154 0.008285338 -0.019312223 -0.09099153
-0.10221148 -0.096878774 -0.0047247317 0.067078434 0.04644697 0.17543119 -0.2833368 0.038318995
0.077119924 -0.11573591 -0.07307087 -0.087562524 0.18137747 0.045577824 -0.012176057 0.12008397
0.121543385 -0.18992653 0.197785 0.3660692 0.1696037 0.07861248 0.10684426 0.2961209
0.010840918 -0.21375746 -0.09307142 0.18200284 0.12186013 -0.04606408 -0.23596512 -0.029320298
0.582429 -0.031676427 0.25202906 -0.09940603 0.11626641 0.092249304 -0.20075068 -0.112770304
-0.03533935 -0.015275193 0.060587533 -0.28652102 0.21294706 0.13669987 -0.11404741 0.09831659
0.13960952 -0.05473823 0.03353612 0.0034466803 0.047399204 -0.10932845 0.14301153 0.04443813
-0.033724017 -0.22789156 0.14126259 0.31548253 -0.023736583 -0.07006107 -0.00024282563 -0.061145872
0.012344806 -0.21598525 0.19239482 -0.13641085 0.07424284 0.04158582 0.43610266 -0.12398701
0.08952247 -0.10376602 -0.004274856 -0.187712 0.033308696 -0.12960207 0.18275763 0.095277265
0.046874285 -0.42051893 -0.21764418 0.42391002 0.645394 0.34267902 0.08211469 -0.07386976
-0.13891433 0.09286164 -0.1894748 0.06687372 0.31959385 0.48625895 -0.14708526 -0.0129060615
-0.078834675 -0.07708769 0.13217494 0.24303153 -0.12643303 -0.08553976 0.2933613 0.2696957
0.24730511 0.13527186 -0.012797323 0.07988903 0.3404286 0.4581875 0.027150963 -0.15767264
-0.07462099 -0.10584322 -0.015919691 0.037455406 0.053605843 0.39956698 0.6716574 -0.11115836
-0.04474097 -0.09695937 -0.15282126 0.1830618 0.37373325 0.17080939 0.110278904 0.08326085
0.11098744 -0.031581823 -0.003817267 -0.06614115 -0.04917725 0.110002495 -0.011836643 0.078431986
0.024136536 -0.08729603 0.040333763 -0.33032072 0.017139219 0.057169605 -0.103963114 -0.043150965
-0.2194554 -0.14351343 0.07458243 0.30495384 0.024759514 0.0032745842 0.1590643 -0.027383113
0.16093358 -0.1012577 0.23712063 0.07846284 -0.14522587 0.07018822 0.2233078 0.3598566
-0.12395943 0.17544459 -0.109381095 -0.19105798 -0.2916457 0.2252544 0.038037337 0.08210555
-0.095681734 -0.20039248 -0.14503711 -0.10346164 0.2609694 0.26324698 0.23290296 0.17640062
0.22232258 0.086104535 -0.03959629 -0.040004447 -0.23314574 -0.0637329 -0.11517474 0.61459094
0.034517244 -0.060306665 0.64272046 0.12288377 0.32536975 0.08300353 0.19490218 -0.19006857
-0.11025125 -0.15721156 -0.26286313 0.09827947 0.25014687 0.056562196 0.21505499 -0.012889908
-0.018949868 -0.05404343 -0.24964342 0.22753453 0.08402676 0.19352984 0.08256204 -0.27904353
0.034198944 0.027062941 0.0476833 0.30121613 0.32962948 0.08788185 -0.21099283 0.19117932
0.09769365 -0.1707719 -0.2915273 -0.30478868 0.040491495 0.19982435 0.10930931 -0.16327614
-0.26859412 -0.2376226 -0.025646446 0.18745714 0.016369646 0.09301778 0.12365312 0.064889096

onnx::MatMul_26 f4 [256, 128]
00000000: 5fda ef3d 8506 abbe 2cbd c3be ae06 183d
00000010: 8245 37bd 25d3 bd3d 7d74 10bd 0717 d8bd
00000020: 44f0 9c3b 0a62 d43d 74f1 183e 9f0d 1fbe
00000030: a185 b0bd 5e77 373e 6cd6 c3bd c3ad e03c
00000040: 8f50 213e 247a b4bd 578e 93be 8922 87bd
00000050: 2f89 edbd b976 5ebd c42b 8bbd e84e 84bd
00000060: cb56 2ebe d858 7c3e 46da 373d adb9 43bd
00000070: 5aee 4f3e 7cbb a7bd 61ae 0dbe 2fdc b6bd
00000080: 92d2 0ebe 25fd 033e 510e 723d b858 75bd
00000090: ab9c f93c 1ab3 48be 35d0 073e 7ae3 8fbe
000000a0: f5a7 5e3d 5c47 a0bd a1cd 9bbc 34e7 6cbd
000000b0: 126a 82be d910 a73d 15de b03e 814c 08be
000000c0: d277 bbbe 987f 8cbd e65a 19be 17db 2a3d
000000d0: b253 36be d02e fe3c 2829 033d 8d80 513e
000000e0: 8a3b afbd 7c14 e23a 63bc 9bbd 920b b13e
000000f0: ac47 813d 4e0e 343e a04a 893e 2891 cabe
00000100: 088d d9bd d1cb 81be 3e9c c13d 9b4c c23d
00000110: 1198 823e fede 303d 06c2 d8bc dc86 92be
00000120: da69 153e 0de3 4abd 739f a33e 87a9 8cbe
00000130: b2e2 1e3e c879 00be e52c c13d d154 673e
00000140: ff6a 38be 73b0 31bd 2071 17be 849e bcbd
00000150: 0e61 663e 2a1c d0bb 691c df3d c29e 5f3e
00000160: 0995 7c3e e5d6 5dbd 9b58 b93e 7c0f 41be
00000170: e326 c73d 2d54 923d 9e65 9dbd c6f6 5abc
00000180: f2fe c1bd 53c3 8cbe 3807 cb3e 352f 45bd
00000190: 5f2e 5f3c 58cb 843e 4c68 7d3d ca23 64be
000001a0: ad48 7a3c 655b fbbd b240 ae3e c382 ac3d
000001b0: 8948 0d3e 7385 a8bd 2ae5 a83c 09aa 24be
000001c0: 80df a43d cd0e 8b3e 6e0e aa3e 5285 9cbd
000001d0: 0d96 513e 71ea 4c3c aaa1 f83c 5629 89be
000001e0: a573 2cbe 5369 8bbe b963 203c 3a74 e6bd
000001f0: 6085 b13e 159f 8fbe f1a1 77be e66f afbe
00000200: 2e44 803e a292 5e3e ba6e debd 67e6 233e
00000210: 0095 58be 77b5 e93d d562 953e 7d67 6d3d
00000220: ddb5 d3bd f426 553d 3e14 8bbe 9872 203e
00000230: 4796 1dbe a975 ebbe b671 30be e1d6 4a3e
00000240: 0023 94bd 688b 86bd ee28 843e a675 6d3d
00000250: 6b42 f3bc 34ae b43e 3a42 81bd 81c8 e03d
00000260: 0725 13be 574d f43c 0d69 e6be 3796 09be
00000270: 2950 023e b376 e13e cbba 863e 9d3c d8bc
00000280: 47bb 783d 0278 f23c b360 91bd 10ca 1dbe
00000290: 2c18 d7bc 3acc 9ebc 59d2 583e 9046 a93e
000002a0: f3fa 81be 0a81 8bbe e21c 373e 6211 1bbe
000002b0: e7c0 6ebd 96c8 923d 397d bbbd 0865 a1be
000002c0: f42b 67be 6af4 b4be b295 743e 820f c0be
000002d0: c8e4 c0bd 01f2 c3bd 5b2f bdbe adda 9f3e
000002e0: b0f9 693e 8f82 c33d a57d 173e 4ec6 acbd
000002f0: abf0 8f3e bfa2 5abc 0b78 cabd 45b1 19bd
00000300: 3c89 f5bd 1159 c53d d9cc d1bd efeb 833d
00000310: 3316 06bd 31f0 033d 0e25 8bbe f0cb 783e
00000320: 4641 8e3e fc5a 9f3d 1855 86be a18a ad3e
00000330: 2f4a f63b 1c99 ba3d 9ca1 2e3e 1eeb 78be
00000340: 9ce5 313c 9a79 c1be d096 d0bd c3ca 5f3d
00000350: 4a6c b5be 7efa e4bd 36af f5bd d34e 013e
00000360: 080f b53e 56b5 9c3c 3389 d13c 0cbd 763d
00000370: bd88 f83d a95e 7f3e 8350 c63c 2ad6 603d
00000380: 3714 9fbe 3e99 29bb 7149 963d b667 9d3d
00000390: 0638 743d b33c ae3e d19c 8e3e 39be 533e
000003a0: 8784 a73e f6bb d93b d8bc 2e3c a23a 3ebe
000003b0: 6f87 1b3e 5729 a63d 747a 8cbd e8bd 1bbc
000003c0: 7062 cd3d 636e 4ebc ffbe a2be bd4e b73d
000003d0: cd4e df3e 8d00 1a3e 8b51 11be ca48 093e
000003e0: 19fc f93d 58e3 2f3d fa16 283e 6f46 6b3e
000003f0: 231d 03bf 6e2b e7bb e4fc cc3c 0c26 95bc
0.11711573 -0.33403412 -0.38230264 0.037115745 -0.044744022 0.09268788 -0.035267342 -0.10551267
0.004789384 0.10370262 0.14935857 -0.1553254 -0.08619238 0.17916629 -0.09562382 0.027426606
0.15753387 -0.08812359 -0.28819534 -0.06598384 -0.11598431 -0.05431244 -0.06795457 -0.06460363
-0.17025296 0.24643266 0.044885896 -0.047784496 0.20305768 -0.08190057 -0.13836052 -0.089287154
-0.13947514 0.12889536 0.059095684 -0.059899062 0.030470213 -0.19599572 0.13263018 -0.28103238
0.054359395 -0.07826111 -0.01901895 -0.05783768 -0.2547155 0.0815751 0.34544435 -0.13310434
-0.36614853 -0.06860274 -0.14976081 0.041712847 -0.17805365 0.031028181 0.03202167 0.20459194
-0.08556278 0.0017248536 -0.07604291 0.3457914 0.063124985 0.17583582 0.26814747 -0.3956387
-0.10622603 -0.25350812 0.09453629 0.094872676 0.25506642 0.043181412 -0.026459705 -0.28618515
0.1459116 -0.04953294 0.31957588 -0.2747309 0.15516165 -0.12546456 0.09432391 0.22590949
-0.18009566 -0.043381166 -0.14789248 -0.09209922 0.22497961 -0.0063510137 0.10894091 0.21837905
0.24666227 -0.054160018 0.36200413 -0.18853563 0.09724214 0.071449615 -0.076853976 -0.013364499
-0.09472455 -0.2749277 0.39653945 -0.048140723 0.013621896 0.2593639 0.061867043 -0.22279277
0.015276116 -0.122732915 0.34033734 0.08423378 0.13797201 -0.082285784 0.020617086 -0.16080488
0.08050442 0.2715973 0.33214134 -0.07642616 0.20467396 0.012507067 0.030350525 -0.2678935
-0.1684099 -0.27228794 0.009789401 -0.11252637 0.3467207 -0.28051057 -0.2418287 -0.3426506
0.25052017 0.21735623 -0.10860963 0.1600586 -0.21150589 0.11411565 0.29176965 0.057960022
-0.10337422 0.0520391 -0.2716388 0.15668714 -0.15389358 -0.45988205 -0.17230877 0.19808532
-0.07233238 -0.065695584 0.25812477 0.057973526 -0.029694756 0.35289156 -0.0631146 0.10975743
-0.14369594 0.029822035 -0.45002022 -0.13436209 0.12725891 0.44035873 0.26314387 -0.02639609
0.060725477 0.02959824 -0.07098522 -0.15409112 -0.026256643 -0.019384492 0.21173991 0.33061647
-0.25386772 -0.27246886 0.17882112 -0.1514335 -0.058289435 0.07167165 -0.09154744 -0.31522393
-0.2257536 -0.35342723 0.23885229 -0.37511832 -0.094186366 -0.09567643 -0.36950192 0.31221524
0.22849154 0.095463865 0.14794023 -0.08436261 0.28113303 -0.013344466 -0.09886178 -0.037522573
-0.11989066 0.09636129 -0.1024415 0.06441485 -0.032736015 0.032211486 -0.27176708 0.24296546
0.27784175 0.07781026 -0.26236796 0.33894828 0.0075161676 0.091112345 0.17053837 -0.2430844
0.010857966 -0.37788087 -0.10185015 0.054636728 -0.3543418 -0.1118059 -0.119963095 0.12627725
0.3536303 0.019129436 0.025578117 0.060238883 0.12135456 0.24938454 0.024208313 0.054891743
-0.3107011 -0.0025878693 0.073382266 0.07685797 0.05962374 0.34030685 0.27854016 0.20678033
0.32718298 0.006644721 0.010665141 -0.18577054 0.15188383 0.08113354 -0.068592936 -0.009505726
0.10028541 -0.01259956 -0.31786343 0.08950565 0.43614808 0.15039273 -0.14191262 0.13406673
0.12206287 0.04294142 0.16415015 0.22976087 -0.51216334 -0.007054738 0.025022931 -0.018206619

onnx::MatMul_27 f4 [128, 8]
00000000: 78d7 2ebd fc83 a4bd 4a17 65bd fb45 613b
00000010: 61c0 59be c4d0 9cbc 2427 d83c cc24 75bd
00000020: 25f0 353a 485a 0a3e ad74 303d 7d91 10bd
00000030: b50e e9bc 1c68 803c aed9 5bbc 6655 2a3c
00000040: 45be 01bd 3992 ffbb 0888 a0bd 0eda bebb
00000050: e789 193d 93ad 8cbc c6ed 8d3d e08f 373d
00000060: a0b3 beba 8b60 0bbe 40d4 2c3e cf04 9d3d
00000070: 5228 90bd 7ade 3a3e 748a 78bd f769 dfbd
00000080: f51d 19be 6086 39bc f886 a73d 6cf6 86bd
00000090: 6d25 c1bd 7469 4bbd 7766 5c3e 37f8 a73c
000000a0: 817b 82bd 3fd2 193e 7e37 8e3d ca42 94bd
000000b0: 0e17 e1bc 0bc7 3e3e ad27 2d3e 53d0 36bd
000000c0: 8025 82bb b8e6 883c c6f5 26bb e360 903b
000000d0: fca2 e03c 2f84 38bd 0ecd 743c 1f85 b33d
000000e0: 9639 a13d 44e9 cabc eea7 ddbc d880 3e3b
000000f0: df68 3dbe c9d2 07be 0bf1 18be b4ce b0bc
00000100: ae17 26bd 1ddd 3abc 8380 b7bd 1615 d73c
00000110: c991 d53d 97e3 853d e207 91bd d3e1 3bbb
00000120: b54f 723d 2250 063e bcdb 1fbd f76d 76bc
00000130: f145 1dbd fd01 213d 0efd 973d 3e5d 2e3d
00000140: f006 e2bc 8e6d db3d 407c 2abd de2e aa3d
00000150: 9603 623d 0b3f 543c 9b4b b1bb 4f01 f43d
00000160: 8a59 3cbc 2dc9 a1bd 96f6 c63d dd4f f43c
00000170: bd71 06be 399e b63c fd39 1ebd df12 0dbe
00000180: d3ba ef3c 2016 213d 6ce5 aebd 17df c53c
00000190: 8300 7e3c b16b 5b3d c3d6 15be bfc5 503b
000001a0: c4c2 a33d 8c12 ffba 3e0e 8fbd 48c7 413b
000001b0: f8d6 13bc 8074 c9bc e078 b4bc 8dd4 3d3b
000001c0: 175f 5d3d 2ccc 8b3d f6aa a5bd 0c3f 62bb
000001d0: 9d62 8f3d 4ee9 ddbc af56 ac3d 4172 013d
000001e0: d3f5 39bc 3c91 873c 8659 3d3d 149b fabc
000001f0: b65a 8c3c 24bf 1d3d fb8d 283d 49ba a73d
00000200: 9286 19bd 5ca6 423d 03d9 103d ce38 bfbb
00000210: 49cb be3d f0c1 ffbc 98f9 70bc 24ef f03d
00000220: c327 ffbc 9b8e 1abc b396 c9bd 1434 123d
00000230: 6e93 313c e845 f33c f512 b9bc 6afd 8a3b
00000240: 6730 8fbd 0d52 ddbd 2e21 a33d 77e4 c03c
00000250: 2b9f 2fbe 2662 9dbc 6e5f 56bc 4d74 0dbe
00000260: b644 b7bc df82 cabc 36aa c53b f296 b2bb
00000270: 496c 223d 1623 9dbd 410f 153e 44a2 3dbd
00000280: 77d7 fd3c 0cb6 bd3d 0e20 1abd edbb b5bd
00000290: e35a f5bb 7224 d93c 9800 27bc fbd7 eb3c
000002a0: 7661 b03b 4c16 303c ff6a 713d b7e7 bebd
000002b0: a2e7 8b3c d8e4 cbbd e206 833c 67ac ea3d
000002c0: 4e79 613d fed6 a2bd f750 8cbc 4583 2dbc
000002d0: a8a6 92bd f4ba 263e 2fab 96bd 68e4 f93c
000002e0: d578 2a3b ab61 febd e3b9 2e3d 4e14 b33d
000002f0: ba14 3abd aa92 893d 1866 0bbe d216 81bd
00000300: ba3f 17be 43c9 e33d 5d27 563d e120 9abb
00000310: 9f64 cd3c 814c 123c 5fb0 333e 77e7 4b3d
00000320: 439f 5abd 0548 473d 4c94 803d 548b fdbc
00000330: bb66 3b3c 22e7 c9bd 3531 bc3d e603 23bc
00000340: a92e e7bc ec93 443d 7f52 07bd ed48 82bd
00000350: 6162 9b3d 3c98 a83d 0e69 963d fdf1 123d
00000360: 589f 333e 8336 083d e5a6 af3c c762 d7bc
00000370: 34eb 80bd 9794 6fbd 9863 07bb f458 03bd
00000380: dd56 d23b 714b 57bc ee8f 223d e154 9c3d
00000390: d998 83bb c1ed 40bd ec14 70bd 6fc8 ccbd
000003a0: ba32 b9bc 7470 853d 1a18 84be 9cb8 42bd
000003b0: 1881 be3d 3d35 3c3d fdaf b13d f751 663d
000003c0: 9762 a23d cc16 213d 4494 36be d2b5 47bc
000003d0: 33a4 173e 5add 063d e44e 143e 30ea 813d
000003e0: e51c a3bc 3a33 bb3c e7cb 7fbd cd7a f1bb
000003f0: ab9c bfbd 5780 3f3d 3e23 173d a9f6 ce3b
-0.042685956 -0.080329865 -0.055930413 0.0034373987 -0.21264793 -0.019142516 0.026385851 -0.059849545
0.00069403864 0.13511002 0.04308002 -0.035295 -0.028449396 0.015674643 -0.013418598 0.010396337
-0.031675596 -0.0077994135 -0.07838446 -0.005824334 0.03748503 -0.01717261 0.06930117 0.044814944
-0.0014549382 -0.13611047 0.16877842 0.07666933 -0.070389405 0.1824893 -0.060678914 -0.10908883
-0.14952834 -0.011323541 0.0818004 -0.0658997 -0.094309665 -0.049661115 0.21523462 0.0205041
-0.06371213 0.15021609 0.06944178 -0.072393015 -0.027476814 0.18630616 0.16909666 -0.044632267
-0.0039717555 0.016711578 -0.0025476082 0.004406081 0.027421467 -0.045047935 0.014941467 0.08765625
0.07872312 -0.024769433 -0.027057614 0.0029068496 -0.18497036 -0.13264002 -0.149357 -0.021582939
-0.040549926 -0.011405257 -0.089600585 0.026255172 0.10428197 0.0653755 -0.07081582 -0.0028668537
0.059158046 0.13116506 -0.039027914 -0.015040866 -0.03839678 0.039308537 0.07421313 0.04256939
-0.027591199 0.10714255 -0.0416224 0.083097205 0.0551792 0.012954484 -0.005410624 0.11914312
-0.011495957 -0.07899699 0.09715001 0.029823238 -0.13129325 0.022292243 -0.03862952 -0.1377673
0.02926389 0.03932774 -0.085398525 0.02415423 0.015503052 0.0535695 -0.14632706 0.0031856147
0.07996133 -0.0019460483 -0.06985138 0.0029568244 -0.0090234205 -0.024591684 -0.022030294 0.0028965801
0.054045763 0.06826052 -0.08089249 -0.0034522442 0.07001231 -0.027088787 0.08414971 0.0316031
-0.011350113 0.016548745 0.046227954 -0.030591525 0.017133098 0.038512364 0.041151028 0.08189828
-0.037481852 0.047521934 0.03536321 -0.005835629 0.09316117 -0.031220406 -0.014707945 0.117643625
-0.03114689 -0.009433414 -0.09843197 0.035694197 0.010838373 0.02969642 -0.022592047 0.004241635
-0.06991654 -0.108066656 0.07965313 0.02354644 -0.17150562 -0.01921184 -0.013084276 -0.13813896
-0.022371631 -0.024720607 0.0060322536 -0.005450123 0.03965405 -0.07672708 0.145566 -0.046297327
0.03098653 0.09263238 -0.037628226 -0.088737346 -0.007487641 0.026506636 -0.010193013 0.028789511
0.005382712 0.0107475035 0.05893993 -0.0932154 0.017078225 -0.09955758 0.015994493 0.114586644
0.055047326 -0.07951163 -0.01712845 -0.010590379 -0.071606934 0.16282254 -0.073568694 0.03050442
0.0026011963 -0.124209724 0.042657744 0.08744107 -0.045429923 0.06717427 -0.13613164 -0.06303181
-0.14770404 0.11122372 0.052283634 -0.0047036265 0.025072394 0.008929373 0.17547749 0.04978129
-0.05337454 0.048652668 0.062782854 -0.030950226 0.011438067 -0.09858538 0.09189073 -0.00994966
-0.028220491 0.04799263 -0.03303766 -0.06361566 0.07587124 0.082321614 0.07344256 0.03587531
0.17541254 0.03325511 0.021441886 -0.026292218 -0.062948614 -0.058491316 -0.0020658728 -0.032067254
0.0064190463 -0.013140545 0.039688043 0.07633377 -0.0040160236 -0.04710174 -0.058613703 -0.09999167
-0.022607196 0.06515589 -0.25799638 -0.04753934 0.093019664 0.04594921 0.08676145 0.05623051
0.07928961 0.03932838 -0.17829996 -0.012189345 0.14808731 0.03292594 0.1448322 0.06343496
-0.019911239 0.022851575 -0.062450316 -0.0073693753 -0.09356054 0.046753254 0.036898844 0.0063160253
