logs/pointfoot_flat/PF_TRON1A/exported/policies/encoder.onnx (onnx, 461848 bytes, 6 tensors)

encoder.0.bias f4 [256]
000000 65 de a6 bd 9f b8 65 bc 0b c5 47 be cf cc 55 be
       -0.08147887 -0.014021068 -0.1950876 -0.2087891
000010 d4 88 a6 bd 26 72 2f bf ec d4 80 3d 6d 79 c6 bc
       -0.08131567 -0.6853355 0.062906116 -0.024227822
000020 99 88 1f 3e 6a 76 fd bb 8b 19 61 bc a6 2d 04 bd
       0.15579452 -0.0077350633 -0.013739 -0.032270096
000030 12 5d 0c be fc 64 23 be 73 71 21 3e ce 08 33 be
       -0.13707379 -0.15956491 0.15765934 -0.17483827
000040 9d 76 e5 bd e0 46 96 bd 2c eb 14 be f4 a7 3d be
       -0.11204264 -0.07337737 -0.14542836 -0.185211
000050 ac c0 63 3d 50 e9 2f be 02 35 0a be 51 c7 bb be
       0.055603668 -0.17178845 -0.13496783 -0.36675504
000060 52 90 d5 3c 10 ee a9 be f3 8e 91 bd 3f 21 09 bc
       0.026069794 -0.3318944 -0.071073435 -0.008369743
000070 19 62 75 3d 6d 36 cc bb 43 6d 85 be 4f b4 02 be
       0.059908006 -0.006232074 -0.26059923 -0.12764095
000080 7e 0f 96 3e e1 80 27 be 47 4c 11 be 6a 03 4e 3e
       0.29308695 -0.16357757 -0.14189254 0.2011849
000090 0d 61 4c 3d e2 52 6f bf ea b0 57 3f b9 a4 c8 bd
       0.049897242 -0.93485844 0.84254324 -0.09797043
0000a0 f6 2d 47 3d e3 ea 86 bf ee e9 13 be f4 d6 43 be
       0.048627816 -1.0540432 -0.14444706 -0.19124967
0000b0 da 7f 7d bd e5 72 69 bf be e8 cd 3d 5c bb 7c 3e
       -0.061889507 -0.9119094 0.10054158 0.24680847
0000c0 ab d2 32 bf d6 d1 9b be 3f d5 95 be 97 30 ce bd
       -0.69852704 -0.3043353 -0.29264256 -0.100678615
0000d0 0e 21 9d 3b 85 e4 32 be 1e bf 32 be 24 c6 9b bf
       0.0047952 -0.17469986 -0.17455718 -1.2169843
0000e0 9f db 58 be 30 22 9a bd 82 ed 6c be e5 86 83 3d
       -0.21177529 -0.07526052 -0.23137477 0.064222135
0000f0 a9 00 11 be d7 fd 22 be f0 6a cd bd d2 d4 ac 3e
       -0.14160408 -0.15917145 -0.10030162 0.3375612
000100 14 81 e9 bc 0c a2 8b be 50 eb 9b bd ea 31 cf 3a
       -0.028503932 -0.2727207 -0.07613242 0.0015807722
000110 44 59 7f bd f5 f3 68 bd 4b 30 ea bf e0 68 59 bf
       -0.06234099 -0.05687328 -1.8295988 -0.8492565
000120 6b 01 6f be 49 7b 6d ba ec b5 bc bd da 2b 88 bd
       -0.23340385 -0.00090592034 -0.09214386 -0.06648989
000130 c8 3d 63 bf b8 35 21 bd 6d 84 fb be 6d 76 29 bd
       -0.88766146 -0.03935787 -0.4912447 -0.041372705
000140 c8 11 5d 3b 20 1b fd bf 89 6a ba 3d c0 d5 39 bf
       0.0033732522 -1.9773903 0.09102351 -0.7259178
000150 71 6a b9 bf c0 72 08 be 14 24 74 be 20 3c d8 bd
       -1.4485608 -0.13325024 -0.23841888 -0.10558343
000160 7c ba 7d be cb 00 16 3c 9b 6e aa bc c7 4b a4 bd
       -0.2477817 0.0091554625 -0.020804694 -0.08022266
000170 7b 17 08 c0 16 6f 06 3d 2d 64 f5 be ac 83 04 bd
       -2.1264331 0.032820784 -0.4792799 -0.032352135
000180 c2 0d 99 bd fb f9 20 bf dd 50 87 bb 67 00 03 be
       -0.07473327 -0.6288144 -0.0041295127 -0.12793122
000190 35 1a 1d bf de a2 b1 bd ec e5 27 bd 58 d5 1d be
       -0.61368114 -0.086736426 -0.040990755 -0.15413415
0001a0 6b 38 01 bf 40 7a 33 3e 60 76 66 bd 55 e6 e0 bd
       -0.5047671 0.17527103 -0.056265235 -0.10981432
0001b0 29 be 1b 3d e5 67 02 be aa 83 9f bd 4d 9c ab bc
       0.038023148 -0.12734945 -0.07788785 -0.020948553
0001c0 ac f6 9a bd f5 70 5a 3e 3f c9 ba 3f 61 52 0a be
       -0.0756658 0.21332152 1.4592665 -0.13507988
0001d0 69 4e a5 bd 1c 7b 8a bd 67 52 76 be fd 36 e6 3c
       -0.08071596 -0.067617625 -0.24054871 0.028102392
0001e0 c2 e3 87 3d 0c 8e 30 3e 46 bc a4 bd c6 b0 8e bf
       0.06635238 0.17241687 -0.08043723 -1.1147697
0001f0 5e be eb bd 84 b4 4f bd 2b 65 24 bf e7 9a 4c bd
       -0.11510919 -0.050709262 -0.6421687 -0.049952414
000200 3e d3 b5 3d 1a df 93 3d 4f a9 3e 3e 61 78 43 be
       0.08878182 0.072202876 0.18619274 -0.1908889
000210 57 4b ca bd 72 9b 61 bf 71 a8 dd bd 4a f0 25 be
       -0.09877651 -0.88127816 -0.10823143 -0.16204944
000220 fb 23 9e bd 32 b7 92 3e 0c a1 9c bf a8 d1 4a bf
       -0.077217065 0.28655392 -1.2236648 -0.7922616
000230 df f8 99 bd b6 c9 23 be 6c ae 77 be 6a c0 4a bd
       -0.075181715 -0.15994915 -0.2418763 -0.049499907
000240 a4 e6 82 be 3d 16 b9 be ce 75 8e be 17 53 05 bf
       -0.2556659 -0.3614978 -0.27824253 -0.5207991
000250 e4 59 17 be 74 60 af be 0b 11 96 bf 5a 11 c0 3d
       -0.14780384 -0.34253275 -1.1723951 0.093783095
000260 ae 2e 06 be f8 80 83 be b3 50 73 3c d6 97 46 bf
       -0.13103744 -0.25684333 0.014850783 -0.77575433
000270 e8 b3 e1 3d a7 6f 9a bf e9 05 77 bd 29 b3 86 be
       0.110206425 -1.2065324 -0.06030837 -0.26308563
000280 25 47 a6 bd 8f c0 20 be 51 70 c9 bd 8a 9b bf 3d
       -0.081190385 -0.15698455 -0.09835876 0.093558386
000290 97 b7 26 be f4 8f 65 be aa af 60 be 63 7a 01 be
       -0.16280971 -0.22418195 -0.2194201 -0.12644343
0002a0 b3 29 13 3d 30 98 03 be f5 b9 f4 3b d3 59 e3 bd
       0.03592844 -0.12851024 0.007468457 -0.11101117
0002b0 70 b4 fc bd 81 7e 44 be 7b c4 67 be 0a 42 4b bc
       -0.12339103 -0.19188882 -0.22633545 -0.012405882
0002c0 1b ee 3a be f1 8b af bd 20 3f 99 bc 33 10 df bf
       -0.18254893 -0.085716136 -0.018706858 -1.7426819
0002d0 15 9f aa 3d c1 92 fe bc 24 b9 87 3d 38 af 71 be
       0.08331124 -0.031075837 0.0662711 -0.23601997
0002e0 73 0a 30 be 47 b6 11 be 3a e7 72 be bb 2e e2 bf
       -0.17191486 -0.1422969 -0.23721018 -1.7670511
0002f0 41 98 7d bd e8 68 82 bd a8 83 01 c0 0e 12 3c 3e
       -0.06191278 -0.063676655 -2.0236607 0.18366262
000300 6b 7f 0b be bf d2 4f be 50 ea 4a be b0 7e 31 bd
       -0.13622825 -0.20295237 -0.19815946 -0.04333371
000310 be 18 b4 3e 2e 7c 55 3e a7 aa aa bd 41 26 94 bf
       0.35175127 0.20848152 -0.083333306 -1.1574174
000320 18 8e ec bf 77 12 e8 bd 0b cc 34 bd 9e bc c2 bd
       -1.8480864 -0.11331647 -0.044139903 -0.09508632
000330 b1 0a 55 be ae 34 c7 be f5 38 82 3e dc 04 bc be
       -0.2080486 -0.3890738 0.2543408 -0.36722457
000340 a0 82 90 bf 9b 75 4e bf db 1b 89 3e 48 fc 00 be
       -1.1289864 -0.806482 0.26779065 -0.12596238
000350 61 5c e8 bd 78 71 99 bd 11 f6 66 bd 6b 00 21 be
       -0.11345745 -0.074923456 -0.05638701 -0.15722816
000360 f6 f1 95 bd 2f 9d eb bd 0b 3b 69 be b6 a6 2a be
       -0.07321541 -0.1150459 -0.2277643 -0.16665158
000370 39 6b 16 bf 72 a3 07 be 2d 26 06 c0 29 dc 0c be
       -0.5875736 -0.13245943 -2.09608 -0.1375586
000380 48 13 48 be 0c a0 08 be 80 b7 14 bd c0 60 fe bd
       -0.19538605 -0.13342303 -0.03630781 -0.12420797
000390 28 0f 14 bc 0a b1 9f be 09 0c e7 bf 5b a7 56 3d
       -0.009036817 -0.31189758 -1.8050548 0.052405696
0003a0 98 1d e7 bf f6 ae 9b be 97 11 3e 3e d2 cb 95 bf
       -1.8055906 -0.30406922 0.18561397 -1.1702826
0003b0 cd a9 81 be 35 d3 ac bf 32 37 95 bf 2f df fa bc
       -0.2532486 -1.3501955 -1.1657469 -0.030624
0003c0 87 21 0c bd cc 0b d7 bd 80 d4 a3 bd e3 97 10 c0
       -0.03421166 -0.10500297 -0.079995155 -2.2592704
0003d0 f2 8a 53 3d af e0 d8 bf dd cb ae be e9 93 4f be
       0.05164618 -1.6943568 -0.3413991 -0.20271267
0003e0 07 76 ff bd 55 a3 47 3e e6 48 b4 bd f7 c5 43 be
       -0.12473684 0.194959 -0.08802967 -0.19118486
0003f0 f7 48 8c bf ce 85 e1 3d 32 2a 15 be 03 9d ad bd
       -1.0959767 0.11011849 -0.14566877 -0.08477213

encoder.2.bias f4 [128]
000000 2f 35 65 3c 5b 44 16 bd 92 c6 33 bd 28 ca d5 be
       0.013989731 -0.036686283 -0.043890543 -0.41755795
000010 ea 8c 34 bc f0 59 c1 bd 44 dc 56 3d 09 49 43 be
       -0.011019925 -0.09440982 0.052456155 -0.1907083
000020 56 4f 6b bd 29 3b 91 bf ea 2f ff 3c 36 53 44 3e
       -0.057448708 -1.1346179 0.031150777 0.19172367
000030 cb 80 e4 bf 03 24 59 bd 19 84 24 bf 0c 9b 33 bd
       -1.7851804 -0.05301286 -0.64264065 -0.043849036
000040 b0 4c 44 bc 99 c5 cd 3d 73 52 ec bd 77 c2 4c 3c
       -0.011981174 0.100474544 -0.115391634 0.012497536
000050 c6 0a 46 bf 0c e4 0b bf 99 71 39 bf 40 10 e7 bd
       -0.7736019 -0.54644847 -0.7243896 -0.11282396
000060 fa 1f 59 bf 6e 2d 4d 3d bb ba d6 3d 71 f1 0c be
       -0.8481442 0.050092153 0.10484835 -0.13763978
000070 11 bc 44 be ac 58 56 be fc d2 69 bf 8b a1 33 bf
       -0.19212367 -0.20932263 -0.9133756 -0.7016837
000080 79 67 49 3d 76 7e c2 bd e7 9f 1d bf 5c 0e a6 bf
       0.049170945 -0.09496777 -0.61572117 -1.2973132
000090 48 20 93 bd b7 e0 86 bf cc 74 ce bd 82 b1 2e 3d
       -0.071838915 -1.0537328 -0.10080871 0.042649753
0000a0 49 ee 3d bd 27 aa d7 bf 28 fc 55 bd ab 5b 5e 3d
       -0.046369825 -1.6848801 -0.052242428 0.05428664
0000b0 08 9a 08 be 6d d4 8d be 3d b7 08 bd db af 35 be
       -0.13340008 -0.2770113 -0.033377875 -0.17742865
0000c0 7e a7 95 bd cc 1f c9 be c6 6a 1a bf 3c 7a 13 c0
       -0.07307337 -0.39282072 -0.60319173 -2.3043356
0000d0 99 59 30 be b3 8a 09 3d 23 15 d1 bd 8c cf 21 be
       -0.17221679 0.03357954 -0.1020911 -0.15801829
0000e0 51 c9 30 bf c7 46 05 3c f3 26 07 be 9b 37 31 be
       -0.69057184 0.00813455 -0.13198452 -0.17306368
0000f0 2c 1a 42 bd 8b ef 3e 3d 79 d8 64 bd 81 26 38 bc
       -0.04738824 0.046615165 -0.055870507 -0.011239649
000100 d2 f7 97 bd 22 e0 00 be f9 88 d3 3c 8b f1 16 be
       -0.07420315 -0.125855 0.02582215 -0.14740579
000110 43 47 c8 be 19 a8 8f bd 9a a7 27 be 56 4d 17 bf
       -0.39116868 -0.07014484 -0.16372529 -0.5910238
000120 3e f6 90 3b 9f c9 69 bd af 9c 09 3e 0a 7d 75 be
       0.0044238856 -0.057077046 0.13438676 -0.2397348
000130 68 14 02 bf d2 2c 8c 3c d9 62 3b bf 76 14 2a bf
       -0.5081239 0.017111216 -0.73197705 -0.6643747
000140 5d 26 88 3d ac d8 57 bf 33 9d 3e be af b2 aa bf
       0.06647942 -0.8431499 -0.18614654 -1.333578
000150 eb 7a 67 bf d5 36 21 bf d5 8a de bd 28 5e 87 bd
       -0.9042193 -0.6297429 -0.10866324 -0.06609756
000160 f6 30 f9 bd 78 45 0b 3d 28 1f 36 3c be 6f c4 3b
       -0.12167542 0.034001797 0.011115827 0.005994766
000170 b1 90 56 3d 72 3e 23 bf 3d 71 a7 bc 89 d7 55 3d
       0.052384082 -0.6376716 -0.020439738 0.052207503
000180 ec 4c b3 bf 6c e3 dd bd b4 37 69 be a0 c3 f3 bd
       -1.400785 -0.10834393 -0.22775155 -0.11902547
000190 83 90 59 bd 31 24 b2 bc 84 70 cc be 22 19 ce bd
       -0.053116333 -0.021745773 -0.39929593 -0.100633875
0001a0 97 d7 40 bd 0a ef 32 be a1 36 b3 be 39 8f 5f be
       -0.047080602 -0.17473999 -0.35002616 -0.21831979
0001b0 01 5e 4d bf d1 08 72 3d b4 b5 03 bf ea 79 61 3b
       -0.80221564 0.05909044 -0.5144913 0.0034404942
0001c0 ce c9 41 be 9e bd 5d be 80 df 0c bd 7d c8 36 bf
       -0.18924639 -0.21654364 -0.034392834 -0.7139967
0001d0 f9 59 b5 bf af fe 90 bd ad 42 ae bc ad df d8 3d
       -1.4168082 -0.07079827 -0.021272028 0.10589538
0001e0 7c 2c 09 bf 24 9e 82 bd ef 41 81 bb 1b d1 4b be
       -0.535835 -0.06377819 -0.0039446275 -0.19903986
0001f0 1b f5 ad bf c2 0b 99 bd 9e 4d 2a bd 48 ff 9a 3d
       -1.3590425 -0.07472946 -0.041577928 0.07568222

encoder.4.bias f4 [3]
000000 dd ea fe bc 45 52 e1 3c ef db 3f bd
       -0.03111785 0.02750505 -0.046840604

onnx::MatMul_18 f4 [300, 256]
000000 f7 10 0e be 24 c1 49 3d a0 e3 41 3e da 2e a4 3f
       -0.13873659 0.04925646 0.18934488 1.2826798
000010 83 08 0c be c6 6f 32 3e fc 79 32 bd ff 41 5f 3d
       -0.13675122 0.1742545 -0.043573365 0.0545063
000020 61 3b 9b be 7d 84 89 bc e2 dd b8 3e 9a 85 c1 3d
       -0.3031874 -0.016786808 0.36106783 0.094493106
000030 ea 26 e0 bd 04 7a 07 3e 43 01 b0 bb 37 24 18 3d
       -0.10944922 0.13230139 -0.005371244 0.037143912
000040 2b b4 8e be 18 92 33 3e ca 73 5c 3e bd 16 66 be
       -0.27871832 0.17536199 0.21528545 -0.22469611
000050 2c f9 6b 3f cb 17 94 bc 5d 30 0b 3e 14 9d 77 be
       0.9217708 -0.018077752 0.13592668 -0.24181014
000060 56 14 00 3f 16 1b 76 3e c1 91 0c be 17 ab ab 3d
       0.5003103 0.2403377 -0.13727476 0.08382242
000070 e2 6a a3 3d 58 9b 82 3b 9e c6 d1 3d 2e 17 11 3f
       0.07979371 0.0039858036 0.10242961 0.56675994
000080 97 5d 03 be 4b 4e b3 bd 62 4b 1e 3f 6d 22 6c be
       -0.1282867 -0.087551676 0.61833775 -0.23060007
000090 bb 3b 24 be 37 81 9f 3f 8b 70 ce 3b 47 3d bf 3c
       -0.1603841 1.2461308 0.0063000373 0.023344649
0000a0 dd 57 5a be 72 0b 35 3d 0e 90 08 3e a7 d5 12 be
       -0.2132258 0.04420037 0.13336203 -0.14339314
0000b0 f4 e2 31 3e 28 e1 67 bf 9c 53 66 be a6 23 e4 3d
       0.17371732 -0.90577936 -0.22492832 0.11139612
0000c0 69 a4 c6 be c5 2f f9 3e 80 21 3e 3f 60 a9 93 3f
       -0.3879731 0.48669258 0.74269867 1.1536064
0000d0 4a b0 87 be 14 e8 b1 3d 90 bc 61 3e a6 6f 81 bf
       -0.26501685 0.086868435 0.22044587 -1.0112197
0000e0 68 a3 08 3e 38 ab 54 ba 55 07 32 3e f6 89 47 3d
       0.13343585 -0.0008112672 0.1738561 0.048715554
0000f0 ef 4e 32 be 32 23 bc 3e cb 16 a8 bd 83 cb c3 bc
       -0.17412923 0.36745602 -0.082074724 -0.023900753
000100 22 e4 86 3e 7b 05 88 bd f6 f0 a3 bc ad 56 3f bd
       0.26345927 -0.0664167 -0.02001236 -0.04671352
000110 61 f6 49 3d 68 06 7b 3d a2 e0 a4 3e 6b c6 b4 bf
       0.04930723 0.061285406 0.3220263 -1.4123052
000120 f1 e6 a9 3c 9f f2 37 bc 92 31 88 3e b5 0d 69 3c
       0.020740004 -0.011227279 0.2660032 0.014224459
000130 58 9b db bd 44 87 a1 3d 3c 9b 8b be 98 01 ac bd
       -0.10722989 0.07887128 -0.27266872 -0.083987415
000140 2e d5 92 be bc 10 db 3e 4b bb 1f 3e ed c6 68 bf
       -0.28678268 0.42786205 0.1559879 -0.90928537
000150 3d 2e 02 bd b5 69 cc 3d 5a 9f 03 3e a6 44 43 bf
       -0.031782378 0.099810995 0.12853757 -0.76276624
000160 a8 b5 1b 3f a9 0b 49 be 23 05 85 3e 5b 16 91 bd
       0.6082406 -0.19633354 0.25980482 -0.07084342
000170 5e ec a2 3f f3 2c 89 bc 01 93 73 bf 5b 01 29 3b
       1.2728384 -0.016745066 -0.95146185 0.0025788161
000180 08 93 1b 3d af 8a 92 bf 63 80 66 be 11 60 83 3d
       0.037982017 -1.1448573 -0.22509913 0.064148076
000190 46 43 c3 3e 02 87 c7 bb f0 f0 1c 3e cd f3 69 3e
       0.38137263 -0.006089092 0.15326285 0.22846909
0001a0 60 64 29 3f b5 b0 91 3b 5f ce 45 be cb 98 31 be
       0.66168785 0.004446114 -0.19317006 -0.17343442
0001b0 28 5a ff 3d 56 f6 a4 bd 81 72 e6 3e f7 b8 04 be
       0.12468368 -0.08054797 0.45009235 -0.12961183
0001c0 17 4d 38 bf c2 95 56 3e 4f 23 81 be 4f 60 a9 bc
       -0.7199263 0.20955566 -0.2522225 -0.020675806
0001d0 fb 04 14 bc 5e 6a 80 be f2 d7 09 3f 1b 2f 5c 3d
       -0.009034391 -0.25081152 0.5384513 0.05375586
0001e0 0e 80 20 3f f0 b9 29 3e b9 59 23 be 5c a1 fe 3e
       0.62695396 0.16574836 -0.15952195 0.49732482
0001f0 37 55 67 3f 46 2c 71 ba 58 34 2e c0 69 81 99 be
       0.903644 -0.00092000177 -2.7219448 -0.29981545
000200 74 ea 8e 3e 3f e0 bf bd 82 d6 8a 3e 6d 7b 5e be
       0.2791325 -0.093689434 0.2711678 -0.2172677
000210 37 db 0b 3e af 1d fb 3d 75 8b 02 3d d3 fd c8 3e
       0.13657843 0.12261521 0.031871278 0.39256153
000220 65 2b c8 3c ba 63 ab be 91 f2 12 40 01 78 1b c0
       0.024434755 -0.33474523 2.296055 -2.4291995
000230 a4 c5 32 3e cc 87 f4 ba 90 7a 4b c0 d8 28 d5 3b
       0.17458206 -0.0018656193 -3.1793556 0.006505113
000240 24 a0 b5 be 94 54 73 be 37 30 22 3d 69 dc 3a be
       -0.3547374 -0.23762733 0.039596763 -0.18248142
000250 80 95 04 be 9d af 88 3d ea 92 a9 3f 33 e8 39 3d
       -0.12947655 0.066741206 1.324796 0.045387458
000260 53 9c 6b be f5 88 5c 3d 9d 64 65 3f 34 82 c6 bf
       -0.23008852 0.05384155 0.8960665 -1.5508485
000270 08 22 76 bd 67 4a 54 bc 2e 93 ff be 77 8a 39 bf
       -0.06009105 -0.012957192 -0.49916977 -0.72476906
000280 cb 5a 2e 3c 9c 56 47 3d 5e af 9a 3e f6 40 9b be
       0.010641764 0.04866658 0.3021192 -0.30323
000290 22 d6 d4 be 5b f7 dc bf a0 37 58 3e 7a 41 0a be
       -0.4156962 -1.7262987 0.21114969 -0.1350154
0002a0 8b e6 2e 3e 8b 94 a7 bd c3 a2 a8 3c 9d b8 6e 3d
       0.17080133 -0.08182629 0.020585423 0.05828153
0002b0 a9 41 cc 3c 76 e6 4a 3f e8 5c d1 3d 7f 14 55 be
       0.024933653 0.79257905 0.102227986 -0.208086
0002c0 ad 03 74 3f c2 19 c7 bc bf 1d f4 b9 d6 bf 64 3e
       0.9531811 -0.024304274 -0.0004656147 0.22338805
0002d0 d1 71 60 bd a3 9b 37 3e 2a 29 2e 3e a6 c7 53 bf
       -0.054796044 0.17930464 0.1700789 -0.82726514
0002e0 7a 6b 36 be 1d ed 27 bc d0 e4 32 bd cf e4 05 bf
       -0.17814437 -0.010249403 -0.043675244 -0.5230226
0002f0 ac 64 87 3c 2f 47 ac be 93 da d0 3e 38 28 18 3e
       0.016527496 -0.3364806 0.4079176 0.14859092
000300 c4 11 fb bd 00 84 4e be 2e 1a 91 be 39 5d 1c be
       -0.12259248 -0.20167542 -0.28340286 -0.15269937
000310 af 17 d8 3d 08 8c 08 3c 39 34 14 be 09 10 73 bf
       0.10551392 0.008334167 -0.14473046 -0.9494634
000320 d8 b9 8c be dd 4a 4e bc 4f b1 9e 3e 48 7e 54 3c
       -0.27485538 -0.012591091 0.3099465 0.012969561
000330 2c e5 18 3e 46 51 24 be 60 8f 4f be 94 de ed 3e
       0.14931172 -0.16046628 -0.20269537 0.46458876
000340 64 ec 00 bf a6 01 58 bd 58 cc ef 3e 65 4d a5 be
       -0.50360703 -0.052735947 0.4683559 -0.3228561
000350 a6 90 cd 3d 49 91 fe 3c fc cd 94 be b2 fe 9d 3e
       0.10037355 0.031075137 -0.29063404 0.3085838
000360 47 3e cf 3d ba 30 37 bd f0 52 65 3e 80 f9 7c 3d
       0.101193 -0.044724204 0.2239492 0.06176138
000370 da af 40 bf 5b aa da 3d 6c 91 13 bf 97 f2 f7 be
       -0.7526833 0.10677024 -0.5764377 -0.4842727
000380 28 9a 53 be 71 dd 39 bd 6e f7 5b 3d 76 82 10 bf
       -0.20664275 -0.0453772 0.053702764 -0.5644907
000390 09 59 9d be 57 63 4a 3f 1d 4d 57 40 b7 70 4b bf
       -0.3073199 0.7905783 3.3640816 -0.79468864
0003a0 3b 4c 77 40 97 32 da 3d e7 c5 54 3d 98 d3 ac bf
       3.8640277 0.106541805 0.051946547 -1.3502073
0003b0 e6 c4 ee be fb e1 16 bf 95 f1 a2 3f ea b5 b3 3c
       -0.46634597 -0.5893857 1.2729975 0.02193733
0003c0 38 b4 93 bc 25 01 02 be 3f 9b 56 bf d7 d9 71 be
       -0.018030271 -0.12695749 -0.83830637 -0.23618256
0003d0 a9 57 63 be 68 c2 3d 40 ac a9 43 3c 4f 0b 85 3e
       -0.22201408 2.9649906 0.011942308 0.2598519
0003e0 a0 82 6a bd 1b b1 90 3f aa 40 5c bd 20 ae 7a be
       -0.05725348 1.1304048 -0.053772606 -0.24480486
0003f0 35 b5 8c 3f 38 12 a0 be ec 90 30 bf 1e d6 5e be
       1.09928 -0.312639 -0.68971133 -0.21761367

onnx::MatMul_19 f4 [256, 128]
000000 34 71 c2 bd 55 27 ce bd 14 8b 35 bf 62 71 24 3f
       -0.09494248 -0.10066096 -0.7091534 0.6423551
000010 3f 53 8d 3d 24 b7 8c bd ab df 37 3d 0b 86 0c bd
       0.069006436 -0.06870869 0.04489104 -0.03430752
000020 82 ef a4 be 85 af 19 3a f2 af a5 3d 03 62 b6 3d
       -0.3221398 0.0005862641 0.080901995 0.08905413
000030 cf 50 a3 bd 63 8e 74 bc 7f a6 91 3e 80 e4 a1 3c
       -0.079743974 -0.014926526 0.2844734 0.019762278
000040 92 5c 0d 3e 6c 1d c1 3c c1 45 bc bd 84 e9 19 bc
       0.13804844 0.0235736 -0.09192992 -0.009394053
000050 8c a2 04 bf b5 9b e4 3e ad c8 5b be d8 03 98 3d
       -0.51810527 0.44650045 -0.2146327 0.07422608
000060 31 cd 97 3e 16 d3 d6 3d d1 15 ec 3c 2a b1 5f be
       0.29648736 0.1048948 0.028818997 -0.21844926
000070 3c a1 e8 bd 1b 00 16 bd 79 12 27 3f cf ed 13 3f
       -0.11358878 -0.036621194 0.6526256 0.5778474
000080 89 1a 13 bd 87 cf e8 3d 2f e2 40 3f a2 a7 3d bd
       -0.035913978 0.11367708 0.7534513 -0.046302445
000090 0c e0 aa 3d fd 99 6e 3e 0a 3a 13 bd 03 b0 00 3c
       0.08343515 0.2330093 -0.035944022 0.007854464
0000a0 c3 53 a8 bd ae 2a bc be 4c 1c 3c 3d 9d 31 f6 3d
       -0.08219101 -0.36751312 0.045925424 0.12021182
0000b0 fb 89 86 bd 18 b1 19 3e 20 c4 1c bc 02 34 23 3e
       -0.065692864 0.15008962 -0.009568244 0.15937808
0000c0 7c 25 5c 3e b1 ad 47 be 55 3f 25 be 0c 8e 5d bd
       0.21498674 -0.19499852 -0.1613744 -0.054090545
0000d0 31 6c 93 be 9c ed 90 bd c4 4e 16 3c 9c 10 a6 3d
       -0.2879348 -0.070765704 0.009174053 0.08108637
0000e0 a3 09 aa 3e d0 8d 85 be d7 14 f6 bd 23 a9 27 3e
       0.33210477 -0.26084757 -0.12015694 0.16373114
0000f0 9a 6f 76 3e 88 62 ca bc cf 80 67 3e fb 23 98 be
       0.2406601 -0.024705186 0.2260773 -0.2971495
000100 20 ba 9d be 1b 15 ef bd 71 23 02 3e 0d 76 0d bd
       -0.30806065 -0.116739474 0.12708832 -0.03453641
000110 be 55 7c bc c5 09 ab bd 61 4c 81 3d f2 5d 40 be
       -0.015401302 -0.08351473 0.06313396 -0.18785837
000120 44 15 21 3e 4a 18 54 bd 27 14 1c 3e 2e 72 0e bb
       0.15730768 -0.051780976 0.15242063 -0.0021735537
000130 32 99 41 3e 9f a7 21 be ac 57 a8 3e 71 6c d1 bc
       0.18906096 -0.15786599 0.32879388 -0.025564404
000140 27 0e bd bd 39 60 5f bd 2a 37 87 3e bf a3 a3 3d
       -0.09231215 -0.054535124 0.26409274 0.079902165
000150 57 86 e1 be e1 2f 9a bd 13 01 df 3d bb 89 d6 3d
       -0.44047806 -0.075286634 0.10888877 0.10475489
000160 a3 71 87 3d 17 5f 75 3e f7 96 46 bc 22 47 1a bf
       0.06613471 0.23962055 -0.012120954 -0.6026479
000170 f1 71 a7 3d 20 83 46 3e d1 00 2a bc 7c 8a 32 3d
       0.081760295 0.19385958 -0.010376171 0.0435891
000180 97 ed 16 3f 41 e1 26 3e a4 06 c5 3d 25 6a 36 bb
       0.58956283 0.16296865 0.09620407 -0.0027834263
000190 b8 91 31 bd e4 e3 fa bd 10 44 15 3c 38 8e f8 3a
       -0.04335186 -0.12250498 0.009110466 0.0018963283
0001a0 a5 8c 6b 3d ae 6e 6c 3e a0 ab 66 3e 28 36 7d 3d
       0.057507176 0.23089096 0.22526407 0.061819226
0001b0 be 69 17 be a0 44 98 bd e8 25 ba 3e 74 88 e1 bc
       -0.14786431 -0.07434964 0.36357045 -0.027530886
0001c0 a5 8c db 3c b6 3b 65 3e e4 02 3a be dc 2e 20 3f
       0.026800463 0.22386059 -0.18165165 0.625715
0001d0 f8 64 84 3e 02 0b 28 bf 75 6d 72 3d f5 5f 90 3d
       0.25858283 -0.65641797 0.059186418 0.07049552
0001e0 b5 d8 32 bc b3 dc 6a 3e 2b 49 c3 3e b7 54 39 3e
       -0.010915925 0.22935753 0.3814176 0.18098722
0001f0 33 d9 81 3f 82 ed 7b 3d 77 86 99 3d e4 ba 33 bd
       1.0144409 0.061505802 0.0749635 -0.043879405
000200 10 2a db bd c9 e2 ae 3d 68 92 19 bd ee 21 10 3f
       -0.10701382 0.085393496 -0.03749314 0.5630177
000210 3d 29 c4 3d 90 b2 57 be d0 41 f4 bc 6f 70 52 be
       0.09578178 -0.2106421 -0.029816538 -0.20550703
000220 e3 4d fa 3d c5 3b 5b 3d 20 de a2 3d 2c 89 55 bc
       0.12221887 0.053523798 0.07952523 -0.013033193
000230 5c 51 a4 bd 81 8f 7f bd fb af 98 3e dc 23 05 3e
       -0.080233306 -0.062392715 0.29821762 0.1300196
000240 ca 78 1f 3e 5a fc 3d bd 2a 43 1c 3c 73 83 08 3e
       0.15573421 -0.04638324 0.009537498 0.13331394
000250 03 6a c4 be ef 85 96 3e 48 62 d3 be 47 6a 9a bd
       -0.3836213 0.29399058 -0.4128592 -0.07539802
000260 3a ff 77 bf 0a c6 37 3e 64 1b c0 be 96 58 d7 bd
       -0.9687382 0.1794664 -0.37520897 -0.10514943
000270 10 5a d9 3d d3 2d 17 3e 7f f1 9c 3d 00 64 40 3f
       0.10612881 0.14763574 0.07663249 0.7515259
000280 e9 25 8e 3c 29 bf ff 3c e0 3c 80 3f e2 b5 65 3f
       0.017352061 0.031219082 1.0018578 0.89730656
000290 ba d2 fb bc 40 72 d3 bc c1 46 be 3d f3 b8 67 be
       -0.03074013 -0.025811315 0.09290839 -0.22629146
0002a0 e0 2b 82 bd 6e cb 54 bf ae 54 35 be 16 2b e9 bd
       -0.06356025 -0.8312291 -0.17708084 -0.11385171
0002b0 bd 67 e6 3d 94 33 e1 be d5 00 d2 bd 06 92 69 3e
       0.11250255 -0.43984663 -0.10254065 0.2280961
0002c0 ce 15 9a bd 02 ea 28 bf 3f d9 b5 3e 3d d0 20 bf
       -0.0752369 -0.6598207 0.35517308 -0.62817746
0002d0 b5 09 25 bd 19 39 d2 bc c1 5b 2e 3e e9 27 6b be
       -0.04029246 -0.025661992 0.17027189 -0.22964443
0002e0 50 c6 65 bd 38 d0 f2 3d 46 3c 25 3e 81 7e 18 3e
       -0.05609733 0.11856121 0.16136274 0.14892007
0002f0 32 1b 94 bc 95 e5 c7 3d f4 6c 73 3e b7 63 0c 3e
       -0.018079374 0.09760586 0.23772031 0.13709913
000300 90 fc f9 3d 9b 3e 04 3d 88 86 c4 bd ab ca 60 be
       0.122063756 0.032286268 -0.09595972 -0.21952312
000310 90 41 9b 3e c5 21 49 bd 53 d9 26 3e be 41 31 3e
       0.30323458 -0.04910447 0.1629384 0.17310235
000320 0d df 16 be 7e c9 b6 3d fe e6 35 be 6a ac 3c be
       -0.14733525 0.0892515 -0.17763898 -0.18425146
000330 10 3d 9a 3d 33 05 a3 bd 26 52 55 3e 90 d8 2f bf
       0.07531178 -0.07959976 0.20832118 -0.68689823
000340 98 e9 95 3e 98 74 ef 3a 24 52 7a 3e c6 41 45 3e
       0.2927978 0.0018269 0.24445397 0.19263372
000350 cc 04 28 3f dd 39 1f be e6 c4 bd 3d 45 e0 8c 3b
       0.6563232 -0.15549417 0.09266071 0.004299196
000360 e6 cc e7 bd e7 7a 2a be 76 c8 b9 3d 00 cd 90 bd
       -0.11318378 -0.16648446 0.09071438 -0.07070351
000370 a9 34 93 bd 16 41 5e bf 84 f0 1e 3b 33 5d 73 bc
       -0.071877785 -0.86818063 0.0024252245 -0.014853763
000380 ee 4f 21 3e 7f 67 27 be a2 62 c7 3d 7a 55 96 be
       0.15753147 -0.16348074 0.097356096 -0.29362088
000390 24 9d bd bd 14 98 ed 3b 36 8f d1 3e 07 11 d3 bd
       -0.09258488 0.007250795 0.40929574 -0.10305982
0003a0 67 38 34 3d bb 72 0b 3f fe 2a 83 be 52 c6 3b be
       0.043999102 0.5447194 -0.25618738 -0.18337372
0003b0 e1 75 e2 bd be cb 6b 3d 70 72 91 bc 72 4c e3 bd
       -0.1105764 0.05756735 -0.017754763 -0.11098565
0003c0 e3 d3 79 3d 06 84 36 3e ff b2 4f be 5e 01 7f bf
       0.060993087 0.178238 -0.20283125 -0.9961146
0003d0 c9 50 85 3d 28 3c e3 bc 8e 4c 01 be 82 a4 f1 3d
       0.06509549 -0.027738646 -0.1262686 0.117989555
0003e0 df 2e 19 3f c0 97 fa 3c a5 c2 02 bc 5b b9 55 bf
       0.59837145 0.030589938 -0.007980977 -0.83485955
0003f0 70 e9 e1 3d 85 b5 c5 bd 24 ac 0d 3d e6 69 2d 3d
       0.11030853 -0.09653763 0.034587994 0.04233732

onnx::MatMul_20 f4 [128, 3]
000000 08 f8 25 bb 2f e5 27 bc c1 4f 3a bc 84 43 23 bd
       -0.002532484 -0.010247513 -0.011371554 -0.03985931
000010 f0 95 44 bc 5d e3 a9 3a 0d ca ee 3d c6 55 c7 3d
       -0.0119986385 0.0012961436 0.11659632 0.09733157
000020 5c 6c f8 3a ce e8 11 bd 51 19 16 bd e7 51 04 bc
       0.0018953192 -0.03562241 -0.036645237 -0.008076168
000030 cb 83 1d 3b bf 5c 2a bc 38 ed 0f 3d 39 4f 39 bc
       0.0024034854 -0.010398089 0.03513834 -0.011310392
000040 c2 4d 90 3d 45 53 97 3b 96 9b a8 3c fd c6 0d 3c
       0.07046081 0.004618081 0.020582002 0.0086534
000050 cd f0 7f bd 19 bc 67 3b 74 af 82 3c 6b e5 c6 3c
       -0.062485505 0.0035359918 0.015952803 0.024279317
000060 c5 cc 9c 3c 0f ba 04 3c d5 e0 cb 3d b5 2f df bb
       0.01914061 0.008101 0.09954993 -0.006811107
000070 47 61 2f 3d a7 c6 89 ba 95 a4 a9 3c c4 4a 42 bc
       0.04281738 -0.0010511474 0.020708362 -0.011858646
000080 28 39 85 bc fb 43 49 3d bc a3 c7 3b ca 62 81 3c
       -0.016262606 0.049137097 0.0060925167 0.015794177
000090 c0 70 8a 3c 78 98 b2 b9 23 16 1e bb ab ff 3c 3c
       0.016899467 -0.00034064404 -0.0024122081 0.011535565
0000a0 75 1f 81 3d 6a d0 d3 bd 73 4f 7e 3c c2 6c 3f 3b
       0.06304828 -0.10342486 0.015521872 0.0029209112
0000b0 8e c1 a8 3b 8d fe 4d bc e2 d4 9e 3d a8 37 1e 3b
       0.0051500266 -0.012572897 0.07755448 0.002414206
0000c0 e0 e5 88 3d 37 15 17 bb 7c a2 6d 3c c2 05 73 bc
       0.0668447 -0.0023053417 0.014504071 -0.014832916
0000d0 a0 4b 52 3d 30 87 2d bc 76 08 c4 3c e8 df 42 bd
       0.051341653 -0.010591313 0.023929816 -0.047576815
0000e0 de 6e 02 3d af e5 28 3d d5 26 1b 3c bb 81 c6 bc
       0.031844012 0.04123467 0.0094697075 -0.024231782
0000f0 35 dd 2c bd da 0e 3e bd b5 13 da ba 99 16 c0 bc
       -0.042203147 -0.046400882 -0.0016637953 -0.023448275
000100 d7 ca e2 3c 84 e5 63 bb b8 73 ba bc 3e c9 12 3b
       0.027684612 -0.0034774253 -0.022760257 0.0022397782
000110 3c 74 65 3b f5 c6 8f 3c 2e 6a 4f 3d 76 49 2d 3c
       0.0035011908 0.017550925 0.05063837 0.0105765965
000120 47 59 10 bd 26 75 0b bd 78 32 28 bc 5c 6f e2 3b
       -0.03524139 -0.03404727 -0.010265939 0.0069102477
000130 61 78 48 bd c8 3f 55 bb 76 fe ec 3b 51 5c 6c bc
       -0.048942927 -0.0032539237 0.0072324825 -0.014426307
000140 52 34 f2 bc 91 d8 e1 bc ce 50 de 3b df 48 b4 3b
       -0.029565964 -0.027569087 0.006784535 0.005501851
000150 3d 9b 04 3c 11 2d 33 bc a4 74 4c 3d 39 d4 2d 3c
       0.008093652 -0.010936038 0.049915925 0.01060968
000160 c1 ba b8 bb 38 4a 62 bc f8 27 fa 3c 1b 11 15 3c
       -0.005637497 -0.01381164 0.030536637 0.009098317
000170 95 03 85 bc 6c 45 96 3c 45 ea b2 3c 12 db 18 3a
       -0.01623706 0.01834365 0.021840224 0.0005830984
000180 ae 60 4d 3c 6b 3a 97 bd 47 bc 3a 3b 2b ba 9e bc
       0.012535257 -0.07384189 0.002849357 -0.019375881
000190 24 0f 34 bd 59 08 6e bc 5d fb dc 3c b5 12 e0 bc
       -0.04395975 -0.014528357 0.026975328 -0.02735267
0001a0 2e da 4a bc 3a 14 45 bb 48 62 8d 3c d2 dc 51 3b
       -0.01238112 -0.003007187 0.017258778 0.0032022488
0001b0 22 57 95 3b ab c3 30 bd 2d 26 34 bc da dd bb bc
       0.004557506 -0.043155354 -0.01099543 -0.022932936
0001c0 ca b5 58 bc b0 b3 dd bb 4e 22 85 bd 7c 9e 0b 3d
       -0.013226936 -0.006765805 -0.06500684 0.03408669
0001d0 b4 62 4a 3b 3b 62 15 3d 8f 2a 4a 3b fb 4b 26 bc
       0.0030881586 0.036470633 0.003084812 -0.010149951
0001e0 50 c5 6b 3b 49 36 99 39 d2 3a 1e bd 64 f2 7d bd
       0.0035975762 0.0002922288 -0.038630314 -0.06199874
0001f0 1c 48 c9 3b e1 82 aa 3b 63 01 90 3b 13 1d 51 3d
       0.0061426293 0.0052035903 0.0043946966 0.051053118
000200 05 c2 52 3c 01 f5 0a bd 7d f8 bc 3c 9b 58 0c bd
       0.012863641 -0.03392506 0.023067707 -0.03426419
000210 f8 0e 97 bb b9 83 3f 3d 16 f6 c0 3c 53 f5 1b 3d
       -0.0046099387 0.04675648 0.023554843 0.038075756
000220 19 d5 2e bc b4 28 bc 3b e1 57 15 bd 4a 13 75 3b
       -0.010670924 0.005742157 -0.03646076 0.003739553
000230 a6 32 82 bc a7 8c ac 3a 7f 37 80 bb 9e 7f 91 3c
       -0.015893292 0.0013164476 -0.0039128656 0.017761048
000240 6b f6 8b bb 72 ec 12 bd 57 25 75 3d 54 70 65 3d
       -0.0042713187 -0.035870023 0.059850063 0.056015328
000250 7d d9 11 bd fa e4 82 3b 5e e5 98 bb c6 2e e6 3a
       -0.035607804 0.0039945813 -0.0046660146 0.0017561547
000260 54 a4 8e bc 25 e6 aa 3c b8 6f 4a bb 75 6f b9 3c
       -0.017412342 0.020861695 -0.0030889343 0.022636155
000270 f0 05 a3 bd 81 54 45 bd 27 39 e6 bb 71 77 2e 3c
       -0.07960117 -0.048176292 -0.007025856 0.010648594
000280 4f 37 f5 bc fd 64 30 bd 36 35 8f 3d 5f 3c 9b 3d
       -0.0299336 -0.04306506 0.06992571 0.07579874
000290 82 66 2a bb ad 5b 09 bc 35 1c 15 bc f4 a3 08 3d
       -0.002600104 -0.008383674 -0.009100963 0.033359483
0002a0 68 15 0f 3d 38 70 06 3a c8 9c 6e bc fd be ff 3b
       0.034932524 0.0005128416 -0.014563747 0.00780475
0002b0 51 f2 49 bd c5 77 c4 bb 79 c2 af 3a c0 41 05 bc
       -0.049303357 -0.005995723 0.0013409398 -0.008133352
0002c0 fc 43 92 bd c2 eb 6f bc 0d 8e 0f 3d c1 95 e1 3c
       -0.07141873 -0.014643611 0.03504758 0.027537229
0002d0 86 29 f1 bc 21 e1 47 bd a0 c2 af ba 78 43 8f bd
       -0.029438745 -0.048798684 -0.0013409443 -0.069952905
0002e0 92 7d 12 bd 6a a7 2b bb 6b f4 00 bb 38 ae 37 3b
       -0.035764284 -0.0026192316 -0.0019676934 0.0028027426
0002f0 7a 6f e4 3c e1 a8 8b bd 38 06 6e bb cf 9b 2b ba
       0.027885187 -0.068193205 -0.0036319625 -0.00065463496
000300 c1 05 24 3d 5a a2 45 bb c6 98 69 3c 8a 8d f8 bc
       0.04004455 -0.0030156584 0.014257615 -0.030340929
000310 6a f3 e7 bc c3 be 8d 3c 04 80 ab 3c 49 34 0d bc
       -0.028314311 0.017302876 0.020935066 -0.008618423
000320 73 53 87 bd 4e 1c 82 bb 7f bb 32 3c 7a 86 7f 3d
       -0.066077136 -0.0039706593 0.01090896 0.062384106
000330 7d 6a 5d 3c ac aa ba bc 5f d6 04 ba 15 04 16 3d
       0.013514158 -0.02278646 -0.0005067344 0.036624987
000340 ce 61 02 3b fa fb d4 ba 77 17 44 bc 54 8b fa bc
       0.0019894722 -0.0016249411 -0.011968485 -0.030584015
000350 0b c4 1b 3c d7 fb 5e bd af 54 47 3c 26 71 ce 39
       0.0095071895 -0.054439392 0.012166186 0.00039375684
000360 83 e9 01 3c 3f b0 da 3c aa 0e b3 bc 77 b5 d4 bc
       0.007929209 0.026695369 -0.021857578 -0.025965435
000370 26 45 48 3c d9 f0 3a bd 03 7c ee 3a 8f 32 03 bb
       0.0122235175 -0.045639846 0.0018194917 -0.002001915
000380 d8 4f de bc 61 77 8b 3b fb cf 3a 3d 01 8e 7a 3b
       -0.027137682 0.0042561744 0.045608502 0.0038231614
000390 b1 3a 52 bd 9b ec 2a 3c 27 60 7b bb 07 ad 85 bd
       -0.051325504 0.010432388 -0.0038356872 -0.06527143
0003a0 64 22 cc bb 82 7a 79 bc 3e 15 d7 3b e2 11 d5 3c
       -0.0062296856 -0.015226962 0.0065638116 0.026009504
0003b0 83 84 de 3a bf 2a 82 3d 78 3f c8 3c d1 7e 1b 3c
       0.0016976747 0.063558094 0.024444327 0.009490685
0003c0 02 fa b2 3a 3d ec 13 3b 7f b0 b2 bc 69 80 8d 3c
       0.001365483 0.002257123 -0.021812676 0.017273145
0003d0 e9 48 8d bb f8 81 79 3c e3 21 d4 3b 62 93 c5 3c
       -0.00431167 0.015228741 0.006473766 0.02411813
0003e0 35 e5 94 3c 18 03 0c bd 02 6a 08 3c 52 16 37 bc
       0.0181757 -0.034182638 0.0083260555 -0.011174755
0003f0 54 79 9d bc 14 62 b1 bc eb 8b 3b ba a1 69 5d bb
       -0.019222893 -0.021653213 -0.0007154333 -0.0033784884
