logs/pointfoot_flat/PF_TRON1A/exported/policies/policy.pt (torch, 746450 bytes, 8 tensors)

weight f4 [512, 36]
000000 21 62 10 3e 1f 3e dd bd 28 45 00 3e c3 de 55 bd
       0.14099933 -0.10802864 0.12526381 -0.052214395
000010 5d c6 e9 3d cb 6d 60 3e e8 b1 08 bf 45 93 1a 3f
       0.11414788 0.21916883 -0.53396463 0.60380965
000020 f7 f8 a2 3e f2 5d 17 bf 7a 1b 21 be 7a 3c 34 3e
       0.3183057 -0.59127724 -0.15733138 0.17601195
000030 33 93 98 3f 2d 86 b4 3e db c1 a5 be 5e 5a 75 3e
       1.1919922 0.35258618 -0.32374462 0.23960254
000040 f3 08 17 3d 4b dc bd 3e f6 25 b0 bc 2d d4 36 bc
       0.03687377 0.37082133 -0.021502476 -0.011158985
000050 a4 c1 76 bd b9 f7 ce bc e6 36 00 3d 23 ae f9 bc
       -0.060243264 -0.025264608 0.031302355 -0.030478543
000060 04 4e 4f 3d 7f 04 c6 bd ba 42 a0 3b ca cc 61 3e
       0.05061151 -0.09668826 0.004890767 0.22050777
000070 6f de a8 3e 15 8f 57 3c be 3a 59 be 46 8e 44 3c
       0.32982203 0.013156672 -0.21213815 0.011996811
000080 6f 77 28 bd 07 5d 2b be b9 1e 84 be a1 ec f9 3e
       -0.041129526 -0.16734706 -0.2580469 0.48813346
000090 6c 19 b3 3e 73 ba 8d bd 6d 6d 9e 3d 69 c5 13 bc
       0.34980333 -0.06920328 0.07735715 -0.009019234
0000a0 6a 75 bc be e8 33 6f 3e fd 09 67 bf 69 ce bf 3e
       -0.3680833 0.23359644 -0.90249616 0.37462166
0000b0 94 5c ad bd 7b 8e a1 bc 49 00 5f bf 90 08 73 be
       -0.084649235 -0.01972126 -0.8710981 -0.23733735
0000c0 6e f0 14 3f 8d e6 4a be b4 ae 01 3f 07 61 3b 3e
       0.58179367 -0.1981451 0.506572 0.18298732
0000d0 f9 79 f7 be c2 c1 8d 3c 86 46 eb 3d 7e 44 ba 3e
       -0.48335245 0.017304305 0.11488061 0.3638038
0000e0 f4 89 27 be 6b 3f 47 3d b0 48 4f bc e1 a8 9a 3c
       -0.16361219 0.048644464 -0.012651607 0.018879356
0000f0 db fa d3 3b 74 23 2a 3d 14 8d fd bc 0f af 7f 3b
       0.0064691133 0.041537717 -0.03095106 0.0039014255
000100 bd 7c 6d 3e ab 21 25 bd f1 4f 5d 3d fc 80 9a bd
       0.23192115 -0.04031531 0.054031316 -0.07544133
000110 2e bf 26 3d a1 d7 11 3d 82 09 ba ba 32 3f a4 bd
       0.040709667 0.03560603 -0.0014193507 -0.08019866
000120 b0 90 89 bd 7f 1c 0b bd c1 94 62 3e 15 b3 ec 3d
       -0.0671705 -0.033962723 0.22127058 0.11557595
000130 6c da e6 3e 66 46 8c bf 0f 3d d5 3e fd ea 59 be
       0.45088518 -1.0958984 0.41648147 -0.21281047
000140 90 40 92 3d 90 dd 9d 3e 74 1b eb be 35 1b 03 bd
       0.071412206 0.308331 -0.45919383 -0.03200837
000150 4a 3d 6b 3f b7 b4 4f 3e 6b a9 b3 be d0 ab 48 3e
       0.91890395 0.20283781 -0.35090193 0.19596791
000160 fb 06 b1 be 24 0f 87 3e 1a de b8 3d 6b 2a d6 bd
       -0.34575638 0.2637874 0.090267375 -0.10457309
000170 09 f3 08 be 60 65 04 bd 74 0a 2b 3d b3 8d 17 bd
       -0.1337396 -0.03232324 0.041758016 -0.03700037
000180 ab 31 0d 3d 8d 76 40 bc 71 2b 7f 3d 1c e7 c4 3b
       0.034471195 -0.011747015 0.06229729 0.0060089957
000190 75 40 29 be eb e4 22 3c ae 6d 6f bd dc 63 93 bd
       -0.16528495 0.009942274 -0.058454208 -0.07196781
0001a0 7f e9 ce 3d b7 5f 14 3e 8c 25 98 3d 3e ab 9c 3f
       0.101031296 0.14489637 0.074290365 1.2239759
0001b0 d0 8e fe 3c d2 46 93 3d b3 25 01 3e 68 bf 9b bd
       0.031073958 0.07191242 0.12612037 -0.07604867
0001c0 da 34 25 be 79 32 00 bf 88 c5 19 bf 65 ea a0 be
       -0.16133443 -0.50077015 -0.60067034 -0.3142883
0001d0 85 a7 bb be 08 e9 52 3d 90 a4 ef bd 56 cd 5a bf
       -0.36651245 0.051491767 -0.1170131 -0.8546957
0001e0 7f e0 b6 3e 95 ea 16 be ef 77 0c 3e 0b 40 2e 3c
       0.35718152 -0.14737923 0.13717626 0.010635386
0001f0 41 bc ce 39 b4 48 03 bf c6 b1 c8 3e 3a 28 f2 3e
       0.00039431642 -0.5128281 0.3919813 0.47296315
000200 04 b6 31 be 9c 8d 6c bd bf 5b 0d 3e 69 f8 8f bd
       -0.1735459 -0.057752237 0.1380453 -0.07029802
000210 13 8e ba 3d 37 64 b1 bd f9 20 55 bd 0c 8f 7d 3e
       0.0910913 -0.086616926 -0.0520334 0.247616
000220 f9 b3 e6 3e c8 32 08 be 51 bb e5 bd 1c 46 85 3d
       0.45059183 -0.13300622 -0.112173684 0.06507513
000230 18 47 f9 3d a9 91 92 3b e3 a0 15 be 8a 2f 76 3d
       0.12171763 0.0044729304 -0.14612155 0.06010393
000240 1f 6f cd 3c a7 52 83 be 16 23 cc be a7 23 7d bf
       0.0250774 -0.25648996 -0.39870518 -0.98882526
000250 36 4b 09 be 6a 3e 12 bc a4 3e 37 be e3 80 7f bf
       -0.13407597 -0.0089260135 -0.17894989 -0.9980604
000260 bf 3b 14 3d 57 55 49 3f d3 42 91 be cb ee 97 3e
       0.03618979 0.78645843 -0.28371295 0.29674372
000270 63 c9 6f be bd 0a a9 3c e9 bd 9f 3d 66 a8 2e 3d
       -0.23416667 0.020635003 0.07799894 0.042641066
000280 62 20 02 bf 2b a4 e7 be 9a 9d 95 3e c7 2f c5 be
       -0.5083066 -0.45242438 0.29221803 -0.38513014
000290 6d 53 0e be 28 07 1e 3d a8 0a 04 be cd 4c d1 bd
       -0.13899012 0.038581043 -0.1289469 -0.10219727
0002a0 8d fd b3 bd 31 93 0f be 79 7f 95 bc 65 74 36 be
       -0.08788595 -0.14020993 -0.01824926 -0.17817838
0002b0 36 f3 a6 3e c6 49 9c 3d 62 ff be 3c 1e bd 15 3e
       0.3260743 0.07631259 0.023315135 0.14622924
0002c0 48 80 dc bd d7 ed ac 3d 21 ca 7f 3d cf 83 da 3d
       -0.10766655 0.08443802 0.062448625 0.10669672
0002d0 74 41 8e bd 62 a9 ed bd bd 39 e1 3e 9e 36 22 3e
       -0.06946078 -0.11604573 0.43989363 0.15841147
0002e0 a8 b3 8d be c4 eb 93 3d 0c 88 85 be 39 30 8a be
       -0.2767613 0.07222703 -0.26080358 -0.26989916
0002f0 d3 7f 00 3f 98 0e 25 be 79 4c 49 be 3f 3f b6 bd
       0.50195044 -0.16118848 -0.19658078 -0.08898782
000300 a7 be 5e 3e 32 04 95 3f 4a da 2a 3b 26 54 97 be
       0.21752416 1.1641905 0.0026070052 -0.29556388
000310 18 f9 9f be 8e 80 ec 3e 24 1f 84 3e 50 85 81 3e
       -0.3124473 0.4619183 0.25805008 0.25297022
000320 27 a6 26 bd 5b c7 2f 3e cb 2d 07 be 80 a8 30 bd
       -0.0406858 0.17165892 -0.13201062 -0.043129444
000330 e5 2a a6 3c 4a 18 11 3e af ca 67 be 5e 0b 5e 3e
       0.020284126 0.14169422 -0.22635911 0.21684024
000340 98 3b 02 3e a7 b6 50 3e 27 76 0c be 7d 13 1f be
       0.12718046 0.20382176 -0.13716947 -0.15534778
000350 bd 99 40 be 72 d0 a0 3d 0e 25 53 3d 0c e2 eb bd
       -0.18808647 0.07852258 0.05154901 -0.115177244
000360 2e d6 82 bd 43 62 69 3e 81 fd 8c 3d d1 f1 ce 3e
       -0.06388508 0.2279139 0.068842895 0.40418866
000370 8a 0d 81 bc d0 06 9c be 50 6f d5 be 9d 4a 3b bf
       -0.015753526 -0.30473948 -0.41686487 -0.73160726
000380 3b d8 bc 3e 1c b5 12 3f 8d 7b d6 bd 9b 58 b2 3d
       0.3688372 0.573076 -0.10472784 0.087083064
000390 61 7c fd 3e 39 6a 74 3f 36 9c fa bd d7 15 86 3e
       0.49508956 0.9547458 -0.12236826 0.26188537
0003a0 fd 50 06 bf 12 18 83 3e c0 57 ac 3e 42 de 58 3d
       -0.5246733 0.25604302 0.33660698 0.052946337
0003b0 5a a3 9c 3d f7 9f 59 bc 3d 7b c8 3d da 4e dc bc
       0.07648344 -0.0132827675 0.09789131 -0.026893068
0003c0 15 1e 88 bc 34 a1 12 bc a5 8e 90 bc 9b 99 47 3e
       -0.016615907 -0.008949567 -0.017646143 0.1949219
0003d0 f2 1d d6 be 88 3f 6e bd 25 a9 fb bc d8 0b 65 3c
       -0.4181972 -0.058166057 -0.030720303 0.013979875
0003e0 34 63 9a 3c d7 89 7f bd 41 d9 a6 3d c9 17 53 be
       0.018846132 -0.062387314 0.08146907 -0.20614542
0003f0 f6 84 a2 3c 04 28 44 3d 53 97 83 3d 76 d4 e2 be
       0.019838791 0.047889724 0.06425347 -0.4430272

bias f4 [512]
000000 06 a4 db bd 96 8e ae bd 87 2c 61 bd 99 eb bb 3d
       -0.10724644 -0.0852329 -0.054974105 0.09175796
000010 c4 96 ae bd fe 51 44 be cd c6 b1 3d d6 1c 4e bc
       -0.0852485 -0.19171903 0.08680496 -0.012580117
000020 1a c5 61 3e 4e 95 6f be ba 1c 23 be 1d 9d 6b be
       0.22047845 -0.23396799 -0.15928927 -0.23009153
000030 fe 88 f1 bc 48 4e 20 bc 6c 43 f7 bd d9 e8 74 bd
       -0.029484268 -0.009784289 -0.120734066 -0.059792373
000040 a0 c2 36 3d e8 1c 49 be b1 7f 2e 3e 44 25 10 be
       0.044619203 -0.19639933 0.17040898 -0.14076716
000050 b1 be 34 be 10 05 04 bf 83 b2 5a 3d 73 90 41 be
       -0.17650868 -0.51570225 0.0533929 -0.18902759
000060 bb 0f 4c 3d c2 11 69 3e b6 a8 e4 3d b6 42 01 bd
       0.04981969 0.2276068 0.111649916 -0.03155776
000070 65 2f 3a bb 59 8f b5 3d 16 b4 a8 3d d3 be 47 bd
       -0.0028409597 0.08865232 0.08237474 -0.04876597
000080 bb 31 10 be 82 ce 21 3e 90 99 83 3e 36 a6 50 3e
       -0.1408147 0.15801433 0.25703096 0.20375904
000090 b9 9d 93 3d b3 54 8e 3e 9b fe 47 be a6 70 ca bd
       0.072078176 0.27798995 -0.19530718 -0.09884767
0000a0 5a aa c1 bd 72 a0 0d bd 6a cd 0b be cd a9 d2 3c
       -0.0945632 -0.03457684 -0.13652578 0.025715733
0000b0 3d e8 84 3e bf f4 59 3d 52 2b 65 3e b9 7e f0 bd
       0.25958434 0.053211924 0.22379807 -0.117429204
0000c0 20 74 4c 3d d2 19 a9 bd f1 6b a3 3c 02 4a 5d 3e
       0.049915433 -0.08256878 0.019948931 0.21610263
0000d0 44 ca 8e bd 65 cc 88 be 94 c9 26 3d 18 e0 ba 3e
       -0.06972173 -0.2671844 0.040719584 0.36499095
0000e0 3f 4f 0d bd 4e 97 80 be b8 87 da bd 27 eb 0b bd
       -0.034499403 -0.25115436 -0.106704175 -0.034159806
0000f0 05 9a 0a 3d 44 7d 5a bc 66 2f dc be c8 83 86 bd
       0.03383829 -0.01333553 -0.43004912 -0.06568104
000100 0b 92 bb 3c b5 20 52 bc 6b 8e c3 bb 59 74 fe 3d
       0.022896787 -0.012825181 -0.0059679053 0.12424535
000110 98 8c 2f be 82 9f 08 3e 80 09 0e be 8d c4 74 be
       -0.17143476 0.13342097 -0.13870811 -0.23903103
000120 58 58 60 bd 8b ee d6 bd 97 3a 02 bd a6 fc f6 3c
       -0.05477175 -0.10494717 -0.031794157 0.030149769
000130 c1 b3 4a be 78 b1 ac 3c f5 05 4c 3e 64 10 ce bd
       -0.19795133 0.021080717 0.19924147 -0.1006172
000140 b3 a1 4e 3b 1d 30 95 bd 9b 33 55 be a4 f6 ba 3d
       0.0031529486 -0.072845675 -0.20820467 0.09129074
000150 56 86 0a 3d 3f f0 00 be d7 02 c8 3d 2e 3c 5e be
       0.03381952 -0.12591647 0.09766167 -0.21702644
000160 8e d3 a6 bd 55 f7 d7 bd df 4b a5 bc 53 88 28 3e
       -0.081458196 -0.10545222 -0.02017778 0.16458254
000170 ba 9e 03 3c 89 c1 05 3e 1b bd 51 be 15 da 7f be
       0.008033449 0.13062109 -0.20482294 -0.24985535
000180 46 fe 04 bd 70 04 93 bd de 4d 63 bd b7 86 15 be
       -0.032469057 -0.07178581 -0.05549418 -0.14602171
000190 49 6c 12 be f8 0a 5b bd 12 09 4f be 69 81 9f bd
       -0.1429912 -0.053477257 -0.20218304 -0.07788355
0001a0 d0 da 13 be 01 ae 1c 3e 4c 29 39 bd e5 66 6b 3d
       -0.14438939 0.15300752 -0.0452054 0.057471175
0001b0 ff a0 06 be 1a 37 18 be 8c c6 4d be 79 14 3d be
       -0.13147353 -0.1486477 -0.20095271 -0.18464841
0001c0 12 cc 1d be f9 07 8f bd ec 14 4e be f0 77 81 3e
       -0.15409878 -0.069839425 -0.20125169 0.25286818
0001d0 79 ac fa 3d 29 f8 25 3c 2a 67 5a be c9 60 6c 3c
       0.12239928 0.010129967 -0.21328416 0.014427372
0001e0 ea af d7 3d ce 13 db 3d 89 fa 44 3e d8 80 69 bd
       0.105316 0.10697137 0.19236197 -0.05700764
0001f0 a8 78 64 be 9f 6a c4 3d eb c7 00 bd 68 bb 99 3d
       -0.22311652 0.09590649 -0.031440657 0.07506448
000200 3b d5 f4 bb b0 ad b2 be 66 c3 01 be ae 9c 08 3d
       -0.007471708 -0.34898138 -0.12672195 0.033352546
000210 40 b7 88 be a9 23 78 be 67 89 d8 bd 8f a0 88 3e
       -0.2670231 -0.24232353 -0.105730824 0.26684996
000220 a2 4e d7 3d 7e ef 00 bc e6 68 bc 3c 6d 26 ca bd
       0.10513045 -0.007869599 0.022999238 -0.098706104
000230 15 71 0b be 69 84 26 3e 97 25 97 bc f3 4c dc bd
       -0.13617356 0.16261448 -0.018450541 -0.107568644
000240 ff 93 38 be a1 c8 c1 3d 8e cf 9a bd 80 61 57 3d
       -0.18025206 0.09462095 -0.07559119 0.052583218
000250 af 18 8e 3c 36 77 93 3d 6a 7b 8c 3e b7 e0 ee 3c
       0.017345754 0.07200472 0.27437907 0.029159887
000260 97 50 b2 bc 29 a1 d3 3d 31 82 4d 3e 10 38 db 3d
       -0.021766944 0.10333473 0.20069195 0.107040524
000270 de 02 9f be a4 91 b7 bd 82 0c d1 bd 34 84 56 bd
       -0.31056875 -0.089633256 -0.10207464 -0.052372172
000280 35 31 e6 bd 78 5a 5e be 47 4d 04 bd c1 73 ae bb
       -0.11239854 -0.21714199 -0.03230026 -0.0053238575
000290 c1 45 ca bb 3e ce 82 be 6b 08 94 bd 84 03 ef bb
       -0.006172866 -0.25547975 -0.07228168 -0.0072941203
0002a0 bd ad ae bd 89 ae 73 bd 4c dd 06 be 04 b2 1e bc
       -0.08529232 -0.05949262 -0.13170356 -0.009685997
0002b0 32 aa 0a 3e a2 b4 d4 bd d0 5d ec bc f1 8c b3 3d
       0.13541487 -0.103860155 -0.028853327 0.08767117
0002c0 9b 02 3a bd 9c cd 33 bd f6 a8 6d 3e 17 1c f8 bd
       -0.04541264 -0.043897256 0.23208985 -0.12114733
0002d0 de d7 d9 3c ab 35 fe 3c 77 fb 84 3e 7a 19 c8 3d
       0.026592191 0.03103145 0.25973102 0.09770484
0002e0 6b ab 3b be b4 a4 f4 bd 44 4c b6 bd 95 15 b2 bd
       -0.1832711 -0.11945477 -0.08901265 -0.08695523
0002f0 6e c6 aa 3d d1 80 21 be 30 c4 8a bd c4 7d ab 3d
       0.08338629 -0.15771796 -0.06775701 0.08373597
000300 5b 4d de bd 1e 43 87 bc 8a 55 eb bd 81 c6 0d 3e
       -0.10854598 -0.016511496 -0.11490925 0.13845254
000310 95 a4 b9 3c fa 5d 55 bb 4e 42 08 bd b5 0a 0c be
       0.022661487 -0.0032557235 -0.033266358 -0.1367596
000320 d0 84 b7 bd 32 e8 bc 3e 6d 63 15 3e 9b 4b 1c be
       -0.08960879 0.368959 0.14588709 -0.15263216
000330 95 2a 74 be 52 d1 a6 bd 3a e3 07 3e d3 88 00 3d
       -0.23844369 -0.081453934 0.13270274 0.031380486
000340 8e 84 2c be 06 9c 00 3e f0 ef ba be b5 71 22 be
       -0.1684744 0.12559518 -0.36511183 -0.15863688
000350 83 e1 e1 bd 0d d8 9e be 58 65 30 3a c0 81 37 be
       -0.11029341 -0.3102421 0.00067289686 -0.1792059
000360 9b 9a 34 3e 70 bc 22 3e c6 f0 d4 bb 96 2c 81 bd
       0.17637102 0.15892196 -0.006498429 -0.06307332
000370 d5 75 62 be 1a b9 2c 3c 26 4b a3 3d fe 7a 62 be
       -0.22115262 0.0105421785 0.07973318 -0.2211723
000380 6e a4 87 3d cf 5a 79 3d e0 e9 d5 3d 8d fd ca 3b
       0.06623159 0.060877617 0.10444999 0.0061947764
000390 56 45 30 be a2 cb 36 bf 0f d8 0d be 41 3b 26 3e
       -0.1721395 -0.7140447 -0.13851951 0.16233541
0003a0 89 9b d9 bd 7c 14 8f 3c cd d6 15 be 0e 37 10 3d
       -0.10625369 0.017465822 -0.14632721 0.035208754
0003b0 5d 7e a2 bd a7 21 21 3e f6 eb 8f 3d 55 1f 62 3d
       -0.07934258 0.15735494 0.07027428 0.05520566
0003c0 e9 b3 f6 ba ce 6a ff bd c1 dd 3a bd b4 82 72 3e
       -0.0018821928 -0.12471543 -0.045621637 0.23682672
0003d0 50 62 b9 3d fc 9b 81 bd b4 e6 d1 3d 1b 54 8e bd
       0.09051955 -0.0632858 0.10249081 -0.069496356
0003e0 fa 00 95 bc 77 f6 4e 3d cc 11 80 be 15 91 bc bd
       -0.018188942 0.050528016 -0.25013578 -0.0920736
0003f0 71 a1 c7 3d 3a d7 b2 be af cc a8 bd e6 d1 53 bd
       0.097475894 -0.3492983 -0.08242165 -0.051713847

weight f4 [256, 512]
000000 c2 9c 1d be a1 10 8a bb c4 42 0d 3e f4 7b 25 3e
       -0.1539183 -0.004213408 0.13795 0.16160566
000010 9f 4a 72 3d c4 25 3d 3e 9c ef cc 3e 90 01 bf 3e
       0.059153195 0.18471438 0.40026557 0.3730588
000020 e3 1d 2a be 24 9b fa bd eb 4e 85 3e b6 88 1d 3d
       -0.16612963 -0.12236622 0.26036772 0.038460456
000030 a8 69 8f be 6b 7c 8c be 37 79 4d be 78 f4 f2 bd
       -0.28010297 -0.27438673 -0.20065771 -0.11863035
000040 48 3d 4a bc 8e 48 48 be cb 24 aa bd 6c 63 40 be
       -0.012343712 -0.19558927 -0.08307799 -0.18787926
000050 30 eb 51 3d 5d 50 f4 3d 54 c6 2d be 39 f2 2c 3e
       0.051249683 0.119293906 -0.16970187 0.16889276
000060 39 f5 ba 3e 2d 4b 36 3d 2a 77 4f 3e 43 b9 2f be
       0.36515215 0.044505287 0.20260301 -0.17160515
000070 ae eb 12 3e a8 ef 90 3e 03 49 0b 3e a3 61 2c be
       0.14347717 0.28307843 0.1360207 -0.1683412
000080 5a 21 61 3e d3 a6 ef bc 68 fd 3e be ee 55 aa 3d
       0.21985379 -0.029254353 -0.18651354 0.08317171
000090 e0 45 57 3d 8a 74 a3 bb da 3f f2 bd 73 a1 88 bd
       0.052556872 -0.004988258 -0.11828585 -0.06671419
0000a0 27 69 6f 3e f9 3e 8b 3c b8 1c 70 3e b3 5f a8 3d
       0.23379956 0.016997801 0.23448455 0.08221378
0000b0 a4 4a a6 3c 04 02 5d bc 18 6e ce bd 97 64 9e bb
       0.020299263 -0.01348925 -0.100795925 -0.0048337686
0000c0 be fd ec 3d 2e e2 ea bd 96 63 a3 3d dd 59 e8 bd
       0.11571835 -0.114689216 0.07977979 -0.11345265
0000d0 f1 72 9e 3e 6a 73 2c 3e 18 ca 2b 3d 42 dd 0d be
       0.30947068 0.16840902 0.04194078 -0.13853934
0000e0 40 c2 20 3e 0a 4e 98 3d a0 5c e3 3d f3 9e 1b bf
       0.156991 0.0743676 0.11101651 -0.6078941
0000f0 4e 51 ff bd 95 35 f1 3d 19 6a e9 3c 0f d2 10 be
       -0.124666795 0.11777798 0.028492974 -0.14142631
000100 c6 8a e1 3d 31 61 8c 3d c8 3e 6c be 9a 18 5d 3d
       0.11012797 0.06854475 -0.23070824 0.05397854
000110 38 2b 4d 3d 41 63 8d bd ba a7 53 3e b5 63 28 3e
       0.050090045 -0.06903697 0.20669451 0.16444285
000120 eb 7e 6d bd 93 9f 98 be c0 42 94 3d d3 c8 00 3e
       -0.057982367 -0.29809245 0.07239294 0.12576608
000130 50 62 17 3e 24 95 41 3e 4d 84 2c be 46 65 7a 3e
       0.14783597 0.18904549 -0.16847344 0.24452695
000140 b1 79 79 3c 2d 80 7d 3e fa f6 05 3f f1 38 77 be
       0.015226767 0.24755926 0.5232998 -0.24142815
000150 ba e9 98 3b f1 d7 0f 3d 96 7d 1b be 75 ad dc bc
       0.0046665343 0.035118047 -0.15184626 -0.02693818
000160 7c a7 5b be 73 95 12 be bd eb d1 3e 69 0b c1 b9
       -0.21450609 -0.14314823 0.41000167 -0.0003682033
000170 c8 4b 49 3e 8b b9 92 bd cd 89 59 3e d0 6c 56 3e
       0.19657815 -0.07164296 0.21243973 0.20939946
000180 00 58 3a be c4 34 b1 3e a0 27 2c be 2f 9d 3b 3e
       -0.18197632 0.3461057 -0.1681199 0.1832168
000190 2f 5d 08 be ec 57 b9 3d 27 6a 7c 3e 3a 68 c3 bd
       -0.13316797 0.09049973 0.24649869 -0.09541364
0001a0 37 54 25 3c 2f b1 04 be 99 a5 3b 3d 29 8c 7a 3e
       0.010090879 -0.12958215 0.045812223 0.2446753
0001b0 26 09 67 bc c7 2c 3a 3e 8d 20 e3 bd b0 07 7a bd
       -0.014101302 0.18181144 -0.11090193 -0.061042488
0001c0 5b 69 77 3d 87 51 92 bd 7b 09 ca 3e 33 0b ba bd
       0.06040321 -0.07144456 0.39460358 -0.09084167
0001d0 9c 08 41 bd 9f 7b 8a be 45 88 44 3e f3 b5 48 be
       -0.04712735 -0.2704744 0.19192608 -0.19600658
0001e0 36 cd 08 bf 5a f5 99 3b a0 37 ac 3d 60 37 2d bd
       -0.5343813 0.0046984376 0.08409047 -0.042289138
0001f0 75 ae 86 3e 6d 82 67 3e 46 e1 44 3e f0 7b c1 3c
       0.26304975 0.22608347 0.1922656 0.023618668
000200 6d 94 f0 3d 7e 4f ca 3e b9 1b c4 bd df f8 57 bc
       0.1174706 0.39513773 -0.095756 -0.013181894
000210 92 fd 33 3e 82 e6 09 be 91 54 4d 3e 68 d4 1c be
       0.17577198 -0.13466838 0.20051791 -0.15315402
000220 c7 5f 29 be c9 c0 99 3e 5a d2 36 be aa 2b 3f be
       -0.16540442 0.30029896 -0.1785368 -0.18669
000230 ed 85 c5 3d 2e 0c 0c 3d 48 c4 ff 3d 7e 65 e0 3d
       0.09644685 0.034191303 0.124886096 0.10956858
000240 83 51 05 3d fc a1 00 bc b0 93 af 3e f9 87 30 3e
       0.03254844 -0.00785112 0.34292364 0.1723937
000250 ce af 52 be 52 dd e5 3c d3 bd a7 be d7 81 9b bd
       -0.20574877 0.028059635 -0.32762012 -0.07593124
000260 0d 64 8e bd 23 79 5e 3e 3c 76 89 bd 16 ee 63 3e
       -0.06952677 0.21725897 -0.067120045 0.22258791
000270 d4 eb e8 3e 28 60 2d 3e 66 04 48 3e d3 02 cd 3d
       0.45492423 0.16931212 0.19532928 0.10010304
000280 4b 51 36 3e 07 88 b8 3e 2e 67 b8 3d 11 00 f4 3b
       0.17804448 0.3604128 0.09004055 0.007446297
000290 26 5c d4 bd bf 3e 39 bd 8a 3a 80 3e b2 25 97 3d
       -0.103691384 -0.045225855 0.25044662 0.07380237
0002a0 bf 05 c0 3c 71 a4 17 3d 10 0f 45 3e b4 cc 6c 3e
       0.02344024 0.037022058 0.19244027 0.23124963
0002b0 07 58 dd be 96 51 a3 3d bd 73 1f 3e 9d 64 08 3e
       -0.43231222 0.07974546 0.15571494 0.13319631
0002c0 ab 93 cf 3d 25 9f 11 be 12 30 16 3d dc ca 85 be
       0.10135587 -0.14220865 0.036666937 -0.26131332
0002d0 62 50 a9 3e eb e8 03 bf 5d 51 90 bc 16 51 97 be
       0.3306914 -0.5152728 -0.017616922 -0.2955405
0002e0 d7 e2 6e 3e eb fb 9d 3d 2b 43 c7 bc 74 5d a4 3d
       0.2332872 0.07714065 -0.02432402 0.08025637
0002f0 d8 c7 2f be 1f f7 ad bd 1d 1c 77 3e ba c2 84 bd
       -0.17166078 -0.084944 0.24131818 -0.06482454
000300 5d a5 89 be 2e 89 9a be 14 7b d2 be 2e 72 7b 3e
       -0.26883975 -0.30182785 -0.41109526 0.24555275
000310 cc 7a 7c 3e be 0e 2c 3d aa 60 8a 3d 6b 81 14 be
       0.24656218 0.042006247 0.067567185 -0.14502494
000320 41 aa e3 bd e8 99 13 be c6 c8 22 3e 77 16 51 bd
       -0.11116458 -0.1441418 0.15896901 -0.051046815
000330 59 de 9d 3e 33 cf b8 3d a8 3d a1 3d e9 3c 89 3e
       0.308337 0.09023895 0.07873088 0.26804283
000340 4f 8f a9 3e 49 71 96 bd 3b fc b8 3e ff 3c 0c 3e
       0.33117148 -0.07345826 0.36129937 0.13695143
000350 7f 21 b5 3d f2 1a 29 bd 58 90 fa 3d 0d 37 36 be
       0.088442795 -0.041285463 0.12234563 -0.17794438
000360 99 f9 05 bd 63 fd 80 be ab 55 04 3d 38 72 86 3b
       -0.032708738 -0.2519332 0.03230826 0.0041029714
000370 64 28 b4 bd 4f 5c b8 3d 07 b9 da 3c 31 c2 fd 3d
       -0.087967664 0.090019815 0.026699556 0.12390555
000380 35 1b 20 be 2e 3a a8 3c a0 3c 5b 3d 31 04 17 be
       -0.15635379 0.020535555 0.053524613 -0.14747693
000390 fe 0c 46 3e ea be 4c 3e cd 31 63 3d 58 16 91 3e
       0.19340894 0.19994703 0.055467416 0.2833736
0003a0 e7 e5 24 3e a3 bd 13 bc 62 ec 65 3e 37 d7 8a 3e
       0.16103326 -0.009017381 0.22453454 0.2711732
0003b0 51 ea d1 bd ff 5b be bd e7 ee cd bd 9d 0e cb bb
       -0.102497704 -0.092948906 -0.10055333 -0.0061968104
0003c0 19 c1 5b 3e 90 34 9c 3e fe 37 4b 3e 48 aa a9 3d
       0.2146038 0.30508852 0.19845578 0.08284432
0003d0 cc d6 de 3d 5e a2 a5 3e ef d8 55 3d 26 31 50 be
       0.10880813 0.3235044 0.052208837 -0.20331249
0003e0 f4 58 93 bd cb d2 f4 bd e3 76 25 3e 91 f6 e4 bd
       -0.07194701 -0.11954268 0.16158633 -0.11179841
0003f0 17 30 11 3e 01 89 dd 3e b7 2a 48 3e c6 f7 61 bd
       0.14178501 0.43268588 0.19547544 -0.055167936

bias f4 [256]
000000 2b 86 71 be 03 69 08 bd 82 3f fb bd f0 81 b3 be
       -0.23586337 -0.033303272 -0.122679725 -0.35060072
000010 b6 1a 53 be 1e ca 58 bd 11 b3 87 3d 19 f6 5e bd
       -0.20615658 -0.05292713 0.06625951 -0.054433916
000020 18 5c 8b be 4c 0a ed bd 18 14 73 3d d5 6a 49 3b
       -0.272187 -0.115742296 0.059345335 0.0030733843
000030 84 eb 00 3d 96 c7 15 be 29 6d 23 3d 0e 85 88 bd
       0.031474605 -0.14626917 0.039899025 -0.06666003
000040 ba 08 b6 bd 73 8e a9 bd 45 b8 5a 3c ad 03 b6 be
       -0.08888383 -0.08279123 0.013349597 -0.3554968
000050 1a 3c 02 be 77 d8 e2 bd 7c 0e f5 bd 4e 28 bc bd
       -0.1271824 -0.11076444 -0.11965653 -0.09187375
000060 e8 54 31 be 17 44 a6 be 5d 3c 09 be 69 86 1d bd
       -0.17317545 -0.32473823 -0.13401933 -0.03845826
000070 d6 65 09 be cb 82 6d bd 0e f7 7a bd 06 a8 b1 bd
       -0.13417754 -0.057986062 -0.061270766 -0.08674626
000080 83 38 37 be a0 1c be bd bf df 10 be 01 dd 5e be
       -0.17892651 -0.092828035 -0.14147852 -0.21763994
000090 be a6 4a be 8c ea 7b bd f8 02 26 3d 35 5a 21 be
       -0.1979017 -0.06150298 0.040530175 -0.15757068
0000a0 89 2e ac bd 5e 27 9e be 27 38 d1 bd e8 b3 73 be
       -0.084073134 -0.3088941 -0.10215788 -0.23799098
0000b0 40 07 9e bd 81 fc c2 be 81 ed 5e 3d c5 98 a0 be
       -0.077162266 -0.3808327 0.05442572 -0.31366554
0000c0 a1 54 45 be 06 3a 2c bd 52 df da bd ae db 30 be
       -0.19270565 -0.042047523 -0.10687126 -0.17271301
0000d0 be c7 05 be b4 5f b0 bd 0b f2 0d be a5 32 27 bd
       -0.13064477 -0.08612004 -0.13861863 -0.040819783
0000e0 c8 37 e2 bd d0 a2 87 be 3b bb 0c be 64 90 e2 3d
       -0.11045796 -0.26491404 -0.13743298 0.110626966
0000f0 2c 91 8b be 86 b0 3e be bb 1e e0 3c 5c c7 fb bb
       -0.27259195 -0.18622026 0.027358403 -0.0076836776
000100 a8 b3 17 be 39 7a 3b be 07 c7 99 be 20 3e 0a be
       -0.14814627 -0.18308343 -0.30034658 -0.13500261
000110 3d 50 d2 bd ce ea ce bd 0d 59 e4 bd ce 93 64 be
       -0.102692105 -0.10103379 -0.111497976 -0.22322008
000120 95 04 82 bc 6c 66 f4 be 3a 10 21 be be af 60 be
       -0.015871326 -0.47734392 -0.15728846 -0.2194204
000130 67 a2 1d be 8b 84 3c be 47 02 39 be a4 38 c0 bd
       -0.15393983 -0.18409936 -0.18067275 -0.09385803
000140 1f db 51 3d 7b 89 e4 bd 71 9e 10 be de 31 a6 bd
       0.05123436 -0.11159035 -0.1412294 -0.0811498
000150 06 48 f6 bc 9e 31 38 be 33 fa 18 be 58 28 7f bd
       -0.03006364 -0.17987677 -0.14939193 -0.062294334
000160 8a 01 9b bc 16 33 cf bd 45 5b d2 3c 96 83 c0 bd
       -0.018921632 -0.10117166 0.025678286 -0.09400098
000170 78 17 96 be 5d ae ab be fe 66 6c 3d 4d 69 52 bd
       -0.2931478 -0.33531466 0.05771541 -0.051369954
000180 67 ff 95 bd 34 4b 57 be 65 ac 31 bc 2a 0c 62 be
       -0.07324105 -0.21024781 -0.010844325 -0.22074953
000190 f3 1f 25 be 6c e3 16 bd 92 0e 7e be a6 d6 47 be
       -0.16125469 -0.03683798 -0.24810246 -0.19515476
0001a0 6e 5f 9d be 70 7a 54 be 53 8d 7c be 32 ee 94 bd
       -0.3073687 -0.20749831 -0.24663286 -0.07271995
0001b0 d7 58 e9 bd 5d 83 da bd 69 79 32 be a6 56 53 be
       -0.11393898 -0.10669587 -0.17429127 -0.20638523
0001c0 ef 31 45 be 35 b5 85 be 30 a3 ba bd cf 96 6e bc
       -0.1925733 -0.26114812 -0.09113157 -0.014562323
0001d0 e6 63 ed bd f5 56 ef bd 6d 99 e4 bd 57 42 6c be
       -0.1159132 -0.116865076 -0.11162076 -0.23072182
0001e0 da 8a fb bd 2a f1 90 be 6f 9f 34 bd 2e 55 1a be
       -0.12282343 -0.28308994 -0.04409736 -0.15071556
0001f0 5e b8 ea bd f6 13 7e bd 42 71 09 bd 3c c7 3e be
       -0.114609465 -0.062030755 -0.033555277 -0.1863069
000200 33 e6 85 be 39 c8 b0 bc 10 1b 03 be 35 09 9a be
       -0.2615219 -0.021579849 -0.12803292 -0.3008515
000210 fe e7 95 bd b5 9a 82 be f0 bb 89 3c e2 88 b7 be
       -0.073196396 -0.25508657 0.016813248 -0.3584662
000220 41 6b d7 bd 2d 0d 26 be dc 4b c0 bc 7a 3e d7 bd
       -0.10518504 -0.16215964 -0.023473673 -0.10509963
000230 0c fe 22 be 22 4f aa bd 0c 9c 98 bd 08 a6 39 3c
       -0.15917224 -0.08315875 -0.074516386 0.011331089
000240 f0 ae 2d be 00 d7 42 be 83 ca 06 bd b4 8e 6c bd
       -0.16961265 -0.19027328 -0.032907974 -0.05775328
000250 a8 9f 29 be 8a 82 db bd 2b ba a1 be 90 85 a2 bd
       -0.1656481 -0.10718258 -0.31587347 -0.07935631
000260 07 a1 08 be e5 14 4f be f2 1f 42 bd 6f 8c cf be
       -0.13342677 -0.20222814 -0.047393747 -0.4053683
000270 51 5c 39 be 8a c5 0f be 1e 0d 2e 3d 8d 31 d4 be
       -0.18101622 -0.14040199 0.04249298 -0.41444054
000280 7b be 3a be 1a fe 00 bd 3f 70 44 3b b8 bc 6a be
       -0.18236725 -0.03149233 0.002997413 -0.22923553
000290 48 ed 88 be 2e 4e c1 bd 23 4e 3e be 7e 68 9c be
       -0.2674353 -0.0943874 -0.18584494 -0.3054847
0002a0 32 b6 b8 be 99 1f 13 bd 30 b6 fc 3b 7f 12 72 bd
       -0.36076504 -0.035918806 0.007712148 -0.05909967
0002b0 48 f7 a8 be 5f 43 ff bd 54 1e ad bd d2 68 7e be
       -0.3300116 -0.12464022 -0.0845305 -0.24844673
0002c0 da c8 66 bd 09 6b 61 3d f2 57 c3 bd db e8 48 be
       -0.05634389 0.055033717 -0.095382586 -0.19620077
0002d0 e8 71 a2 be 05 3c 9f be 38 e0 58 bc 1f bf 5a be
       -0.3172753 -0.3110048 -0.013237052 -0.2136197
0002e0 11 74 1d be dc c3 19 be 2b bf 10 be 6c fe d3 bd
       -0.15376307 -0.1501612 -0.14135425 -0.103512615
0002f0 7a f8 1e be 77 aa ef 3c 50 5a b4 bd b6 59 8e be
       -0.15524474 0.029256089 -0.08806288 -0.2780282
000300 fd 8b 61 be 8c 6b 14 be 36 c6 0a 3d 49 be ca bd
       -0.22026058 -0.14494151 0.033880435 -0.09899575
000310 c4 2c 29 be 53 0f e4 bc cb e7 bf bd 00 ff b5 3b
       -0.16520983 -0.027839338 -0.09370383 0.00555408
000320 cd c9 2d be 20 4f 5f be f8 c4 d1 bd 04 74 74 be
       -0.16971512 -0.21807528 -0.10242647 -0.23872381
000330 97 23 4e 3d 22 ec 80 be b9 c1 80 bd df ad 41 bd
       0.05032691 -0.25180155 -0.0628695 -0.047284957
000340 7d 92 9f bc ca 66 17 be f5 79 fb bd 97 65 6f be
       -0.01947903 -0.14785305 -0.12279121 -0.23378597
000350 97 3f 80 be 36 ea 13 bd af 7e 27 be 31 d7 aa be
       -0.25048515 -0.036112033 -0.1635692 -0.33367303
000360 4a 3f 80 be f4 ac f2 bd b8 ae 9d bc cf 3a ff bd
       -0.25048286 -0.118493944 -0.019248351 -0.12462389
000370 02 9e a9 be 66 21 2d be b2 f6 16 bd 7c 34 e2 be
       -0.33128363 -0.16907272 -0.03685636 -0.44180667
000380 17 55 73 be 8c a1 17 be 82 be a2 be 99 70 5e be
       -0.23762928 -0.14807719 -0.3178597 -0.2172264
000390 e5 f4 92 be f1 a9 6a be 22 d7 a6 be 12 11 23 bd
       -0.28702465 -0.2291639 -0.32586008 -0.0398112
0003a0 86 38 37 be 0e b1 b8 be b4 3d 31 bc a8 81 61 bd
       -0.17892656 -0.36072582 -0.010817934 -0.05505529
0003b0 c9 a7 76 be f3 40 72 bd b0 f3 01 be 21 4d b3 bd
       -0.24087442 -0.05914397 -0.12690616 -0.087549455
0003c0 09 01 a3 bc 98 d2 a9 bd f4 d2 5a bd 89 a5 37 be
       -0.019897955 -0.08292121 -0.053423837 -0.1793424
0003d0 d9 5f 31 be 52 3d 81 be 2d 4f f8 be fc c9 7e be
       -0.17321719 -0.25242096 -0.48497906 -0.24881738
0003e0 b7 01 74 be e7 07 bd be eb 78 65 be 8f 4f 84 be
       -0.23828779 -0.36920092 -0.22409408 -0.25841948
0003f0 48 69 23 be 9f 4a 70 bd cd cf 7e be cf 22 a8 be
       -0.1595813 -0.058664914 -0.24883957 -0.32839057

weight f4 [128, 256]
000000 af 64 bb 3d 40 33 d4 3d f4 d3 f0 3c ef 15 5b bd
       0.09150063 0.10361338 0.029397942 -0.053487714
000010 11 89 81 3e f7 01 f1 3d 8c f5 99 be 7e ae ec 3c
       0.25299886 0.11767953 -0.3007015 0.028891798
000020 d8 0b 59 3d 0e 61 54 bd 7d 39 49 3e 62 7a 85 be
       0.05298981 -0.05185037 0.19650836 -0.26069933
000030 3f c1 b1 be ed b1 81 3d 6b 66 a6 bd 27 a5 90 be
       -0.34717748 0.06332765 -0.081250034 -0.28251
000040 23 63 c5 3d d5 bf f6 bd 7a e0 46 bc 78 3d 6a bd
       0.096380495 -0.12048308 -0.01213848 -0.057187527
000050 2a 2b c6 bd eb ee 77 3e 5b f7 75 3e 47 fd 88 3e
       -0.09676202 0.24212234 0.2402014 0.26755735
000060 c3 c8 88 3d 79 4f 04 3e 76 f1 fe bd b3 1f 39 bd
       0.06678917 0.12920941 -0.12448399 -0.045196246
000070 05 3f 9e bc b2 a9 d6 be 6c 6b 8d 3b c3 ad 12 3d
       -0.01931716 -0.41926342 0.004315784 0.035810243
000080 8d 26 3d 3d 79 47 15 be 1f c7 9a bc 8b eb 3a 3e
       0.046179343 -0.14578046 -0.018893776 0.18253915
000090 d2 86 2a 3e c2 c8 77 be c0 c6 41 bd a8 92 2c 3d
       0.16652992 -0.24197677 -0.047308683 0.04213205
0000a0 27 d3 32 be 4e 5f 6a bd 85 39 63 3e ef 88 8e 3e
       -0.1746336 -0.057219796 0.2218991 0.27838847
0000b0 dc 67 75 3d f5 e2 77 3d 86 93 f3 3b 5a e8 f3 bc
       0.0599135 0.060519177 0.0074333576 -0.02977388
0000c0 de 5c df bd b6 70 16 3d e3 76 7f 3d c1 54 e5 3d
       -0.10906385 0.036728583 0.06236924 0.11197806
0000d0 7a d1 28 3e 5e 8f d3 3c 77 29 89 3d 82 0f 80 3c
       0.16486159 0.025825199 0.06697362 0.015632395
0000e0 9f 28 83 3d 8d c5 2a 3d ec 04 50 be 1b cf 4a 3d
       0.06404232 0.041692305 -0.20314378 0.049513917
0000f0 3d a2 51 bd ff 26 dd 3d 63 b4 28 3d 86 09 58 bd
       -0.051180113 0.107984535 0.041187655 -0.052743457
000100 d9 63 23 be d3 49 8a 3d 58 0f 6a bd 4f f6 6b bd
       -0.15956058 0.06752362 -0.05714354 -0.057607945
000110 cb ab 61 3e 67 79 86 be ba 6e c7 3e 65 91 94 bd
       0.2203819 -0.26264498 0.38951665 -0.07254294
000120 27 8b ae be 30 1b c7 3d 9d 52 18 3e a7 81 ba bd
       -0.3409054 0.097219825 0.14875264 -0.091067605
000130 75 3b 91 bd f4 13 fc bd 0b 2d 39 be c0 9c 2c bd
       -0.07091419 -0.12308493 -0.18083589 -0.042141676
000140 7d 95 6f be 56 83 1a bc 36 73 9d 3c 1d 0d 77 bd
       -0.23396869 -0.009430727 0.019219976 -0.06031524
000150 69 89 33 be d7 ae c5 3d ca 05 9f be 23 eb aa bc
       -0.17532887 0.09652489 -0.31059104 -0.020864075
000160 00 3c 9b 3d 9a b1 34 3e fb ff 96 3d af fc 82 3d
       0.075798035 0.17645875 0.07373043 0.06395852
000170 d8 b0 e0 3d 58 88 b6 3d c0 46 91 3e 03 49 dc bc
       0.1097123 0.08912724 0.2837429 -0.026890283
000180 85 74 e3 bd d6 f4 7e be a1 26 55 be a0 1e 23 3e
       -0.11106209 -0.24898085 -0.20815517 0.15929651
000190 4f ba 50 3e 7f 31 79 bd 97 db 91 bd aa 9d 03 be
       0.20383571 -0.06083822 -0.071219616 -0.12853113
0001a0 ac 00 11 bd ce 7e 0c 3c 3f ba 2c be c8 ea bc bd
       -0.03540103 0.0085751545 -0.16867922 -0.092244685
0001b0 93 25 f8 bd 00 9c 74 bd b1 6f 4d 3d e8 52 18 bd
       -0.12116542 -0.059719086 0.050155345 -0.03718844
0001c0 71 f3 6b 3e da cc 29 3e 8a 9d 5c 3d ad 05 77 3d
       0.23042084 0.16582051 0.05386118 0.060308147
0001d0 be 51 98 be 77 e7 66 3e 77 1a 1a 3e 2c bf c4 3e
       -0.29749864 0.22549234 0.15049158 0.38427103
0001e0 86 dc 73 be ec b0 c6 3e 8e 73 08 be 36 a5 6e 3b
       -0.23814592 0.38806856 -0.1332533 0.0036414391
0001f0 bc 97 3a 3d d3 5e 66 bd 66 b7 5b bd 32 66 c4 3d
       0.04555486 -0.056242775 -0.0536417 0.09589805
000200 46 75 3f 3e 76 2e 0a bd ee 9c 53 3e 81 cb f2 3d
       0.1869708 -0.033735715 0.20665333 0.118552215
000210 06 b8 eb bd 58 0e b8 3d 07 0a ba bd 75 21 13 3e
       -0.11509709 0.08987111 -0.09083944 0.14368232
000220 69 c4 1c be 26 f1 18 3d 8d 34 cb bd 13 f7 27 bd
       -0.153093 0.037339352 -0.09922133 -0.041007113
000230 0e 3f 5d bc 1a 7c df 3c 5c 6a ca bd e3 09 d7 bd
       -0.013503803 0.027280856 -0.09883568 -0.104999326
000240 86 1b be bc 9f d6 ed 3d a8 5a 85 bb 9e 6b 2e 3e
       -0.023206484 0.11613201 -0.004069645 0.1703324
000250 be 79 a5 bd 5f 20 09 bc 28 02 41 3e 13 69 c1 3c
       -0.08079861 -0.008369534 0.18848479 0.023609674
000260 d6 d3 bc 3b 29 4f 89 bd 77 45 b5 be a9 e2 0e 3e
       0.0057625575 -0.06704552 -0.3540456 0.13953651
000270 48 b3 87 be ea 6b 41 3d 7d 0e 18 bd d1 fa 60 3e
       -0.26503968 0.047222055 -0.037123192 0.21970679
000280 c5 aa b0 be 5c bc bd bc 9f db 07 3d 21 99 2a 3e
       -0.34505287 -0.023161106 0.03316843 0.16659977
000290 78 86 d9 3c 7c dd 06 3d 48 66 7e 3d 4d 1b 97 bd
       0.026553378 0.032926068 0.06210926 -0.07378254
0002a0 56 9d 91 3d df ba 40 3e e7 4e 1a be b3 de ea 3c
       0.071100876 0.18821286 -0.15069161 0.028670644
0002b0 a2 de f6 3d d7 b1 8e 3d 54 a9 5d 3d f6 72 08 be
       0.120541826 0.06967514 0.054116562 -0.13325104
0002c0 de 02 75 be 9d 33 40 be 20 6a 30 3e c5 ff 28 3d
       -0.23926875 -0.18769689 0.17227983 0.041259546
0002d0 bb 70 da 3d 3b 75 0a bd c9 be 93 3d fd 5c 07 be
       0.10666033 -0.033803206 0.07214124 -0.13219066
0002e0 32 52 79 3e 71 42 cc bd b0 e7 9a 3d 33 c5 42 be
       0.24347761 -0.0997361 0.07563722 -0.19020538
0002f0 a8 bd 86 3e 48 2c 05 bf f9 46 f0 bd e8 5f 17 be
       0.2631657 -0.5202069 -0.11732287 -0.14782679
000300 fb 9a 95 be 5c a6 db 3c 37 a9 33 3d ad 2e 35 be
       -0.29219803 0.026812725 0.043862548 -0.17693587
000310 3c f1 44 3d a8 ee 8e 3d b7 1b 3c 3e 54 f4 a9 bd
       0.04808162 0.06979114 0.18369947 -0.08298555
000320 47 fc c5 bd b8 7c bc bb 70 89 de bb a1 4b 33 3e
       -0.09667259 -0.0057521723 -0.006791286 0.17509319
000330 ad 45 81 be bf fb b3 3c 0e 2b c8 bd 71 fb a4 bd
       -0.2524847 0.021970628 -0.09773837 -0.08055771
000340 58 7e f1 bb a6 30 9b 3e 05 6a d1 3d ea 53 31 be
       -0.0073697977 0.30310553 0.102253 -0.17317167
000350 81 d9 86 3e 9c ed 46 3e 87 80 23 3e c2 ed e9 bc
       0.26337817 0.19426578 0.15966998 -0.028555755
000360 91 c2 df bd 5a d4 68 3d 9c b8 1e 3d d8 18 35 3e
       -0.109257825 0.05684314 0.038750276 0.17685258
000370 82 96 db 3e d1 24 92 bc b3 f2 0f be d1 70 80 bb
       0.42888266 -0.017839821 -0.14057426 -0.0039196988
000380 83 e1 81 bd c4 3d 2c bd 6b 8d f6 3d 65 9a 86 3d
       -0.06341841 -0.04205109 0.12038692 0.06572417
000390 94 ba 8d bd 75 09 97 3d 93 2c e9 3d e9 a1 57 be
       -0.069203526 0.07374851 0.11385455 -0.21057858
0003a0 5b ea 5e 3e 7e b8 37 3e ac 50 f6 3d c2 4d a0 3e
       0.21769087 0.17941472 0.12027106 0.31309325
0003b0 47 26 40 3e ed 79 20 be 32 a3 bf 3d f2 07 07 bd
       0.18764602 -0.15671511 0.09357299 -0.03296656
0003c0 66 5c 1f be 21 e6 19 ba 02 fb 1e be 72 e1 a6 3d
       -0.15562591 -0.00058707787 -0.1552544 0.08148469
0003d0 3e 19 86 3e da ad 08 be d2 95 5f 3e e0 31 05 bc
       0.26191133 -0.13347569 0.21834496 -0.008129567
0003e0 f4 9f c1 3e 28 21 98 be 8e b8 82 3e c9 90 ca 3b
       0.37817347 -0.29712796 0.2553143 0.0061818105
0003f0 32 b6 40 bd 0c 08 44 bc f2 57 08 3e b3 24 6e 3e
       -0.047048755 -0.011964809 0.13314798 0.23256187

bias f4 [128]
000000 b7 da 1d be 26 8c 33 be 56 92 b8 be 16 9a 45 be
       -0.15415464 -0.17533931 -0.36049145 -0.1929706
000010 fe 86 d8 bd f3 c7 a8 be 4b c9 da bd 13 13 83 be
       -0.10572623 -0.3296505 -0.10682925 -0.2560049
000020 28 20 b1 bd f3 ed cf 3c 48 8f a8 be e3 8f ff bd
       -0.086487114 0.025382018 -0.32921815 -0.12478616
000030 f2 ba 12 be 08 08 14 bd 9e 60 62 be d5 a5 15 3b
       -0.14329126 -0.03614047 -0.22107169 0.002283444
000040 56 70 74 be e1 e0 11 3c 96 da bc bc 7f c9 9b bd
       -0.23870978 0.008903713 -0.023053449 -0.07606792
000050 da 9e a5 be 32 76 02 be 2b 42 80 be 66 cf 55 be
       -0.32347757 -0.127404 -0.25050482 -0.20879897
000060 f9 5e 65 be 71 12 1a be 76 cb c5 bd af c2 29 be
       -0.2239951 -0.15046097 -0.09657948 -0.16578172
000070 06 ff 95 be 6f 7f 16 be 49 3e d8 bd 1c f3 46 be
       -0.2929613 -0.1469705 -0.10558755 -0.19428676
000080 78 9c c8 bb 34 70 0e 3d ed 6f a8 bd 7d 25 c4 3c
       -0.006122168 0.034774974 -0.08224473 0.023943657
000090 7c 28 d7 bd 2a 74 99 ba 5b ba 19 3d 92 48 ad bd
       -0.10505769 -0.0011707593 0.037531238 -0.08461107
0000a0 52 67 0e be 48 84 08 be 27 c6 76 be e6 24 77 bd
       -0.13906601 -0.13331711 -0.24099027 -0.060337923
0000b0 41 af 4d bd 53 5f a8 3c 0d fe 93 be c1 a0 69 bd
       -0.050215963 0.020553267 -0.28904763 -0.057038072
0000c0 bf 39 e4 bb 37 79 42 bd ce 2f 6b 3d 67 b8 85 3b
       -0.0069648917 -0.04747888 0.057418637 0.0040808204
0000d0 5d 3b 3b 3d a0 36 9f bd 72 1c 3a be 0c 7f a5 bd
       0.04571091 -0.07774091 -0.18174914 -0.08080873
0000e0 15 b1 fb bd 4a 6e 38 bc a2 f2 da bd 8f 4c 98 be
       -0.12289635 -0.011256764 -0.1069081 -0.2974591
0000f0 26 6a 50 bd a5 8a aa be a0 62 fe bc 73 18 77 be
       -0.05088248 -0.33308902 -0.031052887 -0.2413042
000100 a9 0b 25 be 68 43 2b be 34 9a 95 be 6b 92 07 be
       -0.16117729 -0.16724932 -0.2921921 -0.13239448
000110 1f 47 06 be 22 04 b6 bd 88 5c 81 be 29 2d 9f bc
       -0.13113068 -0.08887507 -0.25265908 -0.019430714
000120 e4 ca 3e 3d b1 b7 c7 bd 7b a5 b8 bd 6a 0d ee bd
       0.04658021 -0.09751833 -0.09015938 -0.11623652
000130 1a 15 a2 bd d5 ae a7 be 80 d9 09 be f7 a4 1a be
       -0.07914181 -0.32750574 -0.13461876 -0.15101992
000140 e1 29 bd be 3f 8a 43 bd dd e6 51 be 0e 33 c1 bd
       -0.36946014 -0.047739264 -0.20498224 -0.09433566
000150 08 c5 81 bd d3 a7 b8 be ac cc 24 be 6a a6 e0 3c
       -0.06336409 -0.3606554 -0.16093701 0.027423102
000160 66 cc 58 bd 50 da d8 bd b8 7e 45 be 09 b6 cd bd
       -0.052929305 -0.10588515 -0.1928662 -0.10044486
000170 c4 23 32 be b5 93 ac be 62 9f 14 be f7 cf 12 bd
       -0.17396456 -0.33706442 -0.14513925 -0.035842862
000180 74 f0 cf bd 13 be 0a be f9 0e b0 bd af 60 56 be
       -0.10153285 -0.1354907 -0.08596606 -0.2093532
000190 d3 0d 87 be a3 40 71 be b0 f1 b3 bd ac 73 eb bd
       -0.26377735 -0.23559813 -0.087863326 -0.11496672
0001a0 f7 2a ac 3c 00 d5 b1 3d 47 a0 37 be f2 03 cc bc
       0.021016581 0.08683205 -0.17932235 -0.024904225
0001b0 6c 17 50 bd fd 85 a7 be d7 27 71 bd c1 99 4f be
       -0.050803587 -0.32719412 -0.058875885 -0.20273496
0001c0 96 ce 4f be d7 be ac bc d4 0f 8c bd cb f9 79 bd
       -0.2029365 -0.021087093 -0.068389565 -0.061029237
0001d0 52 24 d4 bd 2a 82 b5 bd d9 82 b1 bd 60 08 f3 be
       -0.1035849 -0.088627174 -0.08667535 -0.47467327
0001e0 84 62 8d bd be 35 fd bd 8c 17 84 bd 81 33 73 be
       -0.06903556 -0.12363766 -0.06449804 -0.23750116
0001f0 22 70 14 be 62 ce fe bc 76 87 ee bd c5 87 b1 bd
       -0.144959 -0.03110427 -0.11646931 -0.08668474

weight f4 [6, 128]
000000 60 a5 10 3c b0 fe 35 bc 48 fc 1f 3c 8d 04 28 bd
       0.008828491 -0.0111080855 0.009764738 -0.041019965
000010 48 c3 2b bd cd 4c bb 3d 54 a7 88 3d 26 65 73 bc
       -0.04193428 0.09145508 0.0667254 -0.014855659
000020 80 ae 2c be c4 3d 46 bb 4a f4 84 bd 1e 31 c4 3c
       -0.16863441 -0.0030249218 -0.06491907 0.023949202
000030 8a 87 24 3c 49 06 4f 3d e2 62 c1 bd e0 71 35 3c
       0.010042081 0.050543103 -0.094426885 0.011074513
000040 7d 23 84 3d d8 fd c2 3c 64 27 7b 3d e7 00 79 3c
       0.06452081 0.023802683 0.061316863 0.015197969
000050 d3 45 44 3d 0e de 95 3d 4e 74 93 3c 48 e9 7c 3d
       0.047918152 0.07317744 0.017999794 0.06174591
000060 53 41 2b 3d 99 48 de bd b9 71 30 3c a7 2c 0c 3b
       0.041810345 -0.10853691 0.010769301 0.002138892
000070 65 0c 75 3d 80 75 92 3c c3 32 88 3d 3f 89 8c bc
       0.059826273 0.017878294 0.06650307 -0.017155288
000080 81 bb c9 bc c9 cc b2 bd 5e 1a ce 3d 1d 9f 87 bb
       -0.024625542 -0.08730466 0.10063623 -0.004138841
000090 8e ed 04 bd 57 4d 02 bc 32 79 fc bc d0 91 96 bd
       -0.032453112 -0.00795301 -0.03081951 -0.0735203
0000a0 43 bd 25 3d 49 05 54 bd 0a 24 d9 bd 76 9a 08 3d
       0.040463697 -0.051762853 -0.10602577 0.03335043
0000b0 4b 9d ed 3c 12 11 33 3b ca 7e 73 bc 20 88 d4 bc
       0.029005667 0.0027323407 -0.014861772 -0.025943816
0000c0 73 56 5b bd 87 d9 18 3d 28 a4 de 3c 28 ab ec bd
       -0.05354924 0.037316825 0.027177885 -0.11556083
0000d0 66 94 fc bb d0 02 e1 bc 54 5f c5 bc 38 f2 94 3c
       -0.00770812 -0.027467161 -0.024093308 0.018181905
0000e0 73 55 85 3c 3a 6b 32 bc 58 fd d2 3c ad 1d 3e bd
       0.016276097 -0.010889823 0.02575557 -0.04641502
0000f0 ee 32 b3 3c c0 91 db 3c 64 64 fc 3c 07 66 f0 bd
       0.021874871 0.026802897 0.030809589 -0.1173821
000100 37 5c 4a bd 20 c9 3c 3e 4f 6f 3a bd 81 86 89 3c
       -0.04940435 0.18436098 -0.04551631 0.01678777
000110 71 a5 a5 bc 05 38 0b bd f5 3d de 3c 90 f2 a0 3c
       -0.02022049 -0.03398897 0.027129153 0.019646913
000120 57 e7 1a 3d 9b 03 e9 3d 6f dc 96 bd 03 52 da b8
       0.03781828 0.11377641 -0.07366263 -0.00010410326
000130 a2 63 d2 3c f7 26 91 bb ee f8 54 3a 24 e0 93 3d
       0.025682274 -0.004429694 0.00081242516 0.07220486
000140 ed 1a 2f be f9 e6 44 ba e3 d0 88 3d b8 5a 83 3d
       -0.17100115 -0.0007511224 0.06680467 0.064137876
000150 17 2b 41 bd e0 cd a1 3c f4 d5 20 3d 8d dc ae 3c
       -0.047160234 0.01975149 0.03926654 0.021345401
000160 78 7f 8a bd ed f6 17 3c 82 26 01 bd 0d 4a a5 bc
       -0.06762594 0.00927518 -0.031530865 -0.020176912
000170 de 60 3a bd 55 34 5e 3c 04 8e c8 3d 37 1b 59 3c
       -0.045502536 0.013562282 0.09792712 0.013251117
000180 53 dc 9a bd 2e 2c a0 3d eb ff a6 bc de 51 66 bc
       -0.07561555 0.078209266 -0.020385703 -0.014057605
000190 0e e2 b1 3d b5 f8 05 3e 3f 65 70 3d 02 4b 05 bd
       0.08685695 0.13083155 0.058690306 -0.032542236
0001a0 36 a5 bc 3d 84 fd db bd 85 9a e3 ba b5 50 90 bd
       0.09211199 -0.10741714 -0.0017364776 -0.07046644
0001b0 3e 98 89 3b 9f a1 94 bc 63 a7 89 bd 99 1c 47 bd
       0.004199057 -0.018143473 -0.067213796 -0.048611257
0001c0 e4 fb a4 3d 2a 7e 6a bc 97 11 9a 3d ea 8c 62 bd
       0.08055857 -0.014312306 0.07522886 -0.055310167
0001d0 df 5a f9 bd 21 fd 71 bc 44 fb 84 bd 51 1b 32 bd
       -0.121755354 -0.014769823 -0.064932376 -0.043483082
0001e0 5c 1d f3 3c 5e a4 bc 3d 4c 6d 3e 3e b1 f9 7a bd
       0.029677086 0.09211038 0.18596381 -0.06127328
0001f0 d9 ee e1 bd 40 78 dc bc db 70 af bd b0 17 86 3d
       -0.11031885 -0.026912808 -0.08566447 0.06547487
000200 da bd c9 3c 77 74 3d bd 04 3b 64 3d e8 40 ae bd
       0.024626661 -0.046253648 0.055720344 -0.08508474
000210 7c 52 cd 3d 6e ac 8a bd 8a 8f e4 bb 13 27 1b bc
       0.10025498 -0.067711696 -0.006975119 -0.009469765
000220 15 97 5e 3b 90 21 a1 3b 96 8a 7a 3d 32 3c 82 bb
       0.0033964564 0.004917331 0.061167322 -0.003974461
000230 7b 83 12 3d 7e 86 3c 3d 31 43 90 3c bd 25 9b 3c
       0.03576992 0.0460267 0.017610164 0.018938893
000240 2a d0 b5 3c f1 33 b7 3d 75 f7 9b 3d 3f bd 2a bd
       0.022193987 0.08945454 0.07615558 -0.041684385
000250 0f 8f ba 3d d4 0e 12 3d 8d a2 ef bc ad 0f b3 3d
       0.091093175 0.035658672 -0.029252315 0.08743224
000260 e2 8d 9d bd 78 d0 17 bd f9 95 0c bd 7b 1e 54 3d
       -0.076930776 -0.037064046 -0.034322713 0.05178688
000270 06 4a 8f 3c 13 4a 93 3c 22 3f 9f bd 23 f5 55 bc
       0.017491352 0.017979657 -0.077757135 -0.013058933
000280 6f db b2 3c 09 c9 0e 3d c8 29 86 3c a5 93 12 3c
       0.02183315 0.03485969 0.016377345 0.008946334
000290 67 d1 68 bc d2 a1 51 3d 47 f2 3e bd 62 cf 2b bd
       -0.014210082 0.051179715 -0.046617772 -0.041945823
0002a0 df 3d 0f 3b 96 20 84 3b 14 41 b5 bc eb e9 a9 bc
       0.0021856946 0.004032205 -0.022125758 -0.020741424
0002b0 35 92 46 bd 7d a1 31 bd aa 50 80 3c fd 4c 39 3d
       -0.048479278 -0.043366898 0.015663464 0.045239437
0002c0 88 2b c4 bd 85 4f 24 bd 63 f7 5f 3c 7b a5 1a 3e
       -0.095786154 -0.0401149 0.013669821 0.15102188
0002d0 40 98 20 3c ad 23 51 bb 31 45 37 3d fc 22 a9 3b
       0.009801924 -0.0031912134 0.04474372 0.005161641
0002e0 12 bd 05 bd aa eb 4b 3d f7 0b 57 3d 03 5f 02 3c
       -0.032651015 0.049785294 0.052501645 0.007957223
0002f0 38 b6 c0 3d 0f 38 0b bd 0d 8a 81 3d d5 b9 49 bc
       0.094097555 -0.03398901 0.06325159 -0.012312372
000300 9f 41 cd bd 16 23 c4 bc cb aa cc 3d f8 df 03 be
       -0.10022282 -0.023942512 0.09993514 -0.12878406
000310 2d a6 79 bd 4a fa d4 3c 4d 50 9c 3d d6 0f 90 3d
       -0.060949493 0.025998253 0.07632504 0.070342705
000320 f3 2e ee 3c b9 c6 37 bd fe 5b d2 3d c9 a3 e8 3c
       0.029075122 -0.04486725 0.10271452 0.028398411
000330 a8 67 e5 bd 50 72 84 bd 87 00 a3 bd 00 0b e4 bd
       -0.112014115 -0.06467116 -0.07959085 -0.111349106
000340 df 64 b6 3c e5 1f 0b 3d b5 d0 ae bb 1a 4b 64 3c
       0.022264896 0.033965964 -0.0053349384 0.013933921
000350 71 89 89 3d 15 56 47 bd 0b 20 d4 bc 80 f9 9c 3d
       0.06715668 -0.04866608 -0.025894186 0.07664776
000360 94 31 87 bd fe 69 86 3c f7 81 95 3d 29 19 b1 3d
       -0.06601253 0.016407963 0.073001795 0.08647377
000370 df b7 2d be aa 83 5d 3d ff b3 99 bd 98 80 42 3c
       -0.16964673 0.054080643 -0.07505035 0.011871479
000380 ed e3 bf 3b 5a de 8e 3d 69 bd 46 3c 5d 88 11 bd
       0.0058560283 0.06976004 0.01213012 -0.035530437
000390 da d2 47 bd 23 3c 17 3d a3 ce 59 3b b1 90 80 3c
       -0.048785068 0.036922585 0.0033234737 0.015693994
0003a0 af 18 b9 3c ee d7 6f bd 6c 89 36 bc 2a 87 8a 3c
       0.022594778 -0.058555536 -0.011141162 0.016910154
0003b0 8b 03 b4 bc a7 1f 90 3d 13 fa 86 bd 25 51 05 3c
       -0.021974346 0.07037287 -0.065906666 0.008137022
0003c0 16 c4 7b 3d aa ef 86 bd 9f d9 09 39 dd ac 30 3c
       0.0614663 -0.06588681 0.00013146408 0.010783401
0003d0 cf 68 dd 3c 2a d7 f9 3d 2b 1e a2 bd b6 52 8a bd
       0.027027516 0.121992424 -0.0791591 -0.06754057
0003e0 e6 3b 4b 3c 84 76 d4 bc bd a0 17 3d e3 50 8c bd
       0.012404418 -0.025935419 0.037018526 -0.068513654
0003f0 48 ea 21 bd cf 5b 9a bb db 96 94 3d 6e 0a 2f 3d
       -0.03953007 -0.0047106515 0.07255336 0.042734556

bias f4 [6]
000000 ac f7 aa 3d 2c f9 48 bd 5e 06 a5 bd 80 7f 2e be
       0.08348021 -0.049065754 -0.08057855 -0.17040825
000010 05 97 3e bd f1 e1 da bd
       -0.046530742 -0.10687626
