logs/pointfoot_flat/PF_TRON1A/exported/policies/policy.onnx (onnx, 758898 bytes, 8 tensors)

0.bias f4 [512]
000000 06 a4 db bd 96 8e ae bd 87 2c 61 bd 99 eb bb 3d
       -0.10724644 -0.0852329 -0.054974105 0.09175796
000010 c4 96 ae bd fe 51 44 be cd c6 b1 3d d6 1c 4e bc
       -0.0852485 -0.19171903 0.08680496 -0.012580117
000020 1a c5 61 3e 4e 95 6f be ba 1c 23 be 1d 9d 6b be
       0.22047845 -0.23396799 -0.15928927 -0.23009153
000030 fe 88 f1 bc 48 4e 20 bc 6c 43 f7 bd d9 e8 74 bd
       -0.029484268 -0.009784289 -0.120734066 -0.059792373
000040 a0 c2 36 3d e8 1c 49 be b1 7f 2e 3e 44 25 10 be
       0.044619203 -0.19639933 0.17040898 -0.14076716
000050 b1 be 34 be 10 05 04 bf 83 b2 5a 3d 73 90 41 be
       -0.17650868 -0.51570225 0.0533929 -0.18902759
000060 bb 0f 4c 3d c2 11 69 3e b6 a8 e4 3d b6 42 01 bd
       0.04981969 0.2276068 0.111649916 -0.03155776
000070 65 2f 3a bb 59 8f b5 3d 16 b4 a8 3d d3 be 47 bd
       -0.0028409597 0.08865232 0.08237474 -0.04876597
000080 bb 31 10 be 82 ce 21 3e 90 99 83 3e 36 a6 50 3e
       -0.1408147 0.15801433 0.25703096 0.20375904
000090 b9 9d 93 3d b3 54 8e 3e 9b fe 47 be a6 70 ca bd
       0.072078176 0.27798995 -0.19530718 -0.09884767
0000a0 5a aa c1 bd 72 a0 0d bd 6a cd 0b be cd a9 d2 3c
       -0.0945632 -0.03457684 -0.13652578 0.025715733
0000b0 3d e8 84 3e bf f4 59 3d 52 2b 65 3e b9 7e f0 bd
       0.25958434 0.053211924 0.22379807 -0.117429204
0000c0 20 74 4c 3d d2 19 a9 bd f1 6b a3 3c 02 4a 5d 3e
       0.049915433 -0.08256878 0.019948931 0.21610263
0000d0 44 ca 8e bd 65 cc 88 be 94 c9 26 3d 18 e0 ba 3e
       -0.06972173 -0.2671844 0.040719584 0.36499095
0000e0 3f 4f 0d bd 4e 97 80 be b8 87 da bd 27 eb 0b bd
       -0.034499403 -0.25115436 -0.106704175 -0.034159806
0000f0 05 9a 0a 3d 44 7d 5a bc 66 2f dc be c8 83 86 bd
       0.03383829 -0.01333553 -0.43004912 -0.06568104
000100 0b 92 bb 3c b5 20 52 bc 6b 8e c3 bb 59 74 fe 3d
       0.022896787 -0.012825181 -0.0059679053 0.12424535
000110 98 8c 2f be 82 9f 08 3e 80 09 0e be 8d c4 74 be
       -0.17143476 0.13342097 -0.13870811 -0.23903103
000120 58 58 60 bd 8b ee d6 bd 97 3a 02 bd a6 fc f6 3c
       -0.05477175 -0.10494717 -0.031794157 0.030149769
000130 c1 b3 4a be 78 b1 ac 3c f5 05 4c 3e 64 10 ce bd
       -0.19795133 0.021080717 0.19924147 -0.1006172
000140 b3 a1 4e 3b 1d 30 95 bd 9b 33 55 be a4 f6 ba 3d
       0.0031529486 -0.072845675 -0.20820467 0.09129074
000150 56 86 0a 3d 3f f0 00 be d7 02 c8 3d 2e 3c 5e be
       0.03381952 -0.12591647 0.09766167 -0.21702644
000160 8e d3 a6 bd 55 f7 d7 bd df 4b a5 bc 53 88 28 3e
       -0.081458196 -0.10545222 -0.02017778 0.16458254
000170 ba 9e 03 3c 89 c1 05 3e 1b bd 51 be 15 da 7f be
       0.008033449 0.13062109 -0.20482294 -0.24985535
000180 46 fe 04 bd 70 04 93 bd de 4d 63 bd b7 86 15 be
       -0.032469057 -0.07178581 -0.05549418 -0.14602171
000190 49 6c 12 be f8 0a 5b bd 12 09 4f be 69 81 9f bd
       -0.1429912 -0.053477257 -0.20218304 -0.07788355
0001a0 d0 da 13 be 01 ae 1c 3e 4c 29 39 bd e5 66 6b 3d
       -0.14438939 0.15300752 -0.0452054 0.057471175
0001b0 ff a0 06 be 1a 37 18 be 8c c6 4d be 79 14 3d be
       -0.13147353 -0.1486477 -0.20095271 -0.18464841
0001c0 12 cc 1d be f9 07 8f bd ec 14 4e be f0 77 81 3e
       -0.15409878 -0.069839425 -0.20125169 0.25286818
0001d0 79 ac fa 3d 29 f8 25 3c 2a 67 5a be c9 60 6c 3c
       0.12239928 0.010129967 -0.21328416 0.014427372
0001e0 ea af d7 3d ce 13 db 3d 89 fa 44 3e d8 80 69 bd
       0.105316 0.10697137 0.19236197 -0.05700764
0001f0 a8 78 64 be 9f 6a c4 3d eb c7 00 bd 68 bb 99 3d
       -0.22311652 0.09590649 -0.031440657 0.07506448
000200 3b d5 f4 bb b0 ad b2 be 66 c3 01 be ae 9c 08 3d
       -0.007471708 -0.34898138 -0.12672195 0.033352546
000210 40 b7 88 be a9 23 78 be 67 89 d8 bd 8f a0 88 3e
       -0.2670231 -0.24232353 -0.105730824 0.26684996
000220 a2 4e d7 3d 7e ef 00 bc e6 68 bc 3c 6d 26 ca bd
       0.10513045 -0.007869599 0.022999238 -0.098706104
000230 15 71 0b be 69 84 26 3e 97 25 97 bc f3 4c dc bd
       -0.13617356 0.16261448 -0.018450541 -0.107568644
000240 ff 93 38 be a1 c8 c1 3d 8e cf 9a bd 80 61 57 3d
       -0.18025206 0.09462095 -0.07559119 0.052583218
000250 af 18 8e 3c 36 77 93 3d 6a 7b 8c 3e b7 e0 ee 3c
       0.017345754 0.07200472 0.27437907 0.029159887
000260 97 50 b2 bc 29 a1 d3 3d 31 82 4d 3e 10 38 db 3d
       -0.021766944 0.10333473 0.20069195 0.107040524
000270 de 02 9f be a4 91 b7 bd 82 0c d1 bd 34 84 56 bd
       -0.31056875 -0.089633256 -0.10207464 -0.052372172
000280 35 31 e6 bd 78 5a 5e be 47 4d 04 bd c1 73 ae bb
       -0.11239854 -0.21714199 -0.03230026 -0.0053238575
000290 c1 45 ca bb 3e ce 82 be 6b 08 94 bd 84 03 ef bb
       -0.006172866 -0.25547975 -0.07228168 -0.0072941203
0002a0 bd ad ae bd 89 ae 73 bd 4c dd 06 be 04 b2 1e bc
       -0.08529232 -0.05949262 -0.13170356 -0.009685997
0002b0 32 aa 0a 3e a2 b4 d4 bd d0 5d ec bc f1 8c b3 3d
       0.13541487 -0.103860155 -0.028853327 0.08767117
0002c0 9b 02 3a bd 9c cd 33 bd f6 a8 6d 3e 17 1c f8 bd
       -0.04541264 -0.043897256 0.23208985 -0.12114733
0002d0 de d7 d9 3c ab 35 fe 3c 77 fb 84 3e 7a 19 c8 3d
       0.026592191 0.03103145 0.25973102 0.09770484
0002e0 6b ab 3b be b4 a4 f4 bd 44 4c b6 bd 95 15 b2 bd
       -0.1832711 -0.11945477 -0.08901265 -0.08695523
0002f0 6e c6 aa 3d d1 80 21 be 30 c4 8a bd c4 7d ab 3d
       0.08338629 -0.15771796 -0.06775701 0.08373597
000300 5b 4d de bd 1e 43 87 bc 8a 55 eb bd 81 c6 0d 3e
       -0.10854598 -0.016511496 -0.11490925 0.13845254
000310 95 a4 b9 3c fa 5d 55 bb 4e 42 08 bd b5 0a 0c be
       0.022661487 -0.0032557235 -0.033266358 -0.1367596
000320 d0 84 b7 bd 32 e8 bc 3e 6d 63 15 3e 9b 4b 1c be
       -0.08960879 0.368959 0.14588709 -0.15263216
000330 95 2a 74 be 52 d1 a6 bd 3a e3 07 3e d3 88 00 3d
       -0.23844369 -0.081453934 0.13270274 0.031380486
000340 8e 84 2c be 06 9c 00 3e f0 ef ba be b5 71 22 be
       -0.1684744 0.12559518 -0.36511183 -0.15863688
000350 83 e1 e1 bd 0d d8 9e be 58 65 30 3a c0 81 37 be
       -0.11029341 -0.3102421 0.00067289686 -0.1792059
000360 9b 9a 34 3e 70 bc 22 3e c6 f0 d4 bb 96 2c 81 bd
       0.17637102 0.15892196 -0.006498429 -0.06307332
000370 d5 75 62 be 1a b9 2c 3c 26 4b a3 3d fe 7a 62 be
       -0.22115262 0.0105421785 0.07973318 -0.2211723
000380 6e a4 87 3d cf 5a 79 3d e0 e9 d5 3d 8d fd ca 3b
       0.06623159 0.060877617 0.10444999 0.0061947764
000390 56 45 30 be a2 cb 36 bf 0f d8 0d be 41 3b 26 3e
       -0.1721395 -0.7140447 -0.13851951 0.16233541
0003a0 89 9b d9 bd 7c 14 8f 3c cd d6 15 be 0e 37 10 3d
       -0.10625369 0.017465822 -0.14632721 0.035208754
0003b0 5d 7e a2 bd a7 21 21 3e f6 eb 8f 3d 55 1f 62 3d
       -0.07934258 0.15735494 0.07027428 0.05520566
0003c0 e9 b3 f6 ba ce 6a ff bd c1 dd 3a bd b4 82 72 3e
       -0.0018821928 -0.12471543 -0.045621637 0.23682672
0003d0 50 62 b9 3d fc 9b 81 bd b4 e6 d1 3d 1b 54 8e bd
       0.09051955 -0.0632858 0.10249081 -0.069496356
0003e0 fa 00 95 bc 77 f6 4e 3d cc 11 80 be 15 91 bc bd
       -0.018188942 0.050528016 -0.25013578 -0.0920736
0003f0 71 a1 c7 3d 3a d7 b2 be af cc a8 bd e6 d1 53 bd
       0.097475894 -0.3492983 -0.08242165 -0.051713847

2.bias f4 [256]
000000 2b 86 71 be 03 69 08 bd 82 3f fb bd f0 81 b3 be
       -0.23586337 -0.033303272 -0.122679725 -0.35060072
000010 b6 1a 53 be 1e ca 58 bd 11 b3 87 3d 19 f6 5e bd
       -0.20615658 -0.05292713 0.06625951 -0.054433916
000020 18 5c 8b be 4c 0a ed bd 18 14 73 3d d5 6a 49 3b
       -0.272187 -0.115742296 0.059345335 0.0030733843
000030 84 eb 00 3d 96 c7 15 be 29 6d 23 3d 0e 85 88 bd
       0.031474605 -0.14626917 0.039899025 -0.06666003
000040 ba 08 b6 bd 73 8e a9 bd 45 b8 5a 3c ad 03 b6 be
       -0.08888383 -0.08279123 0.013349597 -0.3554968
000050 1a 3c 02 be 77 d8 e2 bd 7c 0e f5 bd 4e 28 bc bd
       -0.1271824 -0.11076444 -0.11965653 -0.09187375
000060 e8 54 31 be 17 44 a6 be 5d 3c 09 be 69 86 1d bd
       -0.17317545 -0.32473823 -0.13401933 -0.03845826
000070 d6 65 09 be cb 82 6d bd 0e f7 7a bd 06 a8 b1 bd
       -0.13417754 -0.057986062 -0.061270766 -0.08674626
000080 83 38 37 be a0 1c be bd bf df 10 be 01 dd 5e be
       -0.17892651 -0.092828035 -0.14147852 -0.21763994
000090 be a6 4a be 8c ea 7b bd f8 02 26 3d 35 5a 21 be
       -0.1979017 -0.06150298 0.040530175 -0.15757068
0000a0 89 2e ac bd 5e 27 9e be 27 38 d1 bd e8 b3 73 be
       -0.084073134 -0.3088941 -0.10215788 -0.23799098
0000b0 40 07 9e bd 81 fc c2 be 81 ed 5e 3d c5 98 a0 be
       -0.077162266 -0.3808327 0.05442572 -0.31366554
0000c0 a1 54 45 be 06 3a 2c bd 52 df da bd ae db 30 be
       -0.19270565 -0.042047523 -0.10687126 -0.17271301
0000d0 be c7 05 be b4 5f b0 bd 0b f2 0d be a5 32 27 bd
       -0.13064477 -0.08612004 -0.13861863 -0.040819783
0000e0 c8 37 e2 bd d0 a2 87 be 3b bb 0c be 64 90 e2 3d
       -0.11045796 -0.26491404 -0.13743298 0.110626966
0000f0 2c 91 8b be 86 b0 3e be bb 1e e0 3c 5c c7 fb bb
       -0.27259195 -0.18622026 0.027358403 -0.0076836776
000100 a8 b3 17 be 39 7a 3b be 07 c7 99 be 20 3e 0a be
       -0.14814627 -0.18308343 -0.30034658 -0.13500261
000110 3d 50 d2 bd ce ea ce bd 0d 59 e4 bd ce 93 64 be
       -0.102692105 -0.10103379 -0.111497976 -0.22322008
000120 95 04 82 bc 6c 66 f4 be 3a 10 21 be be af 60 be
       -0.015871326 -0.47734392 -0.15728846 -0.2194204
000130 67 a2 1d be 8b 84 3c be 47 02 39 be a4 38 c0 bd
       -0.15393983 -0.18409936 -0.18067275 -0.09385803
000140 1f db 51 3d 7b 89 e4 bd 71 9e 10 be de 31 a6 bd
       0.05123436 -0.11159035 -0.1412294 -0.0811498
000150 06 48 f6 bc 9e 31 38 be 33 fa 18 be 58 28 7f bd
       -0.03006364 -0.17987677 -0.14939193 -0.062294334
000160 8a 01 9b bc 16 33 cf bd 45 5b d2 3c 96 83 c0 bd
       -0.018921632 -0.10117166 0.025678286 -0.09400098
000170 78 17 96 be 5d ae ab be fe 66 6c 3d 4d 69 52 bd
       -0.2931478 -0.33531466 0.05771541 -0.051369954
000180 67 ff 95 bd 34 4b 57 be 65 ac 31 bc 2a 0c 62 be
       -0.07324105 -0.21024781 -0.010844325 -0.22074953
000190 f3 1f 25 be 6c e3 16 bd 92 0e 7e be a6 d6 47 be
       -0.16125469 -0.03683798 -0.24810246 -0.19515476
0001a0 6e 5f 9d be 70 7a 54 be 53 8d 7c be 32 ee 94 bd
       -0.3073687 -0.20749831 -0.24663286 -0.07271995
0001b0 d7 58 e9 bd 5d 83 da bd 69 79 32 be a6 56 53 be
       -0.11393898 -0.10669587 -0.17429127 -0.20638523
0001c0 ef 31 45 be 35 b5 85 be 30 a3 ba bd cf 96 6e bc
       -0.1925733 -0.26114812 -0.09113157 -0.014562323
0001d0 e6 63 ed bd f5 56 ef bd 6d 99 e4 bd 57 42 6c be
       -0.1159132 -0.116865076 -0.11162076 -0.23072182
0001e0 da 8a fb bd 2a f1 90 be 6f 9f 34 bd 2e 55 1a be
       -0.12282343 -0.28308994 -0.04409736 -0.15071556
0001f0 5e b8 ea bd f6 13 7e bd 42 71 09 bd 3c c7 3e be
       -0.114609465 -0.062030755 -0.033555277 -0.1863069
000200 33 e6 85 be 39 c8 b0 bc 10 1b 03 be 35 09 9a be
       -0.2615219 -0.021579849 -0.12803292 -0.3008515
000210 fe e7 95 bd b5 9a 82 be f0 bb 89 3c e2 88 b7 be
       -0.073196396 -0.25508657 0.016813248 -0.3584662
000220 41 6b d7 bd 2d 0d 26 be dc 4b c0 bc 7a 3e d7 bd
       -0.10518504 -0.16215964 -0.023473673 -0.10509963
000230 0c fe 22 be 22 4f aa bd 0c 9c 98 bd 08 a6 39 3c
       -0.15917224 -0.08315875 -0.074516386 0.011331089
000240 f0 ae 2d be 00 d7 42 be 83 ca 06 bd b4 8e 6c bd
       -0.16961265 -0.19027328 -0.032907974 -0.05775328
000250 a8 9f 29 be 8a 82 db bd 2b ba a1 be 90 85 a2 bd
       -0.1656481 -0.10718258 -0.31587347 -0.07935631
000260 07 a1 08 be e5 14 4f be f2 1f 42 bd 6f 8c cf be
       -0.13342677 -0.20222814 -0.047393747 -0.4053683
000270 51 5c 39 be 8a c5 0f be 1e 0d 2e 3d 8d 31 d4 be
       -0.18101622 -0.14040199 0.04249298 -0.41444054
000280 7b be 3a be 1a fe 00 bd 3f 70 44 3b b8 bc 6a be
       -0.18236725 -0.03149233 0.002997413 -0.22923553
000290 48 ed 88 be 2e 4e c1 bd 23 4e 3e be 7e 68 9c be
       -0.2674353 -0.0943874 -0.18584494 -0.3054847
0002a0 32 b6 b8 be 99 1f 13 bd 30 b6 fc 3b 7f 12 72 bd
       -0.36076504 -0.035918806 0.007712148 -0.05909967
0002b0 48 f7 a8 be 5f 43 ff bd 54 1e ad bd d2 68 7e be
       -0.3300116 -0.12464022 -0.0845305 -0.24844673
0002c0 da c8 66 bd 09 6b 61 3d f2 57 c3 bd db e8 48 be
       -0.05634389 0.055033717 -0.095382586 -0.19620077
0002d0 e8 71 a2 be 05 3c 9f be 38 e0 58 bc 1f bf 5a be
       -0.3172753 -0.3110048 -0.013237052 -0.2136197
0002e0 11 74 1d be dc c3 19 be 2b bf 10 be 6c fe d3 bd
       -0.15376307 -0.1501612 -0.14135425 -0.103512615
0002f0 7a f8 1e be 77 aa ef 3c 50 5a b4 bd b6 59 8e be
       -0.15524474 0.029256089 -0.08806288 -0.2780282
000300 fd 8b 61 be 8c 6b 14 be 36 c6 0a 3d 49 be ca bd
       -0.22026058 -0.14494151 0.033880435 -0.09899575
000310 c4 2c 29 be 53 0f e4 bc cb e7 bf bd 00 ff b5 3b
       -0.16520983 -0.027839338 -0.09370383 0.00555408
000320 cd c9 2d be 20 4f 5f be f8 c4 d1 bd 04 74 74 be
       -0.16971512 -0.21807528 -0.10242647 -0.23872381
000330 97 23 4e 3d 22 ec 80 be b9 c1 80 bd df ad 41 bd
       0.05032691 -0.25180155 -0.0628695 -0.047284957
000340 7d 92 9f bc ca 66 17 be f5 79 fb bd 97 65 6f be
       -0.01947903 -0.14785305 -0.12279121 -0.23378597
000350 97 3f 80 be 36 ea 13 bd af 7e 27 be 31 d7 aa be
       -0.25048515 -0.036112033 -0.1635692 -0.33367303
000360 4a 3f 80 be f4 ac f2 bd b8 ae 9d bc cf 3a ff bd
       -0.25048286 -0.118493944 -0.019248351 -0.12462389
000370 02 9e a9 be 66 21 2d be b2 f6 16 bd 7c 34 e2 be
       -0.33128363 -0.16907272 -0.03685636 -0.44180667
000380 17 55 73 be 8c a1 17 be 82 be a2 be 99 70 5e be
       -0.23762928 -0.14807719 -0.3178597 -0.2172264
000390 e5 f4 92 be f1 a9 6a be 22 d7 a6 be 12 11 23 bd
       -0.28702465 -0.2291639 -0.32586008 -0.0398112
0003a0 86 38 37 be 0e b1 b8 be b4 3d 31 bc a8 81 61 bd
       -0.17892656 -0.36072582 -0.010817934 -0.05505529
0003b0 c9 a7 76 be f3 40 72 bd b0 f3 01 be 21 4d b3 bd
       -0.24087442 -0.05914397 -0.12690616 -0.087549455
0003c0 09 01 a3 bc 98 d2 a9 bd f4 d2 5a bd 89 a5 37 be
       -0.019897955 -0.08292121 -0.053423837 -0.1793424
0003d0 d9 5f 31 be 52 3d 81 be 2d 4f f8 be fc c9 7e be
       -0.17321719 -0.25242096 -0.48497906 -0.24881738
0003e0 b7 01 74 be e7 07 bd be eb 78 65 be 8f 4f 84 be
       -0.23828779 -0.36920092 -0.22409408 -0.25841948
0003f0 48 69 23 be 9f 4a 70 bd cd cf 7e be cf 22 a8 be
       -0.1595813 -0.058664914 -0.24883957 -0.32839057

4.bias f4 [128]
000000 b7 da 1d be 26 8c 33 be 56 92 b8 be 16 9a 45 be
       -0.15415464 -0.17533931 -0.36049145 -0.1929706
000010 fe 86 d8 bd f3 c7 a8 be 4b c9 da bd 13 13 83 be
       -0.10572623 -0.3296505 -0.10682925 -0.2560049
000020 28 20 b1 bd f3 ed cf 3c 48 8f a8 be e3 8f ff bd
       -0.086487114 0.025382018 -0.32921815 -0.12478616
000030 f2 ba 12 be 08 08 14 bd 9e 60 62 be d5 a5 15 3b
       -0.14329126 -0.03614047 -0.22107169 0.002283444
000040 56 70 74 be e1 e0 11 3c 96 da bc bc 7f c9 9b bd
       -0.23870978 0.008903713 -0.023053449 -0.07606792
000050 da 9e a5 be 32 76 02 be 2b 42 80 be 66 cf 55 be
       -0.32347757 -0.127404 -0.25050482 -0.20879897
000060 f9 5e 65 be 71 12 1a be 76 cb c5 bd af c2 29 be
       -0.2239951 -0.15046097 -0.09657948 -0.16578172
000070 06 ff 95 be 6f 7f 16 be 49 3e d8 bd 1c f3 46 be
       -0.2929613 -0.1469705 -0.10558755 -0.19428676
000080 78 9c c8 bb 34 70 0e 3d ed 6f a8 bd 7d 25 c4 3c
       -0.006122168 0.034774974 -0.08224473 0.023943657
000090 7c 28 d7 bd 2a 74 99 ba 5b ba 19 3d 92 48 ad bd
       -0.10505769 -0.0011707593 0.037531238 -0.08461107
0000a0 52 67 0e be 48 84 08 be 27 c6 76 be e6 24 77 bd
       -0.13906601 -0.13331711 -0.24099027 -0.060337923
0000b0 41 af 4d bd 53 5f a8 3c 0d fe 93 be c1 a0 69 bd
       -0.050215963 0.020553267 -0.28904763 -0.057038072
0000c0 bf 39 e4 bb 37 79 42 bd ce 2f 6b 3d 67 b8 85 3b
       -0.0069648917 -0.04747888 0.057418637 0.0040808204
0000d0 5d 3b 3b 3d a0 36 9f bd 72 1c 3a be 0c 7f a5 bd
       0.04571091 -0.07774091 -0.18174914 -0.08080873
0000e0 15 b1 fb bd 4a 6e 38 bc a2 f2 da bd 8f 4c 98 be
       -0.12289635 -0.011256764 -0.1069081 -0.2974591
0000f0 26 6a 50 bd a5 8a aa be a0 62 fe bc 73 18 77 be
       -0.05088248 -0.33308902 -0.031052887 -0.2413042
000100 a9 0b 25 be 68 43 2b be 34 9a 95 be 6b 92 07 be
       -0.16117729 -0.16724932 -0.2921921 -0.13239448
000110 1f 47 06 be 22 04 b6 bd 88 5c 81 be 29 2d 9f bc
       -0.13113068 -0.08887507 -0.25265908 -0.019430714
000120 e4 ca 3e 3d b1 b7 c7 bd 7b a5 b8 bd 6a 0d ee bd
       0.04658021 -0.09751833 -0.09015938 -0.11623652
000130 1a 15 a2 bd d5 ae a7 be 80 d9 09 be f7 a4 1a be
       -0.07914181 -0.32750574 -0.13461876 -0.15101992
000140 e1 29 bd be 3f 8a 43 bd dd e6 51 be 0e 33 c1 bd
       -0.36946014 -0.047739264 -0.20498224 -0.09433566
000150 08 c5 81 bd d3 a7 b8 be ac cc 24 be 6a a6 e0 3c
       -0.06336409 -0.3606554 -0.16093701 0.027423102
000160 66 cc 58 bd 50 da d8 bd b8 7e 45 be 09 b6 cd bd
       -0.052929305 -0.10588515 -0.1928662 -0.10044486
000170 c4 23 32 be b5 93 ac be 62 9f 14 be f7 cf 12 bd
       -0.17396456 -0.33706442 -0.14513925 -0.035842862
000180 74 f0 cf bd 13 be 0a be f9 0e b0 bd af 60 56 be
       -0.10153285 -0.1354907 -0.08596606 -0.2093532
000190 d3 0d 87 be a3 40 71 be b0 f1 b3 bd ac 73 eb bd
       -0.26377735 -0.23559813 -0.087863326 -0.11496672
0001a0 f7 2a ac 3c 00 d5 b1 3d 47 a0 37 be f2 03 cc bc
       0.021016581 0.08683205 -0.17932235 -0.024904225
0001b0 6c 17 50 bd fd 85 a7 be d7 27 71 bd c1 99 4f be
       -0.050803587 -0.32719412 -0.058875885 -0.20273496
0001c0 96 ce 4f be d7 be ac bc d4 0f 8c bd cb f9 79 bd
       -0.2029365 -0.021087093 -0.068389565 -0.061029237
0001d0 52 24 d4 bd 2a 82 b5 bd d9 82 b1 bd 60 08 f3 be
       -0.1035849 -0.088627174 -0.08667535 -0.47467327
0001e0 84 62 8d bd be 35 fd bd 8c 17 84 bd 81 33 73 be
       -0.06903556 -0.12363766 -0.06449804 -0.23750116
0001f0 22 70 14 be 62 ce fe bc 76 87 ee bd c5 87 b1 bd
       -0.144959 -0.03110427 -0.11646931 -0.08668474

6.bias f4 [6]
000000 ac f7 aa 3d 2c f9 48 bd 5e 06 a5 bd 80 7f 2e be
       0.08348021 -0.049065754 -0.08057855 -0.17040825
000010 05 97 3e bd f1 e1 da bd
       -0.046530742 -0.10687626

onnx::MatMul_24 f4 [36, 512]
000000 21 62 10 3e 6c 19 b3 3e b0 90 89 bd d0 8e fe 3c
       0.14099933 0.34980333 -0.0671705 0.031073958
000010 1f 6f cd 3c 74 41 8e bd 2e d6 82 bd f6 84 a2 3c
       0.0250774 -0.06946078 -0.06388508 0.019838791
000020 ac 9a b8 bd 21 19 54 3e 50 2e 11 bc 99 b2 ec 3d
       -0.09013876 0.20712711 -0.008861139 0.11557502
000030 8e c0 61 be 5f 9c ec bd 79 16 51 3e d8 46 48 be
       -0.2204611 -0.11553263 0.20418729 -0.19558275
000040 9e 77 5f 3e de 30 0e bf 2f 75 36 3e f1 8c b7 3d
       0.21822974 -0.55543315 0.1781814 0.08962429
000050 81 a0 4e be 7a fb 41 3d c7 1a 6a 3d ce 71 5b bd
       -0.20178415 0.047358967 0.057154443 -0.05357533
000060 b4 02 67 bd 22 35 1d 3e 53 e6 4d 3e a8 91 23 3d
       -0.056399062 0.153523 0.20107393 0.03993383
000070 ac 42 73 bc 85 87 60 be bb 72 c7 bd c1 3a 34 be
       -0.014847439 -0.21926697 -0.0973868 -0.17600538
000080 05 6c cb bd e0 fb 09 3e 9e fc 23 3b d5 83 a2 bd
       -0.099327125 0.13474989 0.0025022398 -0.07935301
000090 3d 79 7e bd 31 65 93 3e 1a 25 1f bd a9 eb 0a be
       -0.06212734 0.2878814 -0.038853742 -0.1356646
0000a0 96 04 9c bc e5 13 a6 be e8 a6 bc 3c 04 51 4e 3e
       -0.019045155 -0.32437053 0.023028806 0.20148093
0000b0 11 d5 f9 3d b9 8d b7 bd 3c 9b ff 3d f8 2c 91 3e
       0.12198842 -0.08962578 0.124807805 0.2835462
0000c0 ba 53 f3 bd b4 e2 53 3e fc a3 6d bd b4 47 89 3e
       -0.11881204 0.20691949 -0.058017716 0.26812518
0000d0 67 77 05 3d 6e 5b 0c 3c 61 f5 8a 3d f8 4b 48 3c
       0.032584574 0.00856672 0.067850836 0.012225144
0000e0 a6 f1 a7 bd b3 3a 15 bd 3e 30 95 3d 42 8b 4a 3e
       -0.08200388 -0.036432933 0.07284592 0.19779685
0000f0 c4 e3 bf be df 9b a4 bd 53 ef 0e 3e 34 0b d5 bd
       -0.3747846 -0.080375426 0.13958482 -0.104025275
000100 e2 8d 49 bc 55 e2 49 3e 24 5f ad 3d 06 75 80 3e
       -0.012301894 0.19715245 0.08465412 0.25089282
000110 cb 67 73 3e 89 ff 47 bc a1 f7 bc 3d 06 26 81 3e
       0.23770063 -0.01220692 0.09226919 0.25224322
000120 83 79 05 3d 80 6e 4e bd 80 f3 90 3e 25 15 0e 3e
       0.032586586 -0.05039835 0.28310776 0.13875253
000130 5b 7b bd 39 19 1b 5c bd 37 b4 dc 3d ae c7 42 3c
       0.00036140796 -0.05373678 0.10776561 0.011888428
000140 c2 f8 e1 3d 90 75 54 bf 0c b4 dd 3d 35 f0 45 bd
       0.11033775 -0.82991886 0.10825357 -0.048324782
000150 1d 8e 32 3e db e8 f8 bd 8d 76 79 be 08 20 eb 3c
       0.17437024 -0.12153789 -0.2436163 0.028701797
000160 13 a4 49 3d ec 1e 35 be eb 8a ee bd db 88 90 3c
       0.04922874 -0.17687577 -0.1164759 0.017643383
000170 39 7a ad 3e bc 56 12 3e e6 9f 77 3d f4 5a fa 3c
       0.3388231 0.14290899 0.060455225 0.030560948
000180 a6 97 c9 3d 05 47 46 3d b0 fd 12 be 9a 6d 2d bd
       0.09843378 0.048407573 -0.14354587 -0.042340852
000190 e8 15 0f bd 61 84 0f bd 37 cc 64 3d 67 bb 30 3d
       -0.034933 -0.035038356 0.055858817 0.04314747
0001a0 51 15 c9 bd c4 a4 25 3e 7d bb 9e bd b7 05 1a 3e
       -0.09818519 0.16176134 -0.07750604 0.15041243
0001b0 3c 7d 69 3d 5e ad cf bd 98 e3 8b be e7 d9 b4 be
       0.0570042 -0.10140489 -0.27322078 -0.35322496
0001c0 5f 59 46 be d5 3f b5 3b 7d 51 16 be 65 4a c4 bd
       -0.1937003 0.005531291 -0.14679523 -0.09584502
0001d0 05 1c c7 bc a4 da ff 3d b8 02 16 be 43 84 51 3d
       -0.024305353 0.12492874 -0.14649475 0.051151525
0001e0 e4 b7 3e be c3 c2 82 be cc 04 54 3d 75 18 47 3e
       -0.18624836 -0.25539216 0.051762387 0.19442923
0001f0 7b c5 b5 bc f3 e3 a2 3e 2c 05 db bd a1 c9 1c 3e
       -0.022188893 0.31814536 -0.10694346 0.1531129
000200 0c 95 2a 3e fb a9 ce bd 2a 2f be 3c 59 a4 36 3e
       0.1665842 -0.10091015 0.023215849 0.17836131
000210 54 e5 ab bc c6 bf 22 be a8 1f ec 3d 49 ba 36 bc
       -0.020983376 -0.15893468 0.115294755 -0.011152812
000220 4a b2 1e bd e6 de ab be c7 22 b1 3d f5 b1 87 3d
       -0.03874425 -0.33568496 0.086492114 0.066257395
000230 25 6d 02 3e b4 09 10 bd d0 fd 0c be 6e eb 91 bc
       0.12736948 -0.035165504 -0.13768697 -0.017812457
000240 28 f0 38 be b2 9d 20 be 06 3a 90 3e 16 7c ba 3d
       -0.18060362 -0.15685156 0.28169268 0.09105699
000250 8a 4d 65 3d a9 3b ae bd 66 6b 95 3d 60 1b 3f 3d
       0.05598215 -0.08507473 0.07295875 0.046656966
000260 17 5d 45 bd 7a f6 0c 3e 91 04 55 3e c3 2e 4e bc
       -0.04818448 0.13765898 0.20802523 -0.012584391
000270 f0 6d 8f 3d 13 ae 43 bd 7d d6 b0 bc 48 c6 39 3e
       0.07003391 -0.047773432 -0.021586651 0.18142045
000280 3d ef 9e 3d 33 89 ac 3b f2 8d 8b bd fc 8b 86 be
       0.07760475 0.005265379 -0.06814183 -0.26278675
000290 f1 6c 9a 3d 4c 7d b9 3d 2a 74 da bd 52 4b d1 3d
       0.0754031 0.090571016 -0.10666688 0.10219444
0002a0 e4 f0 39 be e0 58 0a bd 4c 69 8e bc 1e 80 fb 3c
       -0.18158299 -0.033776164 -0.017384194 0.03070074
0002b0 26 4d 14 3d 11 af 43 be b9 31 64 bd be 04 10 3c
       0.036206387 -0.19109751 -0.05571148 0.008790193
0002c0 05 be bc bc f0 48 f3 3d 10 f3 da 3e 2f 34 1c 3e
       -0.023039827 0.11879146 0.42763567 0.15254281
0002d0 39 05 a3 3d fc 1c 31 bd f7 2a d9 3d 9b ef e2 3d
       0.079599805 -0.043240532 0.10603898 0.11080857
0002e0 09 1b 04 be c1 48 0f 3e 03 20 3a 3e 4a 88 31 bd
       -0.12900938 0.13992597 0.18176274 -0.043342866
0002f0 17 ab e5 3b 68 d7 40 3e 60 78 53 3e ab 54 b7 bd
       0.007008921 0.18832171 0.20651388 -0.08951696
000300 db 03 5a b9 b3 41 fb bd 01 b8 e5 3d 1d 6d 81 3d
       -0.00020791536 -0.122683905 0.112167366 0.0631964
000310 a1 3e 1e be 4c aa d2 bd 0a 8d 9e 3e 3a 75 8e bd
       -0.15453579 -0.10286388 0.3096698 -0.06955953
000320 97 1f a0 bd bc aa c9 3d e5 3a fc 3d 76 b1 13 be
       -0.07818525 0.09847018 0.12315921 -0.14423165
000330 50 f0 f1 3d f6 a5 4f 3e 94 6a d1 3d 88 81 e5 3c
       0.11813414 0.20278153 0.10225406 0.028015867
000340 4f 04 21 be 0f 2a 0a 3d db b0 ef 3d dc 0c 2e 3d
       -0.157243 0.033731516 0.117036544 0.042492732
000350 36 7c bd 3d ca d8 21 3e e1 72 00 be 56 f2 cd 3d
       0.09252207 0.15805355 -0.12543823 0.100559875
000360 45 1f 80 bb 7c 15 df 3c 0c 1f 95 3d 41 1c cc 3c
       -0.0039099776 0.027231924 0.07281312 0.024915816
000370 19 39 e0 3d 1d e6 a7 bd 95 9a 07 be 4d 32 bd 3d
       0.109483905 -0.081981875 -0.13242562 0.0923811
000380 4f 02 bc 3c 4a 55 91 3c 99 ce 83 3c 42 85 30 be
       0.02295032 0.017740864 0.016089724 -0.17238334
000390 53 ae 8e 3d 5f b8 49 bd fc 41 87 3e 21 2a 94 3d
       0.069668435 -0.049248096 0.2641753 0.07234598
0003a0 6c 7d 82 3d 4f 50 61 3d e7 4d f5 3d f1 4d de bd
       0.063715786 0.05500823 0.11977749 -0.1085471
0003b0 c5 35 cb 3c 42 dc 0f 3d 1a 0d 3e bd 35 63 57 3d
       0.024805913 0.035122164 -0.046399213 0.052584846
0003c0 f8 3b 65 be 68 56 1b be 33 3f 71 bd 5c 34 74 3e
       -0.22386158 -0.1516968 -0.058898162 0.23848099
0003d0 f3 b4 07 be 0a 36 dc bd 51 53 1c 3d 92 05 6b 3d
       -0.1325262 -0.10752495 0.038165394 0.05737836
0003e0 ae 1f 35 3e a5 ae 6d be 44 43 89 3d c4 d9 5c 3e
       0.17687866 -0.23211153 0.06702283 0.21567446
0003f0 d9 63 13 bd d2 37 91 bc d5 a7 57 3d df 64 4f be
       -0.035983894 -0.017726813 0.05265029 -0.20253323

onnx::MatMul_25 f4 [512, 256]
000000 c2 9c 1d be 07 fd e9 bd f6 e1 5c 3e fa 31 ac 3e
       -0.1539183 -0.11425214 0.21570572 0.3363188
000010 e4 75 55 be 01 35 15 bc 24 93 80 be cc 49 e8 bc
       -0.20845753 -0.009106875 -0.2511226 -0.028355502
000020 f6 57 df 3e d1 95 1f 3e 6d 8d 15 bd 10 d6 3e be
       0.43621796 0.15584494 -0.036511827 -0.18636346
000030 43 ea 0c bd d0 57 9b bd 43 26 dd bc 33 52 83 bd
       -0.034403097 -0.07585108 -0.026995784 -0.06412163
000040 a0 86 1b bd 5f 65 1b 3d 13 51 5d be 84 76 85 bd
       -0.037970185 0.037938472 -0.21612959 -0.06516746
000050 79 1b e1 3e 4f af c7 3d a7 9c 4a 3d 68 44 db 3d
       0.43966272 0.09750234 0.0494658 0.10706407
000060 7b 48 b6 bc 23 8b aa be 58 5b 3a 3e 1c b3 90 be
       -0.022251358 -0.33309278 0.18198907 -0.2826165
000070 a7 ee 34 3e 64 e2 a9 bd 1b a7 ab 3e 70 42 99 3e
       0.17669164 -0.08295134 0.3352593 0.299335
000080 08 05 5f 3e fc 6e cf 3d 70 f0 44 bd ea e3 40 be
       0.21779263 0.101285905 -0.04808086 -0.18836942
000090 fc 76 8f 3d ee 8f ba bd e2 93 c4 be d3 af 6b 3e
       0.07005116 -0.09109484 -0.38394076 0.2301629
0000a0 e4 21 bd bd 71 89 55 3d a6 68 f5 3d f5 9f ef bd
       -0.0923498 0.052133027 0.11982851 -0.11700431
0000b0 06 19 c1 bd 9f cd 30 3e 6d 02 d2 bd 04 3a 04 3e
       -0.09428601 0.17265938 -0.10254369 0.12912756
0000c0 4d 25 36 be db 9a 9b 3d 32 6e 43 3d 2d ea a3 3a
       -0.17787667 0.07597896 0.047712512 0.0012505703
0000d0 94 f6 72 3e fc 95 98 3e 86 98 2b 3e c3 3f 1b bd
       0.23726875 0.2980193 0.16757402 -0.037902605
0000e0 66 03 b9 bb 32 85 b6 bd cf 58 06 3e 8d e6 65 be
       -0.005646157 -0.08912124 0.13119815 -0.2245123
0000f0 e9 31 86 bd 1c e8 02 3e 8f 32 99 3a 84 19 c6 3d
       -0.06552488 0.12783855 0.0011688041 0.096728355
000100 af 4d 4a ba 42 d4 ab 3e 05 24 6c 3e e9 62 79 3e
       -0.0007717264 0.33560377 0.23060615 0.24354137
000110 b8 b8 6a bd ab 8c 37 bd 14 0a 27 bd 31 34 9e 3d
       -0.057305068 -0.044811886 -0.040781096 0.077247985
000120 a3 07 5f 3d 88 23 50 3e ac 3a db bb 3c 61 dd bc
       0.054450642 0.20326054 -0.006690344 -0.027023904
000130 8e a8 67 3e 19 8c 94 3e 6a f2 35 bd 04 6e 3e be
       0.22622892 0.29013136 -0.044420637 -0.18596655
000140 88 ed 38 be f4 2f b4 3e 8c 9a 6f 3e 8c c8 11 be
       -0.18059361 0.35192835 0.23398799 -0.14236659
000150 0b 26 0b 3e a3 da b6 3d c9 df 89 3e 9d 93 ab bc
       0.13588731 0.089284204 0.26928547 -0.020944411
000160 fe f2 1b 3c 46 d0 cc 3c 46 a8 b8 3d 31 1c e4 bd
       0.009518383 0.025001656 0.090164706 -0.111381896
000170 90 f1 2b 3c e9 e8 a6 3e 9e a6 a0 be e7 e4 af bd
       0.010494605 0.3259957 -0.3137712 -0.085885815
000180 2f 92 8e 3b 55 c5 25 bc 8e 3a 02 3e 19 4b f9 bd
       0.0043509225 -0.010117848 0.1271765 -0.12172527
000190 bf f4 db 3d 29 00 21 bd 85 90 c4 bd f8 5b b3 3e
       0.10740041 -0.039306793 -0.095978774 0.35031104
0001a0 c7 e5 5a 3d 27 33 a7 bb 51 bf 26 3e 9e 9d e6 3c
       0.05344179 -0.0051025334 0.16283919 0.02815133
0001b0 87 cc 40 be cb d7 3e 3e 70 18 06 3e 04 42 b3 3e
       -0.18828021 0.18637006 0.1309526 0.35011303
0001c0 02 03 1f bd e1 a8 f1 bc ad 76 e7 bd 0d 05 9a 3e
       -0.038821228 -0.029499473 -0.113019325 0.30081978
0001d0 c8 b8 0d bd 0c eb 9a 3d 1b 32 61 be c8 16 3b be
       -0.03460005 0.07564363 -0.2199177 -0.18270409
0001e0 91 76 22 bd ca d7 cb 3e bf 0a a2 3c f7 fe a3 3e
       -0.039663855 0.3981307 0.019780515 0.3203046
0001f0 6e 80 3b be 73 53 9b be b3 6e af 3c 47 4f 5b be
       -0.18310711 -0.30337104 0.02141509 -0.2141696
000200 e6 b3 8a 3d a4 9f 54 3d 64 e4 15 3c d3 e1 93 3d
       0.06772594 0.051910058 0.009148691 0.07220807
000210 e8 a0 c9 bd bf f1 86 3e 06 23 ec 3d d5 99 13 be
       -0.098451436 0.26356313 0.11530118 -0.14414151
000220 60 98 54 3e 89 54 97 3c 7c c2 a1 bc ec 29 a2 3e
       0.20761251 0.018472927 -0.019746058 0.3167261
000230 90 48 de bc e5 bb 97 3e 60 4d c2 3e 93 79 63 3e
       -0.02713421 0.2963554 0.37949657 0.22214346
000240 52 df b2 3e a3 1e 94 bd 6b d9 48 be e6 6a d5 bd
       0.34936005 -0.07232406 -0.19614188 -0.1042078
000250 6e 01 98 3e d5 2c 4b bd 8a 96 a3 3e ca c4 72 3e
       0.2968859 -0.049603302 0.3195079 0.23707882
000260 6b 31 03 bc 20 dd bf 3e 96 91 42 be 6d a2 c3 bc
       -0.008007388 0.37473392 -0.19000849 -0.023881162
000270 55 b0 85 3e b9 84 71 3e 8c e8 f4 bd 99 b0 19 bd
       0.26111093 0.23585786 -0.11958417 -0.037521932
000280 ba 42 f3 3d af 37 65 be b5 73 2c be 56 a8 f1 bd
       0.118779615 -0.22384523 -0.16841014 -0.11799686
000290 36 ba 55 3e 39 68 b4 bd 35 ed cb 3d b0 c1 e2 3d
       0.20871815 -0.088089414 0.09957353 0.11072099
0002a0 1f f8 e5 3d 67 b8 3a be e3 81 03 bd 6e 6b 4b 3d
       0.11228966 -0.18234406 -0.03210629 0.049663
0002b0 4c 56 19 3e 19 45 20 3e 13 bb 39 3e 98 db 00 be
       0.14974326 0.15651359 0.1813777 -0.12583768
0002c0 4e 20 b1 3d 45 d8 a3 3d 66 7c cb 3c c5 3b 0e bc
       0.0864874 0.080002345 0.024839591 -0.008681242
0002d0 bb de 2a 3e b9 36 02 3d 2c 3c 52 bd e3 66 ca 3e
       0.16686527 0.03179047 -0.051326916 0.3953162
0002e0 0d 3c 6b bd 33 df 75 3d f1 67 6a 3e 40 a0 a2 3d
       -0.057430316 0.060027312 0.22891213 0.079407215
0002f0 bb db 85 3e 3b 00 11 bd b4 df 8a 3c 51 32 78 bd
       0.26144204 -0.03540061 0.016952373 -0.06059486
000300 34 bd 80 bd 73 0d 3a 3e 43 6c e9 bd 86 00 fc 3e
       -0.06286088 0.18169193 -0.113976024 0.4921915
000310 72 a8 15 3d 0e 0e 74 3c 95 cc 03 3e 51 ab 89 3e
       0.036537595 0.014895929 0.1287101 0.26888517
000320 6d c3 f1 3d 06 b7 07 3c bd e6 9b 3d 9d 26 9f bd
       0.11804853 0.008283382 0.07612369 -0.07771037
000330 a4 2c 04 3d fe fc 4d be 10 fa 8a bd f1 ca 86 bd
       0.032269135 -0.2011604 -0.06785977 -0.06581677
000340 fe a6 bc 3d 8f 19 8a 3e d5 39 bf 3d d1 30 b7 3d
       0.09211539 0.26972625 0.093372025 0.08944858
000350 11 fd 76 bd ef 19 ac bd fb dc 01 3e e6 1a 93 bd
       -0.060299937 -0.08403384 0.12681954 -0.07182865
000360 ec 4b 10 3e 94 f0 a9 3d 79 50 d1 bd 25 c4 36 3e
       0.14091462 0.0829784 -0.10220427 0.1784826
000370 37 8c b8 3d 7c 86 99 3d dc cd 80 3e 93 7a cb 3d
       0.09011119 0.07496354 0.25157058 0.099354886
000380 8e 2a ae bc 77 0c 0e 3e 2b c8 ec be 5a ce 9d 3e
       -0.021260526 0.13871942 -0.46246466 0.30821496
000390 65 7f 2f bc a1 4e b9 3d 16 75 97 3c a6 4f 87 bd
       -0.010711526 0.090482004 0.018488448 -0.066069886
0003a0 e3 c7 e8 bd 08 7f 00 3e 21 62 53 be 5b c9 67 3c
       -0.1136625 0.12548459 -0.20642902 0.014147128
0003b0 8c 76 d9 bd c2 2d 42 be da 96 a9 3c 41 2d a7 be
       -0.10618314 -0.18962768 0.020701814 -0.32651713
0003c0 b8 6e 17 3e 15 2a 8c bd 33 71 60 bd 3e a9 60 be
       0.1478833 -0.06843964 -0.054795455 -0.21939561
0003d0 3e 23 88 be 8a d8 1e be 15 2c 76 3e 52 35 62 3c
       -0.26589388 -0.1551229 0.24040253 0.013806658
0003e0 06 76 6a 3d 24 13 a4 3e 0e fb 9d bc 28 34 23 3e
       0.057241462 0.32045853 -0.019284751 0.15937865
0003f0 30 b9 89 3e dc fe e7 3b ba 93 51 3e 61 75 37 3e
       0.268991 0.007079942 0.2046651 0.1791587

onnx::MatMul_26 f4 [256, 128]
000000 af 64 bb 3d 61 4a 34 3d 8a 31 38 be 91 49 25 3e
       0.09150063 0.044016246 -0.17987648 0.16141345
000010 58 10 e1 bd 5e 0e 6e 3e aa b2 64 3e 03 8e b2 bd
       -0.109894454 0.23247668 0.2233378 -0.08718493
000020 5f 26 9d bd 10 7a 52 bd 2d 00 71 3e e2 43 3f 3e
       -0.07673334 -0.05138594 0.23535223 0.18678239
000030 5f 81 27 3e 22 6d 52 bb 75 23 d3 3d d4 4e 41 bb
       0.16357945 -0.0032108505 0.10309497 -0.0029496448
000040 1f 72 b9 3e 2c 90 c7 3d 84 5d b8 3d c1 54 8c bd
       0.3621988 0.097442955 0.09002212 -0.06852103
000050 ad 83 08 3e fb 23 07 3e 44 f1 d9 bd 9f 45 19 3e
       0.1333148 0.13197319 -0.10641721 0.14967965
000060 88 18 ac bd ef 01 6c 3e 22 00 37 3e ff b7 ea bc
       -0.084031165 0.23047613 0.17871144 -0.02865219
000070 cb 61 83 3e 03 0f a7 3c 71 a0 33 3e 01 4d 8c 3d
       0.25660548 0.0203929 0.17541672 0.06850625
000080 af 16 b0 3b 18 63 0b 3e b2 1e 8a 3e 59 18 17 3d
       0.005373798 0.1361202 0.26976544 0.036888454
000090 dd fc 53 3b 2e 47 74 3c ff a5 5d bd 98 a9 8e 3d
       0.0032346763 0.014909549 -0.054113384 0.06965941
0000a0 0c d0 ab 3b 72 32 37 3d 8b 31 1d be f4 ee c7 3c
       0.005243307 0.044725843 -0.1535093 0.024405934
0000b0 0f 6b a7 3d 64 c8 cc 3d 8f 1c 9d 3e d0 a4 0d be
       0.08174717 0.09999159 0.3068585 -0.13832402
0000c0 77 7a 20 be 00 68 3a bd 64 23 1f 3e 35 6f 24 be
       -0.15671717 -0.04550934 0.15540844 -0.16058047
0000d0 2e 22 10 3d c2 47 0e 3e d2 0d df bd db 1f 01 3e
       0.035188846 0.13894561 -0.10891308 0.12609808
0000e0 73 eb 41 bd a5 bb cf bd 32 d3 51 3e 30 3c 4d 3e
       -0.047343682 -0.10143212 0.20490721 0.20042491
0000f0 66 70 07 3f f9 eb 5c bb d3 7b 45 bd 8e 25 6a 3c
       0.5290588 -0.0033709987 -0.04821379 0.01429118
000100 1b 36 81 be 25 51 da 3d 14 8b 2a 3c fe 5d 38 3e
       -0.25236592 0.10660008 0.010409135 0.18004605
000110 3d 98 0a bd 73 5d 61 bd 7e d9 2b 3e 4c 67 bd bd
       -0.033836592 -0.05502076 0.16782185 -0.09248218
000120 3b cc 16 3e 8f a3 0c be 8e c2 35 3d 1e 51 e0 bd
       0.14726345 -0.13734268 0.044374995 -0.10952972
000130 52 8e f4 3d 5d 82 36 be 89 3f 96 bb 5e 13 94 3d
       0.11941208 -0.17823167 -0.0045852107 0.072302565
000140 55 4f 9f 3e d3 f9 31 bc 99 fd 3f 3e 8f c4 e2 3d
       0.31115213 -0.010862785 0.18749084 0.11072647
000150 f4 bc 88 3e 87 f1 68 3d fa 7c b4 3e 15 8b 65 3e
       0.2670666 0.056870963 0.352516 0.22416337
000160 59 80 85 bd c5 21 9f 3d 10 6c 42 3c 8e 94 0a bd
       -0.06518621 0.07770113 0.011866584 -0.03383308
000170 17 03 c8 3d cc 52 4a 3d 1e 51 e2 bc 54 8e f8 bc
       0.09766214 0.049395368 -0.02762657 -0.030341305
000180 47 65 1b 3e ce 7a 06 be 0c 0a 0f 3c 52 2e 59 3e
       0.15175353 -0.13132784 0.008730423 0.21209076
000190 07 0b fe bd 65 35 d1 3e fb e7 02 3e ca 87 90 bc
       -0.12404447 0.4086105 0.12783806 -0.017642874
0001a0 2d 20 81 bc 07 5d fd bd 47 ed 89 3e d7 7d 6a 3b
       -0.015762413 -0.12371259 0.2693884 0.0035780573
0001b0 18 d9 6a 3d e8 b6 9e 3d 62 f1 1a be be c3 a9 bd
       0.057335943 0.0774973 -0.15131143 -0.08289288
0001c0 f1 7f ad 3d 53 4c b8 3d e6 75 7e bd e5 f9 5b 3d
       0.084716685 0.08998933 -0.062124155 0.053705115
0001d0 64 65 77 bd 22 4a 8a 3b 55 3c 3a 3e 8f c3 e5 bc
       -0.060399428 0.004220263 0.18187077 -0.028047351
0001e0 16 f5 da bd f9 cf ff 3d 0d 32 62 be 0f bf 38 be
       -0.10691278 0.124908395 -0.22089405 -0.18041633
0001f0 b6 8d bc 3c 18 5e 0a 3e 26 16 f0 3c 8b d0 04 3e
       0.023016792 0.13512456 0.029307436 0.12970178
000200 40 33 d4 3d 4b 60 5d 3e 74 b1 f8 bd 3b 97 16 3d
       0.10361338 0.21618764 -0.121432215 0.03676532
000210 7c 66 69 3c 1a 8b 5f be 0d ee a2 bc 54 dd b9 3d
       0.014245626 -0.21830407 -0.019888902 0.09075418
000220 ba 54 3d bd 09 f2 26 be 34 6d 04 be 08 8d 74 3e
       -0.04622338 -0.16303267 -0.12932283 0.23881924
000230 7b 22 4b be 17 b1 42 bc 6a a0 87 3d ec 34 67 bd
       -0.19837372 -0.011883042 0.066223934 -0.056446955
000240 99 1f 7a bd 74 80 0b bc 58 fb fa bd 7e e1 9a bc
       -0.06106529 -0.008514512 -0.12254971 -0.018906351
000250 61 f8 81 be 61 66 ef bc 98 1d 7b be ab 67 45 be
       -0.2538481 -0.029223623 -0.24523008 -0.19277827
000260 5b 12 90 bd 0b d7 24 be f5 8a fd bd f5 3d 24 3d
       -0.07034751 -0.16097657 -0.123800196 0.04009815
000270 a3 4f 29 bd e1 a9 17 be 1e b9 b3 3d f9 c8 82 ba
       -0.041335713 -0.14810897 0.08775543 -0.0009978107
000280 0b 21 d3 be df 6d d6 3d df b8 f4 bd 1f 3a a9 3d
       -0.41236147 0.10470175 -0.11949324 0.08263039
000290 47 77 5e be ba 56 1b bd 8c 8c 87 3c cb 93 23 bd
       -0.21725188 -0.037924506 0.01654651 -0.03993587
0002a0 05 a8 ba 3c 60 1d d9 3c 5c cb 2f 3d 8d 4d 51 be
       0.022785196 0.026503265 0.042918548 -0.2043974
0002b0 86 a4 a5 3d 74 38 7e be 94 e4 17 be eb 77 70 3c
       0.08088021 -0.24826223 -0.1483329 0.014677028
0002c0 0c 22 d4 bd 4f e3 ac 3d 7a 75 0e 3c 27 52 da bd
       -0.103580564 0.08441793 0.008695001 -0.106602006
0002d0 0c 5a 74 be c0 16 e4 3d cf f5 95 be c7 df 5e 3e
       -0.23862475 0.11137152 -0.292891 0.21765052
0002e0 c0 de 50 3d d7 38 84 3e 97 3d d6 bc fc a3 a2 be
       0.05099368 0.25824615 -0.026152415 -0.31765735
0002f0 e5 9d b9 39 09 36 90 be 03 63 be 3d dd fc ae be
       0.0003540359 -0.28166226 0.09296229 -0.34177294
000300 ae a1 7f bd 29 ff dc 3d e9 de bd bc 76 c4 a5 bb
       -0.06241005 0.107908554 -0.02317758 -0.0050588204
000310 aa b4 ea bc 03 6e e7 bd cd 7a 4b 3d ca 55 57 be
       -0.0286506 -0.1130028 0.04967766 -0.2102882
000320 cb c5 39 be dd 58 3a bd 62 24 4a bd bb 16 aa bd
       -0.18141858 -0.045494903 -0.049351104 -0.08305117
000330 95 5f 3b be 9c 45 9a bb 1e 58 c5 3d c1 da 89 bd
       -0.1829818 -0.004708005 0.09635948 -0.06731177
000340 e9 c6 0d 3e 84 9a b5 be a6 13 ed bc 5d 24 1c 3e
       0.1384541 -0.3546945 -0.028940033 0.15248246
000350 30 1d 27 be 44 09 bc bd 06 11 a3 bd 6b 3d 7d 3e
       -0.16319728 -0.09181455 -0.07962231 0.2473046
000360 9a c5 19 3e 3b 1d e6 3d 12 c0 0c be f0 8d 72 bc
       0.15016785 0.11236044 -0.13745144 -0.014804348
000370 80 c5 ab bb 96 aa af bd 86 63 f0 bd 1e 44 62 be
       -0.0052420497 -0.085774586 -0.117377326 -0.22096297
000380 77 69 33 be f3 89 8e bd 4d 92 b7 3e 08 ae 2b be
       -0.175207 -0.069599055 0.35853806 -0.16765606
000390 be 17 e0 bd 4a a1 d1 3d 8a 25 5e bd 87 dd a6 bd
       -0.109420285 0.102358416 -0.05423502 -0.08147722
0003a0 2c 3a 44 3e fa 6b b7 3c 9d 38 82 bd 83 1f a4 bd
       0.19162816 0.022390354 -0.063584544 -0.08013823
0003b0 5b 2b 6a 3d 20 e0 3c be 93 ee 69 3e 3f 8f 31 3d
       0.057170253 -0.18444872 0.22844915 0.0433495
0003c0 a7 b3 80 be 03 e9 88 3c 70 15 25 3e 88 d1 a7 3d
       -0.25137064 0.016712671 0.16121459 0.08194262
0003d0 c9 3c f3 3d 46 49 8d bd 56 2f c0 3d 3f b0 b8 bd
       0.11876828 -0.068987414 0.093840286 -0.09017991
0003e0 e3 b0 a5 bd 30 93 e5 bb fc db e9 3c c6 d1 f0 3c
       -0.08090379 -0.0070060715 0.02854728 0.029396903
0003f0 76 c4 d1 3c 32 01 8a be a7 a6 4a 3d e1 df 0f 3e
       0.025606375 -0.26954037 0.04947534 0.14050247

onnx::MatMul_27 f4 [128, 6]
000000 60 a5 10 3c da bd c9 3c e2 84 65 3c bd 1e a5 3d
       0.008828491 0.024626661 0.0140087325 0.080625035
000010 ad dc 01 3c a0 c5 83 bc b0 fe 35 bc 77 74 3d bd
       0.007926148 -0.016085446 -0.0111080855 -0.046253648
000020 ad 29 b0 3d 33 f9 65 bd 23 fa 3f bc 6a ba 3b be
       0.08601699 -0.056145858 -0.011717352 -0.1833283
000030 48 fc 1f 3c 04 3b 64 3d 5c 60 12 3b c4 3b 78 3d
       0.009764738 0.055720344 0.0022335267 0.060603872
000040 7e 33 6a 3d 4a 49 3a bd 8d 04 28 bd e8 40 ae bd
       0.057178013 -0.04548005 -0.041019965 -0.08508474
000050 fc e4 2f 3c 80 6e 0e 3e 37 8e b5 3d e1 a5 05 bc
       0.0107357465 0.1390934 0.08865016 -0.008157224
000060 48 c3 2b bd 7c 52 cd 3d 52 31 00 bd 32 a5 96 bc
       -0.04193428 0.10025498 -0.031297036 -0.018389318
000070 69 65 10 3d 64 f8 80 3c cd 4c bb 3d 6e ac 8a bd
       0.035252962 0.015743442 0.09145508 -0.067711696
000080 4d 60 85 bd 4c ad 61 3d 5c a4 7b 3d 96 bb 1f 3c
       -0.065125085 0.05509691 0.061436042 0.009749314
000090 54 a7 88 3d 8a 8f e4 bb 3e 95 33 3d c1 0e 44 bd
       0.0667254 -0.006975119 0.0438435 -0.047865633
0000a0 78 7b 69 bb 41 d9 2c 3d 26 65 73 bc 13 27 1b bc
       -0.0035626572 0.042199377 -0.014855659 -0.009469765
0000b0 f1 1d 4f 3e 34 47 fb 3c b8 ce 51 bc f2 dc a0 bd
       0.20226265 0.0306736 -0.012805633 -0.07854642
0000c0 80 ae 2c be 15 97 5e 3b 30 41 df 3a 62 71 a1 bb
       -0.16863441 0.0033964564 0.0017032977 -0.0049268464
0000d0 f4 14 9c 39 d6 fa ae 3d c4 3d 46 bb 90 21 a1 3b
       0.0002977025 0.08543937 -0.0030249218 0.004917331
0000e0 ba 52 ed 3c 89 76 39 bc 84 ab bc bc 2a da 78 3e
       0.028970111 -0.011319765 -0.023031004 0.24301973
0000f0 4a f4 84 bd 96 8a 7a 3d 33 3c 7d bc 7f 74 50 3c
       -0.06491907 0.061167322 -0.015456247 0.012723087
000100 a2 5d d0 3c fd 0c c5 3d 1e 31 c4 3c 32 3c 82 bb
       0.025435273 0.09621618 0.023949202 -0.003974461
000110 5c 98 a3 3d 97 72 dc bc 97 cd ac bd 4b bf 5f 3d
       0.079880446 -0.02691011 -0.08437651 0.05462579
000120 8a 87 24 3c 7b 83 12 3d 88 c9 b8 3c 6e 71 7f bc
       0.010042081 0.03576992 0.022557035 -0.015591009
000130 30 5a b5 3d 8b 91 84 bd 49 06 4f 3d 7e 86 3c 3d
       0.088550925 -0.064730726 0.050543103 0.0460267
000140 8e 9f a8 bd bd c8 89 3d 9a 75 b5 3d 33 b0 0f be
       -0.08233558 0.06727741 0.08860321 -0.14032058
000150 e2 62 c1 bd 31 43 90 3c 1f 13 36 bd 1d b9 1b bc
       -0.094426885 0.017610164 -0.04445183 -0.009504584
000160 50 ca 34 bc de 88 6a 3d e0 71 35 3c bd 25 9b 3c
       -0.011034563 0.057259433 0.011074513 0.018938893
000170 3a 03 43 3d 7a b8 94 bd c9 eb fc 3c 71 3e 2e 3c
       0.0476105 -0.072617486 0.03087415 0.010635004
000180 7d 23 84 3d 2a d0 b5 3c 6d da 06 bd bc 05 73 bd
       0.06452081 0.022193987 -0.03292315 -0.05933164
000190 51 f4 a0 3d 47 35 68 3d d8 fd c2 3c f1 33 b7 3d
       0.078591 0.056691434 0.023802683 0.08945454
0001a0 ab 85 c0 3d c3 65 86 bd 6d 95 66 3d 0a 4f 04 3d
       0.09400495 -0.06562378 0.056294847 0.03230194
0001b0 64 27 7b 3d 75 f7 9b 3d 09 f3 79 3d 79 61 9a bc
       0.061316863 0.07615558 0.061022792 -0.018845307
0001c0 32 6c ed 3c 87 41 23 3d e7 00 79 3c 3f bd 2a bd
       0.028982256 0.039857414 0.015197969 -0.041684385
0001d0 8a 76 8d be d5 57 a3 3c 53 fc 80 bd 4b 9b f3 bc
       -0.276295 0.019939343 -0.06298127 -0.029737135
0001e0 d3 45 44 3d 0f 8f ba 3d d6 16 c7 3c 60 7d 33 bd
       0.047918152 0.091093175 0.024302881 -0.04382074
0001f0 12 bd fc bc 00 b5 af 3d 0e de 95 3d d4 0e 12 3d
       -0.030851875 0.08579445 0.07317744 0.035658672
000200 e1 79 b2 bd 4e d9 dc 3c 6d 2e 99 3c 72 8f 8d bd
       -0.08714653 0.026959088 0.018698895 -0.06912126
000210 4e 74 93 3c 8d a2 ef bc 8c 8d de bd 56 ae b0 bc
       0.017999794 -0.029252315 -0.10866842 -0.021567505
000220 ba 3a 47 3d e5 71 e2 3d 48 e9 7c 3d ad 0f b3 3d
       0.04863999 0.1105688 0.06174591 0.08743224
000230 1f 14 a3 bd 34 c9 a0 3c 57 6c d1 bd 01 3a 8c 3b
       -0.07962822 0.019627191 -0.10225742 0.0042793755
000240 53 41 2b 3d e2 8d 9d bd c1 a1 9c bc ca fd 93 3d
       0.041810345 -0.076930776 -0.019120099 0.07226141
000250 ae 47 0d 3e af 98 fb bc 99 48 de bd 78 d0 17 bd
       0.13796875 -0.030712454 -0.10853691 -0.037064046
000260 b3 ce c3 3c 0d cb dd 3b 2c 5f a1 3d 32 4c 2d 3c
       0.023902273 0.0067685903 0.07879481 0.010577248
000270 b9 71 30 3c f9 95 0c bd d3 5e 65 bd 0f d2 6e bd
       0.010769301 -0.034322713 -0.055998635 -0.058305796
000280 64 09 3e bc 72 63 39 3d a7 2c 0c 3b 7b 1e 54 3d
       -0.011598919 0.045260854 0.002138892 0.05178688
000290 be bb bb 3d f0 23 7f bc a2 52 dd bb 6c 92 8a bd
       0.09166668 -0.015572533 -0.0067542354 -0.06766209
0002a0 65 0c 75 3d 06 4a 8f 3c dc c0 69 3c b0 61 cc bd
       0.059826273 0.017491352 0.014267173 -0.0997957
0002b0 cc 78 41 3d 36 c5 4e 3d 80 75 92 3c 13 4a 93 3c
       0.04723434 0.050481044 0.017878294 0.017979657
0002c0 76 2b 21 3d 65 c1 86 3d 76 be 4b bc f0 f7 ab bd
       0.03934809 0.06579856 -0.012435546 -0.083969
0002d0 c3 32 88 3d 22 3f 9f bd c1 2b e3 bc 72 40 53 bc
       0.06650307 -0.077757135 -0.027730824 -0.012893783
0002e0 61 d5 b2 bd b3 3a 82 bc 3f 89 8c bc 23 f5 55 bc
       -0.08732105 -0.01589713 -0.017155288 -0.013058933
0002f0 3a 64 00 3d b1 31 97 3d 18 f1 21 bc e6 ae 43 3e
       0.031345583 0.07382525 -0.009884141 0.19109687
000300 81 bb c9 bc 6f db b2 3c 61 5b b1 3d eb 3e ba bd
       -0.024625542 0.02183315 0.08660007 -0.09094032
000310 f7 0b 61 bd d2 ee 40 3d c9 cc b2 bd 09 c9 0e 3d
       -0.05494305 0.047102757 -0.08730466 0.03485969
000320 78 e8 8a 3d 17 e9 e4 bd fe c8 24 b8 48 44 83 3d
       0.06782621 -0.11177271 -3.9287836e-05 0.06409508
000330 5e 1a ce 3d c8 29 86 3c 57 c4 2b 3d 58 b0 f7 bd
       0.10063623 0.016377345 0.04193529 -0.12094182
000340 fc ca 81 3d 62 32 69 3c 1d 9f 87 bb a5 93 12 3c
       0.06337544 0.014233204 -0.004138841 0.008946334
000350 50 e1 d5 bc 4d ac 8e bd b3 2e 7a bc 2b 62 e6 3c
       -0.026108414 -0.069664575 -0.015269923 0.028122982
000360 8e ed 04 bd 67 d1 68 bc 9c 06 00 3d ee cc c7 bb
       -0.032453112 -0.014210082 0.031256303 -0.0060974276
000370 d8 30 64 bd 1c a1 be 3d 57 4d 02 bc d2 a1 51 3d
       -0.055710644 0.09308073 -0.00795301 0.051179715
000380 80 09 1a bc 64 ef e6 ba 5c 0b 4f bd b9 fa 52 3d
       -0.009401679 -0.0017618951 -0.050547943 0.05150864
000390 32 79 fc bc 47 f2 3e bd 39 44 6f 3c a6 93 94 bc
       -0.03081951 -0.046617772 0.014603668 -0.01813681
0003a0 b1 73 ec bc 20 2e 27 bd d0 91 96 bd 62 cf 2b bd
       -0.02886376 -0.040815473 -0.0735203 -0.041945823
0003b0 22 fe 70 3d 9d 7f 18 bd 41 aa 3a 3d 55 6c 9c 3d
       0.05883611 -0.037231077 0.045572523 0.0763785
0003c0 43 bd 25 3d df 3d 0f 3b ae 2a f9 3b c9 8e 20 be
       0.040463697 0.0021856946 0.007603965 -0.15679468
0003d0 7e 9b 11 3c f7 23 03 3d 49 05 54 bd 96 20 84 3b
       0.00888717 0.03201672 -0.051762853 0.004032205
0003e0 c9 6c 5e bd cb 46 bf 3d eb 6a aa 3c e0 ee a7 3b
       -0.054302964 0.093396746 0.020802936 0.0051249117
0003f0 0a 24 d9 bd 14 41 b5 bc e3 d2 47 3d d9 7b 81 bc
       -0.10602577 -0.022125758 0.0487851 -0.015806125
