logs/limx_arm/SF_TRON1A/exported/policies/encoder.onnx (onnx, 339272 bytes, 6 tensors)

encoder.0.bias f4 [256]
-0.67233515 -0.73550117 0.14148448 -0.17473656 0.07197179 0.06834498 -0.017335476 -0.04937059
-0.22595376 -1.0087558 -0.33527112 0.36573085 -0.053755682 -0.1421192 -0.085206755 -0.37901813
-0.11845341 0.0029137547 -0.19434215 -0.7875118 -0.20560355 -0.61069006 -0.19960004 -0.22998755
-1.347975 -0.48666427 0.070126936 -0.0996601 0.28445607 -0.105086476 -0.06701749 -0.3156668
-0.26136616 -0.54636717 -0.5049702 -0.0369351 0.057603475 -0.12489527 -0.17620213 -0.57440174
-0.3874559 -0.08482948 -0.0979652 -0.3365236 -0.06838326 0.59921926 -0.37182593 -1.1394206
-0.24461712 -0.106246635 -0.17816542 -0.34673867 -0.15154791 0.1331775 0.033616304 -1.2941178
-0.10946747 -0.26566252 -0.06683861 -0.23285851 -0.073914394 0.15354547 -0.012657567 -0.06495851
-0.2805691 -0.27337193 -0.16175154 0.13454525 -0.8706175 -0.19498591 -0.21218917 -0.041699585
0.001579544 -0.24556872 0.09402106 -0.3496499 -0.58392245 -0.6575668 -0.06257896 0.2510235
-0.27771032 -1.6099887 -0.5927605 -0.64609945 0.28030136 -0.011198723 -0.15680818 -0.09155465
0.22646865 0.08098441 -0.26054356 0.18771322 -0.44591704 0.151321 -0.23236765 -0.77464426
0.012991761 -0.8644705 -1.0481427 -0.5874827 -0.15462124 -0.14834276 -0.5547586 -0.19305398
-0.05695379 0.009845117 0.107748434 -0.15080017 -0.64876413 0.11268447 -0.1476346 -0.378292
-0.123715416 0.038463324 -0.39202154 -0.26833373 -1.378901 -0.84117836 0.09909438 0.25688136
-0.4486926 -0.37581345 -0.19162501 -0.065517455 -0.8586682 -0.24126133 -0.17818318 0.22152345
-0.0745681 -0.024171226 -0.29426172 0.07056066 -0.34507272 0.12813932 -0.27520287 -0.31750563
-0.56910926 -0.045977086 -0.7626303 0.15273017 -0.16916992 -0.99853146 -0.6915486 -0.72042674
-0.29371142 -0.27124304 -0.44019532 0.076684095 -0.41547227 -0.13294649 -0.23265147 -0.14088513
-0.19587739 -0.539954 -0.9214676 -0.06365037 -0.49537885 -0.030735862 0.11485488 0.39013338
-0.5250547 -0.34826714 -0.27377108 -0.46026844 -0.7379845 -0.3924319 -0.6461063 0.13196686
0.08599186 -0.14077343 -0.13817586 -0.20078582 0.37864727 0.18381895 -0.07559213 -1.0413324
-0.6577994 -0.14715394 -1.4869007 -0.32479155 -0.15190277 -0.12609233 -0.54121786 -0.26983654
-0.4815923 0.049237434 -1.2278055 -0.89368486 -1.2052481 -0.4195746 -0.18712239 -0.26866162
-0.20350894 -0.18624395 -0.2431897 -0.44256657 -0.07786798 -0.008510613 -0.055179875 -1.7458264
-0.42346194 0.24517992 -0.116032325 -0.3928889 0.21453735 -1.1198453 0.08145486 -0.12925361
-0.48890814 -0.12709437 0.047217682 -0.21291421 -0.54201573 0.124928735 -0.053789634 -0.4535668
0.028643776 -0.36457238 -0.25781855 -0.17359328 -0.4547974 -0.19973215 0.24324505 -0.3076803
-0.08673695 -0.09638269 -0.17410155 -0.18391703 -0.389974 -0.2890463 -0.35774302 -0.12178102
0.06254695 -0.061811548 -0.3562124 0.23326214 0.028077854 0.08549607 -0.67294127 -0.093543716
0.23281524 -0.32405564 -0.7546052 -0.52661794 -0.25849622 -0.033259917 -0.45845845 -0.32131168
-0.015019919 0.030011129 -0.16835111 -1.492665 -0.06180227 -0.13151367 0.0024422468 -0.62132
00000000: 281e 2cbf ce49 3cbf 4fe1 103e 24ee 32be
00000010: f265 933d 74f8 8b3d 2103 8ebc d138 4abd
00000020: 6c60 67be e91e 81bf a8a8 abbe 1341 bb3e
00000030: eb2e 5cbd b287 11be e180 aebd aa0e c2be
00000040: b497 f2bd b1f4 3e3b a101 47be 609a 49bf
00000050: bd89 52be 2f56 1cbf f463 4cbe db81 6bbe
00000060: 728a acbf 0f2c f9be b69e 8f3d 981a ccbd
00000070: 3aa4 913e 9437 d7bd 7740 89bd 149f a1be
00000080: c9d1 85be b8de 0bbf ba45 01bf 4249 17bd
00000090: 9ff1 6b3d 17c9 ffbd 556e 34be fe0b 13bf
000000a0: 9f60 c6be 14bb adbd fba1 c8bd d24c acbe
000000b0: 860c 8cbd 6f66 193f f85f bebe 89d8 91bf
000000c0: e97c 7abe d697 d9bd ff70 36be bb87 b1be
000000d0: 602f 1bbe af5f 083e 40b1 093d a7a5 a5bf
000000e0: 7b30 e0bd eb04 88be aee2 88bd 7672 6ebe
000000f0: 6e60 97bd 063b 1d3e af61 4fbc f808 85bd
00000100: c1a6 8fbe 68f7 8bbe 32a2 25be 3bc6 093e
00000110: cae0 5ebf 63aa 47be 1e48 59be 2fcd 2abd
00000120: b408 cf3a 5e76 7bbe 1d8e c03d 5005 b3be
00000130: f17b 15bf 4c56 28bf 6629 80bd 2786 803e
00000140: 0c30 8ebe 1c14 cebf 27bf 17bf c666 25bf
00000150: a983 8f3e d97a 37bc 5392 20be 0181 bbbd
00000160: 66e7 673e 28db a53d f765 85be e537 403e
00000170: 3d4f e4be e4f3 1a3e c9f1 6dbe 164f 46bf
00000180: 65db 543c f04d 5dbf 8a29 86bf 4465 16bf
00000190: 0855 1ebe 2ae7 17be a904 0ebf f1af 45be
000001a0: 6148 69bd 6a4d 213c 36ab dc3d 5c6b 1abe
000001b0: 6815 26bf 1ec7 e63d 862d 17be 7daf c1be
000001c0: 825e fdbd b88b 1d3d 0cb7 c8be 0a63 89be
000001d0: d47f b0bf 7757 57bf fff1 ca3d f485 833e
000001e0: 09bb e5be 9f6a c0be 5939 44be 042e 86bd
000001f0: aed1 5bbf 360d 77be a775 36be 0bd7 623e
00000200: 29b7 98bd bc02 c6bc 79a9 96be 1b82 903d
00000210: 5fad b0be f436 033e 64e7 8cbe 1990 a2be
00000220: 25b1 11bf 7852 3cbd bd3b 43bf 4c65 1c3e
00000230: e13a 2dbe c29f 7fbf 5409 31bf e36d 38bf
00000240: 5861 96be 5ee0 8abe 4861 e1be 8d0c 9d3d
00000250: c8b8 d4be 2023 08be 303c 6ebe 3144 10be
00000260: 1594 48be 6d3a 0abf 4de5 6bbf 205b 82bd
00000270: 4ca2 fdbe c6c9 fbbc 0939 eb3d 90bf c73e
00000280: fc69 06bf 1250 b2be b92b 8cbe 4ea8 ebbe
00000290: 8dec 3cbf d6ec c8be 3967 25bf 5222 073e
000002a0: 801c b03d e926 10be f97d 0dbe cc9a 4dbe
000002b0: 0ede c13e 093b 3c3e 0cd0 9abd 614a 85bf
000002c0: 8b65 28bf 86af 16be c352 bebf 144b a6be
000002d0: 668c 1bbe 591e 01be 418d 0abf 0428 8abe
000002e0: 4493 f6be 31ad 493d bb28 9dbf 88c8 64bf
000002f0: 9245 9abf 7bd2 d6be 039d 3fbe 048e 89be
00000300: a664 50be bcb6 3ebe b906 79be 1698 e2be
00000310: 3f79 9fbd 1970 0bbc 4b04 62bd 3d77 dfbf
00000320: 01d0 d8be 7210 7b3e 5ba2 edbd bc28 c9be
00000330: aeaf 5b3e 1757 8fbf ced1 a63d 0f5b 04be
00000340: 2b52 fabe 0725 02be 5467 413d 2f06 5abe
00000350: 8bc1 0abf a3da ff3d 8552 5cbd e839 e8be
00000360: 5aa6 ea3c 3ba9 babe cb00 84be 70c2 31be
00000370: 34db e8be 9686 4cbe 3b15 793e 4688 9dbe
00000380: 24a3 b1bd 4a64 c5bd ad47 32be bf54 3cbe
00000390: acaa c7be e0fd 93be 182a b7be 5468 f9bd
000003a0: 9e18 803d 1b2e 7dbd 7961 b6be 45dc 6e3e
000003b0: 8703 e63c 9018 af3d e145 2cbf d993 bfbd
000003c0: 1e67 6e3e 9fea a5be ce2d 41bf 6fd0 06bf
000003d0: 9e59 84be 8d3b 08bd 11bb eabe f782 a4be
000003e0: 1b16 76bc e6d9 f53c 3c64 2cbe a60f bfbf
000003f0: 6124 7dbd 85ab 06be 1a0e 203b d40e 1fbf

encoder.2.bias f4 [128]
0.029134154 -0.07222742 -0.06505787 0.07666242 0.050309602 -0.018228298 -0.10826751 -0.043772437
-0.051953934 -0.023000194 -0.06478549 -0.024144355 -0.04143619 -0.38689876 -0.029689677 -0.08968894
0.00254262 0.0349295 -0.16294198 -0.1183792 -0.46873662 -0.18835583 -0.015203618 0.096289754
0.060904644 -0.3188031 0.08248284 -0.040727608 0.00793656 -0.24421051 0.018112607 -0.08308275
0.053842127 -0.07468297 -0.3673501 0.10109047 -0.03615757 -0.056955796 -0.2843334 -0.6235714
0.033816278 -0.4072771 -0.09393803 -0.05276175 0.09232917 0.04823282 0.056722246 0.030950943
-0.10123149 -0.14849705 -0.17390442 -0.09636185 -0.13830076 -0.04688058 -0.13182895 0.017888216
0.04513107 0.004405116 0.08447548 0.03302101 -0.06171741 -0.70642346 -0.13583006 -0.8911066
-0.004962599 -0.123949036 -0.08171577 0.024752416 -0.0073585506 0.07930362 -0.011130423 -0.014826537
0.10828306 -0.04209547 0.038444247 -0.15023658 0.11249558 -0.021136932 -0.0695606 -0.09037706
-0.11063375 0.060009684 0.066140234 0.04565443 -0.4558946 0.03545473 -0.14132014 0.03601578
-0.035157833 -0.08716651 0.1402765 -0.007982143 0.041407757 -0.20270213 -0.775553 0.030621551
-0.08184802 0.034490798 -0.13047065 -0.0963763 0.049052805 0.034759793 -0.13929294 -0.106175795
-0.050416034 0.117378086 -0.04651354 -0.032572404 0.0066081397 -0.19700296 -0.03479866 -0.0038239795
-0.075288974 0.043648645 -0.068318956 -0.629984 -0.065228485 -0.009046346 -0.00016311953 -0.08027554
-0.26552954 0.016075402 0.02742152 -0.108887866 -0.04296224 0.088564724 -0.014386004 -0.11982719
00000000: c0aa ee3c f8eb 93bd 0f3d 85bd 3001 9d3d
00000010: 7111 4e3d 8353 95bc 5bbb ddbd ba4a 33bd
00000020: a6cd 54bd e76a bcbc 41ae 84bd 62ca c5bc
00000030: ffb8 29bd 9817 c6be c437 f3bc d6ae b7bd
00000040: 16a2 263b 3c12 0f3d 43da 26be cb70 f2bd
00000050: 3ffe efbe 5ae0 40be 9918 79bc 9033 c53d
00000060: 2677 793d 293a a3be c3ec a83d fed1 26bd
00000070: 5808 023c 5212 7abe e460 943c 4a27 aabd
00000080: 9089 5c3d 63f3 98bd 5015 bcbe 8508 cf3d
00000090: f619 14bd 7b4a 69bd 2694 91be 60a2 1fbf
000000a0: f082 0a3d a086 d0be 9562 c0bd b41c 58bd
000000b0: 1317 bd3d c78f 453d 9655 683d d58c fd3c
000000c0: 7552 cfbd 9c0f 18be 0014 32be 5d59 c5bd
000000d0: b79e 0dbe da05 40bd 2bfe 06be 4f8a 923c
000000e0: 5bdb 383d cb58 903b 7b01 ad3d 0a41 073d
000000f0: 65cb 7cbd 2bd8 34bf 0917 0bbe 901f 64bf
00000100: 4c9d a2bb fed8 fdbd 995a a7bd 94c5 ca3c
00000110: ff1f f1bb f069 a23d 615c 36bc 01eb 72bc
00000120: 82c3 dd3d 4d6c 2cbd b777 1d3d 9ed7 19be
00000130: 1564 e63d 5c27 adbc ca75 8ebd 9c17 b9bd
00000140: f393 e2bd b7cc 753d 8874 873d 2400 3b3d
00000150: 046b e9be fb38 113d 3ab6 10be 4885 133d
00000160: a901 10bd 5b84 b2bd a5a4 0f3e 89c7 02bc
00000170: 2e9b 293d 2691 4fbe a48a 46bf 0cda fa3c
00000180: ef9f a7bd 3946 0d3d 199a 05be f060 c5bd
00000190: 98eb 483d 4960 0e3d cfa2 0ebe b272 d9bd
000001a0: 0b81 4ebd ec63 f03d fb84 3ebd a46a 05bd
000001b0: 1889 d83b 25bb 49be 0a89 0ebd bb9b 7abb
000001c0: 1b31 9abd ecc8 323d cfea 8bbd a246 21bf
000001d0: 8396 85bd 2037 14bc 110b 2bb9 8167 a4bd
000001e0: 7df3 87be 90b0 833c 18a3 e03c 9a00 dfbd
000001f0: 2cf9 2fbd 6c61 b53d 46b3 6bbc f567 f5bd

encoder.4.bias f4 [3]
0.025073651 -0.08724624 0.008624659
00000000: 4267 cd3c 28ae b2bd 714e 0d3c

onnx::MatMul_18 f4 [180, 256]
0.45392677 -0.048332915 0.6500429 0.032893237 0.06720559 0.46476555 0.15396075 -0.049673926
-0.10981325 -0.48215145 -0.59108835 0.004702899 -0.22158389 -0.031139089 0.030341879 -0.16575445
-0.17342761 -0.86863434 0.14629827 0.73911494 0.35738298 0.01346571 0.14168966 0.1729915
0.41994986 -0.4284291 0.22413883 -0.01614374 -0.595679 -0.21185087 -0.03628633 0.1238521
-1.4153519 0.18811576 -0.08399676 0.06497209 -0.20634434 0.3121055 0.12352212 0.09087018
-1.1749786 0.122426875 0.5359779 0.3534062 0.062705375 -0.7826972 0.5771717 1.2859032
-0.38044494 -0.36469883 -0.1524934 0.41647947 -0.057707276 -0.05294303 0.2982076 -0.062733844
0.30125627 -0.25946742 -0.18562579 -0.06578832 0.060706355 -0.17831261 -0.41826144 -0.43156385
-0.10605641 0.36559823 -0.010192663 0.020536017 -0.077030696 -0.10750494 -0.060538303 -0.25617665
0.0012131267 0.3231273 -0.1938642 -0.11735994 0.30752996 -0.96727836 0.25995523 -0.17073888
-0.87193996 0.30145764 -0.6545053 0.0020593703 -0.20163429 0.017755076 0.2789142 -0.4270078
-0.24598604 -0.20619428 -0.47487846 0.1715619 -0.00940283 -0.00846061 0.6490535 -1.2282888
-0.07258453 0.12542988 0.79684526 -0.01531278 -0.15762591 0.037160076 1.5270097 -0.17050365
0.39580718 -0.10707815 -0.3418825 -0.008342143 0.39940944 0.47557208 0.039128482 0.2997429
-0.18786284 0.5943515 0.20266208 -0.09907302 -0.029028783 0.10126156 0.21680859 -0.10303861
0.16371502 1.1091641 0.017403873 -0.44406766 0.9216617 -0.1938766 -0.06209378 -0.46219903
0.011111637 0.057234738 -0.06059911 -0.011910137 -0.70826817 -0.19369745 0.0070075714 0.3064468
-0.4420466 0.27526587 0.63921136 0.24371243 0.24609572 0.030466799 -0.63102955 -0.5305112
0.0648356 0.19898058 -0.20005652 0.19703113 -0.052403416 0.60103554 -0.26336852 -0.05740945
0.34491128 0.024042651 -0.40608102 -0.013299116 -0.37606466 0.10850073 -0.048117284 0.3026631
0.09328187 1.7367504 0.36202547 1.6502508 0.51846594 0.12368099 -0.63121873 -0.073929414
0.049242347 0.08679873 0.16019765 0.067968555 0.060787216 -0.023363665 0.14556836 -0.8313925
0.04430477 -0.66033185 0.083441846 -0.43897238 -0.021472877 -0.45059463 -0.052258864 -0.44742602
-0.058900446 -0.019049358 1.8380845 0.15938723 -0.09594856 0.9791617 -0.044201877 -0.14331974
-0.03312729 0.054524202 -0.3929451 0.09411125 -0.39006022 -0.21424599 0.32945392 0.2791097
0.00062971475 -0.040289924 -1.1111383 -0.0056987647 -0.17662634 -0.19918346 0.06674657 1.6820068
-0.41717908 -0.34971562 -0.48869509 0.19321151 -0.1986448 0.008450894 0.04147243 -0.3404375
0.4451685 0.22805126 0.68882596 0.02406304 0.18534766 -0.04571766 0.06565398 0.0033541622
-0.06542581 -0.5066669 -1.7847627 -0.022412915 0.102198794 -0.2346272 0.1689299 -0.2564802
0.103316456 0.21354215 0.85766494 0.21743919 -0.16957931 -0.096154444 -0.2935889 -0.42686513
-0.650076 0.34768537 -0.08685859 -0.78469896 0.071252696 0.029681 -0.49609205 -0.05774731
-0.04911542 0.097913995 0.32743043 0.7000182 0.0020334655 0.10569146 0.18270226 -0.25048307
00000000: 1769 e83e bcf8 45bd 3669 263f 0fbb 063d
00000010: 16a3 893d c0f5 ed3e e3a7 1d3e e376 4bbd
00000020: c5e5 e0bd 8edc f6be 9151 17bf c71a 9a3b
00000030: e3e6 62be 6717 ffbc 888f f83c 89bb 29be
00000040: 0297 31be d25e 5ebf 37cf 153e a336 3d3f
00000050: e7fa b63e 489f 5c3c 1817 113e af24 313e
00000060: ab03 d73e 0f5b dbbe a684 653e e03f 84bc
00000070: 6b7e 18bf 6fef 58be faa0 14bd 2ba6 fd3d
00000080: 402a b5bf 6ba1 403e 7e06 acbd 1610 853d
00000090: ee4b 53be 4bcc 9f3e 2af9 fc3d 251a ba3d
000000a0: b365 96bf f1ba fa3d d935 093f a8f1 b43e
000000b0: ad6b 803d d85e 48bf 86c1 133f 7a98 a43f
000000c0: aec9 c2be ceb9 babe 3b27 1cbe cc3c d53e
000000d0: 775e 6cbd cada 58bd abae 983e 9a7a 80bd
000000e0: 433e 9a3e ead8 84be b014 3ebe 07bc 86bd
000000f0: 3aa7 783d 9597 36be 5d26 d6be f0f5 dcbe
00000100: 1a34 d9bd b12f bb3e 21ff 26bc 263b a83c
00000110: 45c2 9dbd 8d2b dcbd 03f7 77bd 9629 83be
00000120: c701 9f3a f170 a53e 5684 46be 695a f0bd
00000130: 9174 9d3e 8e9f 77bf da18 853e 2cd6 2ebe
00000140: 7537 5fbf a858 9a3e a98d 27bf 80f6 063b
00000150: 3879 4ebe 1873 913c d8cd 8e3e c4a0 dabe
00000160: c4e3 7bbe 9824 53be 4523 f3be ecad 2f3e
00000170: 540e 1abc 5f9e 0abc 5f28 263f 9138 9dbf
00000180: 33a7 94bd b170 003e 0dfe 4b3f 74e2 7abc
00000190: b068 21be 2a35 183d 0e75 c33f 8298 2ebe
000001a0: 3da7 ca3e ca4b dbbd 390b afbe 7cad 08bc
000001b0: 657f cc3e 2f7e f33e 3045 203d e777 993e
000001c0: 1e5f 40be 6b27 183f a686 4f3e cce6 cabd
000001d0: c5cd edbc 3962 cf3d 1203 5e3e e805 d3bd
000001e0: e9a4 273e 17f9 8d3f 9192 8e3c d65c e3be
000001f0: 05f2 6b3f 9687 46be 0c56 7ebd 5aa5 ecbe
00000200: 950d 363c f96e 6a3d c636 78bd bc22 43bc
00000210: 1051 35bf a058 46be c59f e53b 98e6 9c3e
00000220: ef53 e2be a6ef 8c3e 5ba3 233f c08f 793e
00000230: 8400 7c3e 8295 f93c 278b 21bf 95cf 07bf
00000240: 87c8 843d 91c1 4b3e 9edb 4cbe 87c2 493e
00000250: f7a4 56bd 77dd 193f 3dd8 86be 2c26 6bbd
00000260: 3698 b03e 18f5 c43c dae9 cfbe 89e4 59bc
00000270: 8c8b c0be a135 de3d a116 45bd a8f6 9a3e
00000280: 910a bf3d d64d de3f 675b b93e 6b3b d33f
00000290: 2fba 043f 754c fd3d 8d97 21bf 4e68 97bd
000002a0: 58b2 493d 88c3 b13d da0a 243e 1933 8b3d
000002b0: 04fc 783d 2865 bfbc df0f 153e 24d6 54bf
000002c0: eb78 353d 820b 29bf 8fe3 aa3d fdc0 e0be
000002d0: e3e7 afbc 57b4 e6be 640d 56bd 0615 e5be
000002e0: 9841 71bd 660d 9cbc 5a46 eb3f 6836 233e
000002f0: ae80 c4bd 57aa 7a3f 070d 35bd 69c2 12be
00000300: 7bb0 07bd c554 5f3d 1a30 c9be 66bd c03d
00000310: f9b5 c7be 4d63 5bbe 2fae a83e 77e7 8e3e
00000320: 7113 253a 0c07 25bd c839 8ebf b4bc babb
00000330: 89dd 34be c0f6 4bbe 6db2 883d 004c d73f
00000340: 7f98 d5be ed0d b3be 3e36 fabe 3dd9 453e
00000350: 8b69 4bbe 9e75 0a3c ffde 293d d34d aebe
00000360: 20ed e33e 4586 693e e656 303f da1f c53c
00000370: c7cb 3d3e 7142 3bbd 9875 863d 81d1 5b3b
00000380: f8fd 85bd ecb4 01bf 1b73 e4bf 4a9b b7bc
00000390: 9a4d d13d 1d42 70be f6fb 2c3e 5f51 83be
000003a0: 9497 d33d cbaa 5a3e ee8f 5b3f 61a8 5e3e
000003b0: 33a6 2dbe 9fec c4bd 4951 96be 118e dabe
000003c0: 616b 26bf d103 b23e ebe2 b1bd 08e2 48bf
000003d0: efec 913d 9225 f33c c7ff fdbe 7188 6cbd
000003e0: 402d 49bd 2287 c83d f6a4 a73e 6534 333f
000003f0: e443 053b c474 d83d 4d16 3b3e 513f 80be

onnx::MatMul_19 f4 [256, 128]
0.041013677 -0.04765009 0.06555654 0.16231582 -0.102569014 0.057975903 0.48797402 0.119986884
0.29121485 -0.070553266 0.34525344 0.16716681 -0.12197176 0.04684142 -0.032548252 0.24780175
0.07858354 -0.11660556 0.15552507 -0.03450221 0.42690122 -0.1082026 -0.1145302 -0.18252313
-0.056355495 0.6587059 0.03588037 -0.07440829 -0.008048102 -0.10293045 0.2283063 0.21011432
0.22000286 -0.08433199 0.075659655 -0.043271646 -0.086508915 0.020553453 -0.26232865 0.60484844
0.19277586 0.21526536 -0.014199123 -0.0066988766 0.18250178 0.04101467 0.12190823 0.17367224
0.30455518 0.062138468 -0.12802185 0.13588586 0.07583755 0.17268738 -0.06578202 0.094862655
-0.0030557374 0.23616925 -0.054921556 -0.023635756 -0.055844493 0.13091527 0.096139036 0.16938785
-0.0630866 0.17599437 -0.07166345 -0.25178674 -0.17019664 -0.14017063 0.057012204 0.20522846
0.056580834 -0.033603482 0.06057038 0.03507051 0.107093446 0.105738826 -0.09220342 0.2021309
-0.14102434 0.23537163 0.039153654 0.0959797 -0.12613052 -0.09453533 0.079661146 0.06657595
-0.08588477 0.067313045 0.088601194 0.023471626 -0.07548452 -0.20747909 -0.3470654 -0.1313192
0.077172786 -0.13435261 -0.07698763 -0.10075228 -0.19128574 0.09137293 -0.046364482 0.088589825
0.27282527 -0.12162376 0.19236723 0.14396021 0.020703575 -0.10395559 -0.30948508 0.09059558
-0.085093774 -0.11520796 -0.049275905 -0.39244115 0.16192411 -0.2614677 0.10250763 -0.0065965303
-0.009704623 0.3368157 0.007964342 -0.044107273 0.15707324 0.2658416 -0.16674301 0.12941071
-0.23014332 0.11942327 -0.41246003 0.08549879 0.022094792 0.15583387 0.08102577 -0.08464465
0.051304314 0.1273401 -0.08069128 0.05978008 -0.15697715 0.3781847 -0.056216687 0.019113695
-0.0030367912 0.0014554572 0.041488867 0.13944475 0.3083763 -0.027710864 -0.018932445 0.014955057
0.06415936 0.064394236 0.025189038 0.043713424 0.1906489 -0.3503801 0.19854248 0.06561624
0.067218386 0.10717363 0.2092558 -0.12340775 -0.17115216 0.040558673 0.18465401 0.3066475
0.07029629 0.078422554 -0.04842412 -0.026675586 -0.098734856 0.030267509 -0.011337388 -0.11915542
-0.022591768 -0.3246112 -0.13087626 0.059454344 0.08343208 0.040206026 0.0014141701 0.09080498
-0.0530653 -0.0879281 -0.01713941 0.013878757 0.17071235 0.24899535 0.10075834 0.32988796
0.065260455 -0.0069964984 0.044619016 -0.157487 0.12215561 -0.13433032 -0.10639794 -0.0010915755
0.021299887 0.1116583 0.1017701 0.08466971 -0.10606456 0.09651992 -0.013832332 -0.68130183
-0.03275046 -0.07111093 0.106868476 0.012103414 0.32811671 -0.14868152 0.12821272 -0.1706569
0.107380554 0.10918706 -0.07287765 0.033743825 -0.019503098 0.06904799 0.42748103 0.16828568
-0.27814654 0.012940176 0.106633484 -0.120245874 0.12294796 0.055593614 -0.017129706 -0.014354921
0.16182403 0.1923924 0.17405485 0.052898344 -0.040723346 0.19169483 -0.03035182 -0.101588175
0.0348581 0.05046839 0.16006139 0.14766611 0.058564726 -0.024383226 -0.05376551 -0.02019322
0.0133155715 -0.058582995 0.04421868 0.02390637 0.036871303 -0.14771956 -0.08377751 0.10533939
00000000: f5fd 273d be2c 43bd 8242 863d 1e36 263e
00000010: b40f d2bd 2478 6d3d bbd7 f93e afbb f53d
00000020: 1d1a 953e 3b7e 90bd 0fc5 b03e c72d 2b3e
00000030: 55cc f9bd cadc 3f3d 5151 05bd bebf 7d3e
00000040: 68f0 a03d e5ce eebd f741 1f3e 3052 0dbd
00000050: cc92 da3e 5399 ddbd cf8e eabd 58e7 3abe
00000060: 05d5 66bd f3a0 283f 4bf7 123d 6063 98bd
00000070: 30dc 03bc 33cd d2bd 20c9 693e 3528 573e
00000080: 6e48 613e 40b6 acbd 73f3 9a3d 9c3d 31bd
00000090: 962b b1bd b75f a83c f14f 86be 59d7 1a3f
000000a0: 0967 453e 866e 5c3e 70a3 68bc 4082 dbbb
000000b0: bfe1 3a3e 00ff 273d 06ab f93d 23d7 313e
000000c0: a8ee 9b3e e884 7e3d 2918 03be aa25 0b3e
000000d0: b850 9b3d f6d4 303e b9b8 86bd 5a47 c23d
000000e0: c442 48bb 5ad6 713e 6df5 60bd c69f c1bc
000000f0: 32bd 64bd a70e 063e 8be4 c43d 0274 2d3e
00000100: 8c33 81bd de37 343e 49c4 92bd 31ea 80be
00000110: 0748 2ebe e488 0fbe a185 693d 6927 523e
00000120: 4ec1 673d cea3 09bd a618 783d 18a6 0f3d
00000130: cf53 db3d 998d d83d 26d5 bcbd 67fb 4e3e
00000140: af68 10be 4305 713e 955f 203d 0191 c43d
00000150: 5c28 01be bd9b c1bd 6225 a33d f958 883d
00000160: 5be4 afbd 6cdb 893d 8b74 b53d 9147 c03c
00000170: a197 9abd 6675 54be 8eb2 b1be 8a78 06be
00000180: c40c 9e3d bb93 09be b1ab 9dbd 3657 cebd
00000190: 69e0 43be bb21 bb3d afe8 3dbd 956e b53d
000001a0: c1af 8b3e e115 f9bd eafb 443e 4e6a 133e
000001b0: 8b9a a93c abe6 d4bd d474 9ebe 2d8a b93d
000001c0: a545 aebd 27f2 ebbd 88d5 49bd 0cee c8be
000001d0: 6fcf 253e 18df 85be 85ef d13d b527 d8bb
000001e0: 2400 1fbc 1c73 ac3e df7c 023c d4a9 34bd
000001f0: cfd7 203e 641c 883e aebe 2abe 3e84 043e
00000200: b1aa 6bbe 3094 f43d f62d d3be fd19 af3d
00000210: 2300 b53c ea92 1f3e d7f0 a53d 2d5a adbd
00000220: 7924 523d 7165 023e 7841 a5bd f5db 743d
00000230: 9ebe 20be 6da1 c13e 7843 66bd 5394 9c3c
00000240: e704 47bb 0ac5 be3a 3bf0 293d 9bca 0e3e
00000250: 80e3 9d3e e501 e3bc 3718 9bbc 0e06 753c
00000260: fc65 833d 20e1 833d 3e59 ce3c d90c 333d
00000270: 7739 433e 0565 b3be b84e 4b3e cf61 863d
00000280: cba9 893d d97d db3d 2747 563e 34bd fcbd
00000290: 8342 2fbe da20 263d f115 3d3e e700 9d3e
000002a0: 80f7 8f3d 019c a03d 5f58 46bd c286 dabc
000002b0: 8035 cabd 91f3 f73c 74c0 39bc c207 f4bd
000002c0: 5f12 b9bc 7033 a6be 6d04 06be 6686 733d
000002d0: 70de aa3d 13af 243d ad5b b93a f6f7 b93d
000002e0: 005b 59bd a613 b4bd f367 8cbc ba63 633c
000002f0: 38cf 2e3e a3f8 7e3e 635a ce3d 13e7 a83e
00000300: 46a7 853d e242 e5bb 6ec2 363d 4644 21be
00000310: b82c fa3d e38d 09be 2ae7 d9bd 3213 8fba
00000320: 1a7d ae3c 1bad e43d d86c d03d 5067 ad3d
00000330: 6038 d9bd 3cac c53d 01a1 62bc cc69 2ebf
00000340: 5925 06bd 9ba2 91bd dcdd da3d 664d 463c
00000350: eafe a73e f83f 18be 324a 033e afc0 2ebe
00000360: 56ea db3d 779d df3d e140 95bd f736 0a3d
00000370: f6c4 9fbc 0869 8d3d cbde da3e 1553 2c3e
00000380: 3969 8ebe 0803 543c a862 da3d 7843 f6bd
00000390: 24cc fb3d 21b6 633d 9953 8cbc e730 6bbc
000003a0: 33b5 253e 8302 453e 6f3b 323e efab 583d
000003b0: 86cd 26bd a64b 443e 61a4 f8bc 760d d0bd
000003c0: 5ec7 0e3d f1b7 4e3d 22e7 233e c935 173e
000003d0: 91e1 6f3d 55bf c7bc 3939 5cbd 406c a5bc
000003e0: 8e29 5a3c b9f4 6fbd a61e 353d 4bd7 c33c
000003f0: 5d06 173d cc43 17be 8b93 abbd 2ebc d73d

onnx::MatMul_20 f4 [128, 3]
-0.094064385 0.036867 0.112004034 -0.12738433 -0.38246343 -0.15194876 0.0011891694 -0.04924806
0.2722974 0.07379865 -0.18546222 0.17708519 0.13583195 -0.043124117 0.21072511 0.083959594
0.1576917 -0.0333079 0.024453906 0.05625374 -0.16457276 -0.12573843 0.11825451 0.045365162
0.2029872 0.31518218 -0.37342817 -0.114199355 0.14671685 -0.13386711 0.040752042 0.03924532
-0.1435663 0.13604279 -0.06501062 0.094628565 0.029448722 0.015495407 -0.116697155 -0.18645369
-0.0065025724 -0.046884138 -0.041886404 0.12299578 -0.1077283 -0.20204845 -0.17022172 -0.061327174
-0.10050894 0.12213141 -0.022597197 0.08267842 0.14667115 -0.005537022 -0.2590465 -0.08270205
0.06994444 -0.034905788 0.16150293 0.5081511 0.06846377 0.1616805 -0.0066983555 -0.029874004
-0.1042827 -0.0596439 0.22606285 -0.120221056 -0.05346905 0.09591982 0.07766435 -0.010694193
-0.017169045 -0.106798865 -0.08988805 0.36804387 0.12824616 0.015020797 0.04890871 -0.21663254
-0.007172763 -0.02602561 0.07808756 0.08833955 0.13777246 -0.063965596 -0.035786632 -0.34540758
0.08724684 0.12170077 0.09259107 -0.07206404 0.1352227 -0.23933811 0.083830476 0.13662623
0.12989612 0.10727461 0.0054759905 0.16198786 0.06749473 0.017919555 -0.029506724 -0.03455233
-0.15279287 -0.04081681 0.083382584 0.0071959696 -0.09272122 -0.041734945 -0.15345055 0.20983684
-0.10212534 -0.108096704 0.00032904223 -0.42135805 -0.011970464 0.29496196 -0.19626352 -0.61492264
-0.18223876 -0.23039208 0.31862283 -0.015138987 0.34933698 -0.2919317 -0.08379104 -0.003398049
-0.13763584 0.013296229 -0.1328074 0.021010648 -0.0031625167 -0.15059069 -0.046297546 -0.061216403
-0.13972805 0.015315591 -0.023522157 0.16929705 0.0068357848 -0.021456318 -0.12747258 0.18743403
0.15390179 -0.12962617 0.13906777 0.055816785 0.43017688 -0.14163426 -0.04805404 -0.38846895
-0.32439032 -0.13806903 0.13346651 -0.1497954 -0.12218498 0.024483202 -0.17829658 0.16074224
-0.0737778 -0.026384937 -0.14075214 0.07350127 -0.042535968 0.041298304 0.074404165 0.15346006
0.12206693 -0.05116084 -0.13118906 -0.12513699 -0.10507519 -0.0263064 -0.029781336 -0.12697999
0.017959096 0.1812685 -0.0020629617 -0.0858764 -0.23442799 -0.05066351 -0.029241227 0.028270481
-0.0974203 0.08554818 0.05598719 0.06864462 -0.16652426 0.2901196 0.28809166 0.34037086
0.095286876 0.19880974 0.14742921 0.044067197 0.17912868 -0.016947206 0.041349504 -0.13836958
-0.068868935 0.08624587 0.016873622 -0.073035575 -0.100226276 0.0010285756 0.1961898 -0.07464636
-0.07157553 0.11000899 0.110856704 -0.025395663 0.2610732 0.05088486 0.14389996 0.035246044
0.09416349 -0.014075995 0.04628629 -0.05827397 0.14518051 0.10562613 0.037367582 -0.14439265
0.10958909 -0.1325801 -0.2244058 -0.05709074 -0.11082935 -0.09276999 0.10098997 -0.01576562
-0.0009921211 -0.2042911 0.015877422 -0.004438405 0.17027466 0.32531986 -0.06881472 0.14612313
0.13545379 0.007922663 0.08577223 0.097359836 0.00660761 0.18718526 0.016557164 -0.15372209
-0.05993137 -0.06935198 0.11841841 0.05293268 -0.10415648 -0.08419709 0.10031172 0.004887071
00000000: d4a4 c0bd da01 173d 5f62 e53d 0a71 02be
00000010: 3fd2 c3be 7598 1bbe e7dd 9b3a 55b8 49bd
00000020: 916a 8b3e bf23 973d cfe9 3dbe d255 353e
00000030: 8817 0b3e eaa2 30bd 53c8 573e 02f3 ab3d
00000040: ef79 213e dd6d 08bd 8f53 c83c 526a 663d
00000050: c385 28be 93c1 00be 6c2f f23d d2d0 393d
00000060: e0db 4f3e 8f5f a13e fa31 bfbe 5ae1 e9bd
00000070: f13c 163e 7614 09be 9deb 263d b3bf 203d
00000080: 0b03 13be cd4e 0b3e 4a24 85bd 9fcc c13d
00000090: 723e f13c 73e0 7d3c ebfe eebd b7ed 3ebe
000000a0: 8813 d5bb 9509 40bd 1491 2bbd 36e5 fb3d
000000b0: a8a0 dcbd cae5 4ebe 9a4e 2ebe 3432 7bbd
000000c0: a2d7 cdbd 0820 fa3d c21d b9bc 4e53 a93d
000000d0: f630 163e e86f b5bb bea1 84be b15f a9bd
000000e0: 083f 8f3d 5ff9 0ebd 0661 253e 3116 023f
000000f0: bc36 8c3d 938f 253e e17d dbbb 54ba f4bc
00000100: 2b92 d5bd 294d 74bd 057d 673e 7536 f6bd
00000110: 5d02 5bbd 9c71 c43d 7d0e 9f3d b236 2fbc
00000120: 19a6 8cbc 5db9 dabd 3a17 b8bd 3f70 bc3e
00000130: f652 033e ca19 763c 8054 483d ecd4 5dbe
00000140: 7f09 ebbb a933 d5bc 5fec 9f3d 5eeb b43d
00000150: 3914 0d3e 6500 83bd 0195 12bd 43d9 b0be
00000160: 79ae b23d 413e f93d 63a0 bd3d 5096 93bd
00000170: d277 0a3e 0d15 75be 50af ab3d bfe7 0b3e
00000180: 7d03 053e cab2 db3d f06f b33b 25e0 253e
00000190: ad3a 8a3d 08cc 923c 16b8 f1bc be86 0dbd
000001a0: bc75 1cbe 872f 27bd 7dc4 aa3d 2bcc eb3b
000001b0: 9fe4 bdbd 43f2 2abd 2422 1dbe 78df 563e
000001c0: 1727 d1bd ce61 ddbd 4d83 ac39 3ebc d7be
000001d0: c41f 44bc 4105 973e 4ef9 48be 926b 1dbf
000001e0: cc9c 3abe e7eb 6bbe 8822 a33e 8409 78bc
000001f0: 4cdc b23e 1278 95be a39a abbd cdb1 5ebb
00000200: 69f0 0cbe 6dd8 593c aafe 07be 861e ac3c
00000210: 3a42 4fbb 7234 1abe 7fa2 3dbd 0dbe 7abd
00000220: df14 0fbe 3fee 7a3c 8ab1 c0bc 355c 2d3e
00000230: b8fe df3b 29c5 afbc 2c88 02be b5ee 3f3e
00000240: 6e98 1d3e b9bc 04be c867 0e3e 24a0 643d
00000250: 2540 dc3e 9208 11be 50d4 44bd 67e5 c6be
00000260: 7d16 a6be f861 0dbe 72ab 083e f763 19be
00000270: 1e3c fabd ff90 c83c 6193 36be 9d99 243e
00000280: d118 97bd 3925 d8bc 5421 10be d587 963d
00000290: 323a 2ebd 6928 293d 3661 983d a224 1d3e
000002a0: 3afe f93d 078e 51bd 6d56 06be e923 00be
000002b0: a931 d7bd 8580 d7bc fdf7 f3bc 0b07 02be
000002c0: f41e 933c 739e 393e c132 07bb f7df afbd
000002d0: e40d 70be 8a84 4fbd 4c8b efbc 7f97 e73c
000002e0: 4b84 c7bd e233 af3d d352 653d 8d95 8c3d
000002f0: 5685 2abe 8e8a 943e c080 933e 1745 ae3e
00000300: c425 c33d c894 4b3e aff7 163e ce7f 343d
00000310: 826d 373e ded4 8abc 195e 293d c1b0 0dbe
00000320: 280b 8dbd ada1 b03d 8d3a 8a3c ad93 95bd
00000330: 6f43 cdbd 45d1 863a fbe5 483e 31e0 98bd
00000340: 3196 92bd 654c e13d d708 e33d 910a d0bc
00000350: 63ab 853e a56c 503d 835a 133e 285e 103d
00000360: cad8 c03d 019f 66bc b196 3d3d b0b0 6ebd
00000370: 33aa 143e 8352 d83d c00e 193d abdb 13be
00000380: 3f70 e03d 14c3 07be a2ca 65be fbd7 69bd
00000390: 80fa e2bd 31fe bdbd d4d3 ce3d e726 81bc
000003a0: 0f0a 82ba b031 51be 5e11 823c 0a70 91bb
000003b0: 7b5c 2e3e 5390 a63e bbee 8cbd 4da1 153e
000003c0: 66b4 0a3e 0fce 013c 5aa9 af3d 9864 c73d
000003d0: a684 d83b 7ead 3f3e e4a2 873c 5369 1dbe
000003e0: 997a 75bd 6908 8ebd 5a85 f23d f0cf 583d
000003f0: fe4f d5bd 866f acbd 3b70 cd3d b923 a03b
