logs/limx_arm/SF_TRON1A/exported/policies/policy.pt (torch, 763858 bytes, 8 tensors)

weight f4 [512, 44]
0	0x3daf5737	0.08561557
1	0xbe10da46	-0.14145765
2	0xbe89ee36	-0.26939553
3	0xbe1a69de	-0.15079448
4	0x3ef48dcd	0.47764435
5	0x3f1b2b52	0.60612977
6	0xbfa95d26	-1.3231552
7	0xbf3dbe37	-0.7411837
8	0x3ea7938d	0.3272976
9	0x3ea283c8	0.31741166
10	0x3ece0e08	0.4024508
11	0x3de0f5b6	0.10984366
12	0xbe2e509e	-0.1702294
13	0x3e04518b	0.12921731
14	0x3f65ef89	0.89818627
15	0x3e922e15	0.28550783
16	0x3e4c12c4	0.19929034
17	0xbef96323	-0.48708448
18	0xbcfcb923	-0.030849999
19	0x3eed7f7d	0.46386328
20	0xbf231990	-0.6371088
21	0xbc743f1a	-0.014907623
22	0x3ec542f2	0.38527638
23	0xbed08348	-0.4072516
24	0xbec4f6c7	-0.38469526
25	0xbe10edb1	-0.14153172
26	0x3ce82200	0.028336525
27	0xbcc90f41	-0.024543406
28	0x3c708188	0.01467932
29	0x3dadb901	0.08482552
30	0xbd08f953	-0.0334409
31	0xbd03e0a1	-0.032196645
32	0x3cd24276	0.025666457
33	0xbdc5cced	-0.09658227
34	0xbeaf5724	-0.3424617
35	0xbde70272	-0.11279763
36	0xbe9532cf	-0.29140326
37	0xbdfaa721	-0.122389086
38	0xbe8b0c79	-0.27157953
39	0x3ee6002b	0.44922003
40	0xbda50607	-0.0805779
41	0x3e6f47ba	0.23367205
42	0xbe4a9b82	-0.19785884
43	0xbd8b3490	-0.06797135
44	0x3d357f2b	0.04431073
45	0xbe29a43c	-0.16566557
46	0x3da9a004	0.08282474
47	0xbe083b43	-0.13303857
48	0x3f12d1c1	0.5735131
49	0xbea09867	-0.31366274
50	0xbd95aa0e	-0.07307826
51	0xbef3ff55	-0.4765574
52	0xbe957247	-0.2918875
53	0x3edecc17	0.43515083
54	0x3e915a4e	0.2838921
55	0xbfce7409	-1.6129161
56	0xbe3c55ff	-0.1839218
57	0xbed5ebd6	-0.4178149
58	0x3f158d94	0.58419156
59	0xbfa17887	-1.2614907
60	0x3e0cf157	0.13763939
61	0x3ed00c93	0.40634593
62	0x3f792cc5	0.9733394
63	0xbea38420	-0.3193674
64	0xbe6842c1	-0.22681715
65	0xbf3d9493	-0.7405483
66	0x3f60da05	0.8783267
67	0xbe7bcd07	-0.2458993
68	0x3da318b7	0.07963698
69	0x3cb5ad59	0.022177385
70	0xbd12686c	-0.035744116
71	0x3cb7e68e	0.022448804
72	0xbcf7ee6e	-0.03026506
73	0xbda5a0bf	-0.080873005
74	0xbdce7cd5	-0.100824036
75	0xbbff881d	-0.0077982084
76	0xbd904f11	-0.07046331
77	0xbda09c4e	-0.07842313
78	0x3d84652d	0.0646461
79	0x3e07cc9e	0.13261649
80	0x3de32e1d	0.1109278
81	0x3d640a1c	0.055673704
82	0x3e33767b	0.17525665
83	0xbe30f496	-0.17280802
84	0x3db7ae8b	0.08968838
85	0xbe381263	-0.17975764
86	0x3e8105f3	0.2519985
87	0x3e110d1d	0.14165159
88	0x3e690f97	0.22759853
89	0x3c9b031f	0.018922387
90	0x3f2bc934	0.67103887
91	0xbe434834	-0.19070512
92	0x3e76a3b1	0.24085881
93	0xbe06377b	-0.13107102
94	0xbf91e435	-1.1397768
95	0x3e848be9	0.25887993
96	0xbe2786d4	-0.16360027
97	0x3ebc9380	0.36831284
98	0x3e3b84ab	0.18312328
99	0xbee56d86	-0.44810122
100	0xbd1d61c4	-0.038423315
101	0x3d57c935	0.05268212
102	0xbf137667	-0.5760254
103	0xbee934ae	-0.45548004
104	0xbe57faae	-0.2109172
105	0xbe96303f	-0.29333684
106	0x3d5e0243	0.054201376
107	0x3e4c1393	0.19929342
108	0xbe6f6078	-0.23376644
109	0x3ed20891	0.4102216
110	0xbf5bbe33	-0.85837096
111	0x3eab1f11	0.3342214
112	0xbddd68c1	-0.10810996
113	0xbda87f81	-0.082274444
114	0x3dc6e2dd	0.097112395
115	0xbc860930	-0.016361803
116	0xbc7e9c5c	-0.015540209
117	0xbcbb8ea2	-0.022895161
118	0x3d86a3bd	0.06574199
119	0x3ca2ed3f	0.019888518
120	0x3d3f73c8	0.046741277
121	0x3f1ab554	0.60432935
122	0xbe7b2fc2	-0.24529937
123	0xbe9af2ae	-0.30263275
124	0xbe292c11	-0.16520716
125	0xbd398ad3	-0.04529841
126	0xbdffaab1	-0.12483729
127	0x3f115c55	0.5678151
128	0xbda5dd42	-0.08098842
129	0xbe53ddd2	-0.20690086
130	0xbe185d53	-0.1487935
131	0xbd8eb5fa	-0.06968303
132	0x3e2c78a6	0.16842899
133	0x3ea1334d	0.31484452
134	0x3e687836	0.22702107
135	0xbb8ad263	-0.004236506
136	0x3f245fc2	0.64208615
137	0xbe92f99c	-0.28706062
138	0x3e89e909	0.26935604
139	0x3f81bf34	1.0136476
140	0xbd3b9ccb	-0.045803826
141	0xbf3d5ec5	-0.7397273
142	0xbec0a1a2	-0.37623316
143	0x3dbd2bce	0.09236871
144	0xbf2cee99	-0.6755157
145	0xbd2bcd1a	-0.041943647
146	0x3e69714b	0.22797124
147	0x3f25bfc7	0.64745754
148	0x3e1bb9eb	0.15207641
149	0xbec7c522	-0.39017588
150	0xbe9ad1a9	-0.30238083
151	0x3f222017	0.63330215
152	0xbd1b150d	-0.037861872
153	0x3e7f3dd8	0.24925935
154	0xbee1c5cc	-0.4409622
155	0x3db43878	0.08799833
156	0x3dbcbb32	0.09215392
157	0x3e0c4907	0.13699733
158	0xbdb39a33	-0.087696455
159	0xbda535f2	-0.0806693
160	0x3e02aa46	0.12760267
161	0x3d102f75	0.03520151
162	0xbe5e04cd	-0.21681519
163	0xbc355a9f	-0.011068969
164	0x3d542b23	0.05179895
165	0xbeaeac30	-0.34115744
166	0xbe8a4e1b	-0.27012715
167	0xbdbeb005	-0.09310917
168	0xbe360fc9	-0.17779459
169	0x3c951e47	0.018202914
170	0x3c23113a	0.009952838
171	0x3ebd24e4	0.36942208
172	0x3d9fcd49	0.07802827
173	0x3e5c1994	0.21494132
174	0x3bb66d50	0.0055672303
175	0x3e136e04	0.14397436
176	0xbd96be4f	-0.07360517
177	0xbd7699a4	-0.060205117
178	0xbd0c3bda	-0.034236766
179	0xbe9afcb4	-0.30270922
180	0xbcad7415	-0.021173516
181	0x3f3a6959	0.72817
182	0xbea7650d	-0.32694283
183	0xbe5be705	-0.21474846
184	0x3dead188	0.11465746
185	0x3eb3ab15	0.35091463
186	0x3ebd5076	0.3697545
187	0x3da846e1	0.08216644
188	0x3f126a0c	0.57193065
189	0xbf0e4352	-0.5557147
190	0x3ea2a9db	0.31770214
191	0x3e6d6c98	0.23185956
192	0x3e171113	0.14752607
193	0x3dbe5cde	0.09295057
194	0xbe0a448d	-0.13502713
195	0x3d6329a4	0.055459633
196	0xbe27c011	-0.16381861
197	0xbeecb3e3	-0.46230993
198	0x3e6a03c4	0.22852999
199	0xbcc333d3	-0.023828423
200	0x3d0e969f	0.034811612
201	0xbdce4e0d	-0.10073481
202	0xbd14837e	-0.036258213
203	0x3be1e71f	0.006894007
204	0xbe0ff1f0	-0.14057136
205	0x3d8dbf20	0.0692122
206	0x3d54a4ba	0.051914908
207	0x3e01b76f	0.1266763
208	0x3cbddf75	0.023177842
209	0xbf4ec597	-0.8077025
210	0xbe2e7214	-0.17035705
211	0x3d6a613c	0.057221636
212	0xbe2dad7d	-0.16960712
213	0xbe4a44c5	-0.19752796
214	0x3de1e1b4	0.110293776
215	0x3eada397	0.33913872
216	0xbd5bd3d9	-0.05366883
217	0xbf27dc39	-0.6557041
218	0x3d18731a	0.037219144
219	0xbf869e02	-1.051697
220	0xbdd2027d	-0.10254381
221	0x3cce8f48	0.025214806
222	0xbf3e575e	-0.7435206
223	0xbef73310	-0.48281145
224	0xbe77ddef	-0.24205755
225	0x3e5202c6	0.2050887
226	0xbecf24d1	-0.40457776
227	0x3dad4abf	0.08461522
228	0xbe5a4c93	-0.21318273
229	0x3e3aa627	0.18227445
230	0x3f0d6889	0.55237633
231	0x3abc8cd8	0.0014385236
232	0x3deca5dc	0.11555073
233	0xbeca1497	-0.39468834
234	0x3f6373cc	0.88848567
235	0xbd615040	-0.055008173
236	0x3f1999d1	0.6000033
237	0x3c89072f	0.016727058
238	0x3f53b469	0.8269716
239	0xbf0451ed	-0.5168751
240	0xbd1c97d8	-0.038230747
241	0xbf0306d0	-0.5118227
242	0x3f408d68	0.7521577
243	0xbec0cf61	-0.37658218
244	0xbd96b10b	-0.07357987
245	0xbd8cba11	-0.06871427
246	0xbe26d29b	-0.16291277
247	0xbcae0140	-0.02124083
248	0xbd386864	-0.04502143
249	0x3e4770b8	0.19476593
250	0xbcbb2dab	-0.022848925
251	0x3d8511f7	0.06497567
252	0xbdde81e3	-0.10864618
253	0x3ddcf26e	0.10788427
254	0xbeb353d4	-0.35024893
255	0xbe4251fd	-0.18976589

bias f4 [512]
0	0xbe2df3d2	-0.16987541
1	0x3c70cd2d	0.014697355
2	0xbe11a3a4	-0.1422258
3	0x3db830be	0.08993672
4	0xbe440aff	-0.1914482
5	0x3cecaec1	0.028891923
6	0x3de06143	0.10956051
7	0xbbb3a904	-0.0054827947
8	0xbda4d1c0	-0.08047819
9	0x3d32f43c	0.04368995
10	0xbe232abd	-0.15934272
11	0x3e437f78	0.19091594
12	0x3dad4784	0.08460906
13	0xbe802604	-0.25029004
14	0xbecb4c5e	-0.397067
15	0x3e47ab5d	0.19498964
16	0xbd83b038	-0.064300954
17	0xbe099197	-0.13434444
18	0xbd818d36	-0.06325762
19	0xbd566b9d	-0.05234872
20	0x3d2b20b7	0.041779246
21	0xbe4733ab	-0.19453304
22	0xbd2edbc1	-0.042690042
23	0xbeb5c32e	-0.35500473
24	0x3e57228c	0.21009272
25	0xbe60daf6	-0.21958527
26	0xbe10144b	-0.14070241
27	0x3e4fc57e	0.20290181
28	0x3c57ba73	0.013167012
29	0xbe4584f5	-0.19289
30	0xbe4693c5	-0.19392307
31	0xbe7e7244	-0.24848276
32	0xbe8d53a8	-0.27602887
33	0x3d1b95c5	0.03798463
34	0xbc7cd4a9	-0.0154315615
35	0x3c9871d2	0.018608961
36	0x3e9d840a	0.307648
37	0xbe546855	-0.20742925
38	0xbe236f45	-0.15960415
39	0xbd5639c6	-0.05230119
40	0xbe4950eb	-0.19659774
41	0x3d83f67d	0.06443498
42	0xbe177483	-0.1479054
43	0xbe55340f	-0.2082064
44	0x3e13e718	0.14443624
45	0x3dc063ad	0.09394012
46	0xbdabb592	-0.08384241
47	0xbe91b981	-0.2846184
48	0xbdf63976	-0.120226786
49	0xbe855d0c	-0.26047552
50	0xbeaf8d6a	-0.34287578
51	0x3cdd7963	0.02703542
52	0xbe04878b	-0.1294233
53	0xbef2c011	-0.4741216
54	0xbdd36f17	-0.10323923
55	0x3b9902da	0.0046695294
56	0xbe20258c	-0.15639323
57	0x3c43f232	0.011959599
58	0xbf41ee6f	-0.75754446
59	0xbb1a0331	-0.0023500437
60	0xbe7eaa17	-0.24869572
61	0x3d2e640b	0.042575877
62	0x3e7a2ee7	0.24431954
63	0xbd93ecd6	-0.07222907
64	0xbe32b856	-0.17453131
65	0xbe917807	-0.28411886
66	0xbde24276	-0.11047833
67	0xbe810c6a	-0.25204784
68	0x3cf86ac5	0.03032435
69	0x3cbc7fa9	0.023010092
70	0xbe34f8dd	-0.17673059
71	0x3e56c655	0.20974095
72	0xbe4a9e4c	-0.19786948
73	0x3e188623	0.14894919
74	0x3de451a3	0.111483835
75	0xbe89d769	-0.26922157
76	0xbdb182ef	-0.08667552
77	0x3de0e2fe	0.10980795
78	0x3e4d7adb	0.20066397
79	0xbe19824f	-0.14991115
80	0x3e5a1b69	0.21299519
81	0x3deb0bcb	0.11476859
82	0x3e3d50ce	0.18487856
83	0xbe1c163f	-0.15242861
84	0xbcd155a4	-0.025553532
85	0xbe4bf7ab	-0.19918697
86	0xbc46e761	-0.012140126
87	0x3dc683ae	0.09693085
88	0xbea38a17	-0.31941292
89	0x3df281bb	0.118411504
90	0xbd7dc305	-0.061953563
91	0x3ca1db8d	0.01975801
92	0xbdc56adb	-0.09639522
93	0xbe17418e	-0.14771101
94	0x3d7e4ce7	0.06208506
95	0x3e13922f	0.14411233
96	0x3e658572	0.22414187
97	0x3e4a89de	0.19779155
98	0xbe7d875e	-0.2475867
99	0xbe9f2979	-0.3108633
100	0xbdbb3c73	-0.09142389
101	0xbe8eed6f	-0.27915522
102	0xbca81b46	-0.020520817
103	0x3daa6635	0.08320276
104	0xbde675fd	-0.11252973
105	0x3ea45b2f	0.32100818
106	0x3e50e1b7	0.20398603
107	0x3e4409b2	0.19144323
108	0x3e82b0e7	0.2552559
109	0xbde93a61	-0.11388088
110	0xbdecc6c3	-0.11561348
111	0x3e3b59d3	0.18295984
112	0xbd4d3be2	-0.050105937
113	0xbe2d03c4	-0.16895968
114	0xbee7ce63	-0.45274648
115	0x3d2c9054	0.04212983
116	0xbe12c301	-0.143322
117	0x3e1f97a9	0.15585198
118	0xbd23b9e5	-0.039972205
119	0xbd9994c3	-0.07499077
120	0x3d279918	0.040917486
121	0x3e8e712d	0.2782072
122	0x3e1fe024	0.15612847
123	0xbd4eea88	-0.050516635
124	0x3e2682e6	0.16260871
125	0xbe7164dd	-0.23573633
126	0x3db0a735	0.08625642
127	0xbef0295e	-0.4690656
128	0x3e5cec40	0.21574497
129	0x3dfe0143	0.124025844
130	0x3e367305	0.17817314
131	0xbb146eb1	-0.0022648985
132	0x3dbcec46	0.09224753
133	0x3cf41e1a	0.02979951
134	0xbcf4ddea	-0.029890973
135	0xbef5cf2b	-0.4800962
136	0x3d31082c	0.043220684
137	0x3e522785	0.20522888
138	0xbe96d143	-0.2945653
139	0xbd800792	-0.06251444
140	0x3ea70bdb	0.32626233
141	0x3bd2b72e	0.006430528
142	0xbe04f6f4	-0.1298483
143	0xbe1ff0e9	-0.15619244
144	0x3a93e439	0.0011283226
145	0xbe61d39d	-0.2205338
146	0xbb0c367f	-0.0021394787
147	0xbd5e44d3	-0.054264855
148	0xbda53922	-0.08067538
149	0xbdf80ebd	-0.12112186
150	0x3e861d8e	0.26194423
151	0xbe3428e3	-0.17593722
152	0x3d1a60e4	0.03769006
153	0xbd1c877e	-0.038215153
154	0x3e48dddd	0.19615884
155	0xbe30b500	-0.17256546
156	0x3e5ef487	0.21772967
157	0xbe10b346	-0.14130887
158	0x3e6de6f1	0.23232628
159	0x3c9adb3f	0.018903373
160	0x3d5f361e	0.05449497
161	0x3b940391	0.0045170267
162	0xbe852bb5	-0.26009908
163	0xbe18927f	-0.14899634
164	0xbe0487a4	-0.12942368
165	0x3ed09241	0.40736583
166	0x3e00a8d9	0.1256441
167	0x3e9f2e8e	0.31090206
168	0xbdbef5ea	-0.09324248
169	0xbe232335	-0.15931399
170	0x3e3e7c37	0.18602072
171	0xbd6dc874	-0.058052495
172	0x3d88e484	0.06684211
173	0xbe38a37a	-0.18031111
174	0xbe805a5d	-0.25068942
175	0x3e340bc7	0.17582618
176	0xbe6d097d	-0.2314815
177	0xbe01734e	-0.12641641
178	0x3d3b8412	0.04578025
179	0xbe09330e	-0.13398382
180	0xbdddf5a0	-0.10837865
181	0xbe52c268	-0.20581973
182	0x3e669666	0.2251831
183	0xbddc807b	-0.10766693
184	0x3d1b504f	0.037918385
185	0xbdc911a0	-0.09817815
186	0xbb9ce6cb	-0.004788255
187	0xbe38056a	-0.17970815
188	0x3eb0213a	0.3440035
189	0xbd3b07e9	-0.04566184
190	0xbd57e4e7	-0.052708533
191	0x3c8fed79	0.01756929
192	0xbe2a272e	-0.16616508
193	0xbe821d71	-0.25413087
194	0x3c9fb7be	0.019496795
195	0xbe0170be	-0.12640664
196	0x3d8bc96d	0.06825528
197	0xbd92e264	-0.07172087
198	0xbdb18d84	-0.0866957
199	0x3ea3453d	0.31888762
200	0xbdf0b1a3	-0.117526315
201	0xbc62938f	-0.013829126
202	0xbeb6d627	-0.3571026
203	0xbe16f577	-0.14742075
204	0xbe764f6d	-0.24053736
205	0x3cef3a0c	0.029202484
206	0xbe5e44e9	-0.21705975
207	0x3dd9dec1	0.1063819
208	0xbe81e945	-0.25373283
209	0xbeb02dd0	-0.34409952
210	0xbd49cb9e	-0.04926645
211	0xbe777dba	-0.24169055
212	0xbe5c6bed	-0.21525545
213	0xbe7ccd7a	-0.24687758
214	0x3da37dc3	0.079829715
215	0xbd9b98ef	-0.07597529
216	0xbcade526	-0.02122743
217	0x3d847fee	0.06469713
218	0xbda7692e	-0.08174358
219	0x3e18e73f	0.14931963
220	0xbe3c05f9	-0.18361653
221	0x3e881f7f	0.2658653
222	0x3e42d4ef	0.1902654
223	0xbe90e5f5	-0.28300443
224	0xbca69e6a	-0.02033921
225	0x3e070b3b	0.13187878
226	0xbd230cbf	-0.039807077
227	0x3d0e3b8a	0.03472475
228	0xbccbd7f0	-0.02488324
229	0xbe4498bc	-0.19198889
230	0x3e2f23c6	0.1710349
231	0xbe07a275	-0.13245566
232	0xbe1d3c56	-0.15355048
233	0x3dc65c6b	0.09685596
234	0xbe2f2cc6	-0.17106923
235	0xbdf2b0f8	-0.1185016
236	0xbe1997b9	-0.14999284
237	0x3ea9c04d	0.33154526
238	0xbe30215c	-0.17200226
239	0x3e016cb1	0.12639119
240	0x3e743cf2	0.23851374
241	0x3ddc9e33	0.107723616
242	0xbe7d2072	-0.24719408
243	0x3d4247b5	0.047431666
244	0x3e2d296e	0.16910335
245	0xbd115622	-0.035482533
246	0xbaa6fb38	-0.0012739664
247	0xbec84f22	-0.39122874
248	0xbcb51595	-0.022105018
249	0xbebcb430	-0.36856222
250	0x3d78faf7	0.060786214
251	0x3df5f189	0.1200896
252	0xbe327f34	-0.17431337
253	0x3d9e6c7a	0.07735534
254	0xbd8e73cd	-0.06955681
255	0xbe86038c	-0.2617458

weight f4 [256, 512]
0	0x3ea2f0e7	0.3182442
1	0x3ea1afb7	0.31579372
2	0x3bf5a414	0.0074963663
3	0xbd6bb5ae	-0.05754631
4	0x3d543509	0.05180839
5	0x3e4dca0f	0.2009661
6	0x3ee029c0	0.43781853
7	0x3ea83006	0.3284914
8	0x3ee86e5e	0.45396703
9	0xbe6b8a51	-0.23001982
10	0x3db238d0	0.087022424
11	0x3e7d1c4d	0.24717827
12	0x3dc90ba0	0.098166704
13	0x3b76e4ab	0.0037672918
14	0x3e53abf2	0.2067106
15	0x3f1657a5	0.58727485
16	0x3ecf3d3d	0.4047641
17	0xbe530105	-0.20605858
18	0xbeebbbf3	-0.4604183
19	0xbd92e294	-0.071721226
20	0x3f023943	0.50868624
21	0x3e207212	0.15668514
22	0x3e0aa40b	0.1353914
23	0x3eb33a77	0.35005543
24	0x3ebc3018	0.36755443
25	0xbd8347af	-0.06410157
26	0x3eab5b93	0.33468303
27	0xbe544d38	-0.20732582
28	0x3e59547d	0.21223636
29	0x3d8e1e87	0.069394164
30	0x3ce51fe8	0.027969316
31	0xbd7e02a2	-0.06201423
32	0xbe9bee40	-0.30455208
33	0x3ccd7e40	0.025084615
34	0xbf828107	-1.0195626
35	0xbd734c19	-0.059398744
36	0xbd652bef	-0.0559501
37	0xbe8edf2b	-0.2790464
38	0x3e5fdda1	0.21861888
39	0x3e3cd75d	0.1844153
40	0x3f07f59f	0.53109163
41	0xbdd47652	-0.1037413
42	0xbd7e9cf9	-0.06216142
43	0x3e33b362	0.17548898
44	0x3e76c8ac	0.24099988
45	0x3e6f77fe	0.23385617
46	0xbdc7afe0	-0.09750342
47	0x3c92bcc4	0.017912276
48	0x3e31e490	0.17372346
49	0x3deb4a13	0.11488738
50	0xbd9af437	-0.075661115
51	0xbee95890	-0.4557538
52	0xbbd86c93	-0.00660474
53	0x3e8199a5	0.25312534
54	0xbecf4a65	-0.40486446
55	0xbe3af376	-0.18256935
56	0x3cf09259	0.029366659
57	0x3dd274c7	0.1027618
58	0x3d781e41	0.060575727
59	0x3d6da878	0.058021992
60	0x3d771aaa	0.060328163
61	0xbe3f7fcf	-0.18701099
62	0x3e8d1288	0.275532
63	0xbda7efb0	-0.08200014
64	0x3eabc255	0.335467
65	0xbf2190a6	-0.6311134
66	0x3d37f9c0	0.044915915
67	0x3eca2343	0.39480028
68	0x3eb7ed7d	0.35923377
69	0x3e095afe	0.13413617
70	0xbe44818c	-0.19190043
71	0x3e2f6565	0.17128523
72	0xbd565da9	-0.052335415
73	0x3d2e7598	0.042592615
74	0xbe647c40	-0.22313023
75	0x3e801ace	0.2502045
76	0x3ee1d359	0.44106558
77	0xbd9ff9d4	-0.07811323
78	0xbdec2f83	-0.115325
79	0x3e19b819	0.15011634
80	0xbd5d01c7	-0.053956773
81	0xbd9926b3	-0.074780844
82	0x3e2241c3	0.15845399
83	0x3d95005a	0.07275458
84	0x3cfdd41e	0.030984934
85	0xbd86c08d	-0.06579695
86	0x3dc5cc22	0.09658076
87	0x3dea2168	0.11432153
88	0xbcb2a6f9	-0.021808134
89	0xbd9bd268	-0.07608491
90	0xbe0d4497	-0.13795696
91	0xbd94aacd	-0.0725914
92	0xbeb5a276	-0.3547551
93	0xbe7562ed	-0.23963518
94	0x3dfc6cad	0.12325416
95	0x3cf72a55	0.030171553
96	0xbddb0142	-0.10693599
97	0x3d488bf7	0.048961606
98	0xbdfa504b	-0.12222346
99	0x3dc9ec6b	0.09859546
100	0xbf30f979	-0.69130665
101	0x3e1e4394	0.15455467
102	0xbe5f398e	-0.21799299
103	0xbe296753	-0.16543321
104	0x3d11299e	0.03544008
105	0x3e44dcfe	0.19224927
106	0x3d7bcaf6	0.061472856
107	0xbebb41f4	-0.36573756
108	0xbeb08d6c	-0.34482896
109	0x3e5b6bbc	0.21427816
110	0xbcbf3a24	-0.023343153
111	0x3e9ed91c	0.31025016
112	0xbf089be6	-0.5336288
113	0x3d9e5757	0.077315025
114	0x3ec9826c	0.39357316
115	0xbd77ce04	-0.060499206
116	0x3ef083c3	0.46975526
117	0x3e0b1d75	0.13585456
118	0xbe050164	-0.12988812
119	0x3dd2e08c	0.10296735
120	0xbed31737	-0.4122865
121	0xbea76c75	-0.32699934
122	0xbda0cf5e	-0.07852052
123	0xbd008eed	-0.031386305
124	0x3ec50813	0.38482723
125	0x3db7079a	0.08936997
126	0x3ece7db0	0.40330267
127	0xbc9b96e3	-0.018992847
128	0x3c0a6b7c	0.008448478
129	0x3ea1af08	0.3157885
130	0xbe88c4cc	-0.26712644
131	0x3d8db1e3	0.06918695
132	0xbd99aa46	-0.0750318
133	0xbd20ce9e	-0.039259546
134	0x3e88a652	0.26689392
135	0xbe1b854a	-0.15187564
136	0x3efbc2cc	0.49172056
137	0xbdd3036e	-0.103033885
138	0x3eb5202c	0.35376108
139	0xbefc9f95	-0.493405
140	0x3e197667	0.14986573
141	0x3e7eb16c	0.24872369
142	0xbeb9b71f	-0.36272523
143	0x3ee824e8	0.45340657
144	0x3c6f1251	0.014591769
145	0xbd1ff85d	-0.039055217
146	0x3d827299	0.06369514
147	0xbe409c83	-0.18809704
148	0x3e675a94	0.22593147
149	0x3d80a8ac	0.062821716
150	0x3e28568d	0.16439267
151	0xbe5af2b8	-0.21381652
152	0x3d099701	0.033591274
153	0xbe2a8ee4	-0.16656071
154	0xbea5653c	-0.32303798
155	0xbe885df9	-0.26634195
156	0x3e9194ef	0.2843394
157	0xbe8170e8	-0.25281453
158	0x3e3a9267	0.1821991
159	0x3e3f86f8	0.1870383
160	0x3dbb3157	0.0914027
161	0x3e0ba507	0.13637172
162	0xbc1c34c2	-0.009534063
163	0x3ea08942	0.3135472
164	0xbe9122dc	-0.28346908
165	0x3e22a90b	0.15884797
166	0xbda45e6d	-0.08025823
167	0xbdcd83b9	-0.1003489
168	0xbe08bc3a	-0.13353053
169	0x3d3230c1	0.043503527
170	0xbe02f2ff	-0.12788008
171	0xbebe314a	-0.3714698
172	0x3d9bc7e8	0.076064885
173	0x3ad3c21a	0.0016155869
174	0xbe2419d8	-0.16025484
175	0x3e217942	0.15768912
176	0x3e6d7e8d	0.23192807
177	0xbf0b73cf	-0.54473585
178	0xbc6ac1e1	-0.014328451
179	0xbe5a4cd9	-0.21318378
180	0xbd080f80	-0.033217907
181	0x3e319601	0.17342378
182	0xbdd4fd49	-0.10399873
183	0x3eab06ad	0.3340353
184	0xbe05ac36	-0.13053975
185	0x3e53618c	0.2064268
186	0xbe3907e6	-0.1806942
187	0x3e61cc9b	0.22050707
188	0xbe508064	-0.20361477
189	0x3e8a910c	0.27063787
190	0x3e86b107	0.26306936
191	0x3e0a31b1	0.13495518
192	0xbdb95f12	-0.09051336
193	0x3b31ca39	0.002712859
194	0xbdde514f	-0.10855352
195	0x3e4264d4	0.18983775
196	0xbd6fd17f	-0.0585494
197	0xbe9cde79	-0.30638483
198	0x3f01580b	0.5052497
199	0x3ef19b60	0.47188854
200	0x3d88b304	0.066747695
201	0xbdfe30d5	-0.12411658
202	0xbe06c42c	-0.13160771
203	0x3b52dcbe	0.003217503
204	0x3c11fa8a	0.008909831
205	0xbdc2cfd6	-0.09512298
206	0x3d9f2682	0.07771017
207	0xbe33c683	-0.17556195
208	0xbd026b66	-0.031840704
209	0x3e19dcfe	0.15025708
210	0x3e14d64a	0.1453487
211	0xbd32f9cc	-0.043695256
212	0xbe33bb1d	-0.17551847
213	0xbd0080c3	-0.031372797
214	0xbcc57819	-0.024105119
215	0xbd41de1e	-0.047330968
216	0x3de4434c	0.11145648
217	0x3e17e0ae	0.14831802
218	0xbe9ddeb3	-0.3083397
219	0x3d8f8089	0.07006938
220	0xbdb78aa0	-0.089619875
221	0xbe340607	-0.17580424
222	0x3e02a90b	0.12759797
223	0x3dc3b399	0.0955574
224	0x3efdbb7a	0.49557096
225	0x3eab2fee	0.33435005
226	0xbcdf99f9	-0.0272951
227	0xbe6f3981	-0.2336178
228	0x3e9db063	0.30798635
229	0xbda52750	-0.08064139
230	0x3d65d102	0.05610753
231	0xbc85455c	-0.016268425
232	0x3e1428da	0.14468709
233	0x3ed69b10	0.41915178
234	0x3e2ba1b2	0.167609
235	0x3d672a77	0.056436982
236	0x3ddef001	0.10885621
237	0xbe266861	-0.16250755
238	0x3ca81395	0.02051715
239	0xbeca2983	-0.39484796
240	0x3d108181	0.035279755
241	0x3e9b95c5	0.30387703
242	0xbcb85547	-0.0225016
243	0xbe097005	-0.13421638
244	0x3e08ff71	0.13378693
245	0x3e42a0ea	0.19006696
246	0xbe5d31bf	-0.21601008
247	0x3e0685f2	0.13137034
248	0xbed450ff	-0.41468045
249	0xbd14b38b	-0.036304038
250	0xbc6d9956	-0.01450189
251	0x3f2e8686	0.68174016
252	0x3ede1862	0.43377978
253	0xbe531360	-0.2061286
254	0x3d0a5ea5	0.033781666
255	0x3ed3919c	0.4132203

bias f4 [256]
0	0x3ca7f66b	0.020503243
1	0xbe1709e3	-0.14749865
2	0xbd8bbb32	-0.06822814
3	0xbd72cd24	-0.05927767
4	0xbd528860	-0.05139959
5	0xbde9d8bb	-0.11418291
6	0x3ca466e6	0.020068597
7	0xbddde2fa	-0.10834308
8	0xbc76f19d	-0.0150722535
9	0xbd32ec7b	-0.043682557
10	0x3d62614e	0.05526858
11	0xbecb12b1	-0.39662698
12	0xbe55c69c	-0.20876545
13	0xbe378fc8	-0.17925942
14	0xbd00be41	-0.03143144
15	0xbda904b8	-0.08252853
16	0x3b993f29	0.0046767187
17	0xbee4de23	-0.44700727
18	0xbe18a188	-0.1490537
19	0xbbd4e5ab	-0.006497105
20	0xbe75078f	-0.23928665
21	0xbe8eca75	-0.27888837
22	0xbeed704f	-0.46374747
23	0xbec47644	-0.3837148
24	0xbd940e16	-0.07229249
25	0x3c6489bb	0.013948853
26	0xbea0993d	-0.31366912
27	0xbeed7551	-0.46378568
28	0xbdaa1d55	-0.08306376
29	0xbe8020c4	-0.25024998
30	0xbb2b073c	-0.0026096841
31	0xbe939b67	-0.288295
32	0xbeb92e9c	-0.36168373
33	0x3d9fb385	0.077979125
34	0xbe42daec	-0.19028825
35	0xbe95ae90	-0.29234743
36	0xbe7b7f25	-0.2456022
37	0xbdadc96b	-0.08485683
38	0x3e097aac	0.13425702
39	0x3dc5f072	0.09665002
40	0xbeb991cc	-0.36244047
41	0xbe1b5119	-0.15167655
42	0xbe83d2e3	-0.2574683
43	0xbe5af379	-0.2138194
44	0xbeb8094c	-0.35944593
45	0xbdca7459	-0.09885473
46	0xbe9c6a72	-0.3054996
47	0x3c686d5c	0.01418623
48	0xbe8e2eae	-0.2776999
49	0x3de110ff	0.1098957
50	0xbe2ada69	-0.1668488
51	0xbe0c8c71	-0.13725449
52	0xbe6fcaf6	-0.23417267
53	0xbe212e8f	-0.15740417
54	0xbe27cc66	-0.16386566
55	0xbd333c9c	-0.043758973
56	0xbd7e0516	-0.06201657
57	0xbe7fde0a	-0.24987045
58	0xbe74b523	-0.23897223
59	0xbe054f6f	-0.13018583
60	0xbe88129c	-0.26576698
61	0xbe0aaa2d	-0.1354148
62	0xbd6e0e71	-0.05811924
63	0xbe03883f	-0.12844943
64	0x3d633bd6	0.055476986
65	0xbda1c000	-0.07897949
66	0xbd8cccda	-0.0687501
67	0x3d312053	0.043243717
68	0xbe843957	-0.25824997
69	0xbe1e5d30	-0.15465236
70	0xbe685bf3	-0.22691326
71	0xbe4f08ad	-0.20218153
72	0xbe0dc4d2	-0.13844612
73	0xbe7ecb8d	-0.24882336
74	0xbdd56e92	-0.1042148
75	0xbeadd714	-0.33953154
76	0xbe9de4a6	-0.30838507
77	0x3d099964	0.03359355
78	0xbdb9063b	-0.090343915
79	0xbc38229e	-0.011238722
80	0xbeaee5a6	-0.34159583
81	0xbe8b72cb	-0.27236018
82	0xbd9bc4c7	-0.07605892
83	0xbe6ca7bb	-0.23110859
84	0xbd7899e7	-0.060693648
85	0xbe194938	-0.14969337
86	0x3b96f347	0.0046066376
87	0x3dd213a3	0.10257652
88	0xbd8b97a0	-0.068160295
89	0xbddea862	-0.1087196
90	0xbf010f2a	-0.50413764
91	0x3df4cca4	0.119530946
92	0xbe001c26	-0.12510738
93	0x3da9c226	0.08288984
94	0xbd98202b	-0.074280106
95	0xbe0d9825	-0.1382757
96	0xbec8fd9d	-0.39255992
97	0xbd5ea387	-0.05435517
98	0x3d3cf52e	0.04613226
99	0x3b809698	0.003924202
100	0x3da15996	0.07878415
101	0xbeb16d92	-0.34653908
102	0xbeca9b44	-0.39571583
103	0x3d0bf9af	0.034173664
104	0x3e64c164	0.22339398
105	0x3d412483	0.04715396
106	0x3dea6737	0.11445468
107	0xbe4d821d	-0.20069166
108	0xbbe1f653	-0.006895819
109	0xbe46caf3	-0.19413356
110	0xbc86d8f2	-0.01646087
111	0xbeabd27d	-0.33559027
112	0xbe85fadd	-0.26167956
113	0xbac1d977	-0.0014789541
114	0xbe2fe30c	-0.17176455
115	0xbe8337a4	-0.25628388
116	0xbec6b73e	-0.38811678
117	0xbd9f776f	-0.07786452
118	0xbe57fa2b	-0.21091525
119	0xbe21c63f	-0.15798281
120	0xbd2fad67	-0.04288998
121	0xbe7fcf7e	-0.24981496
122	0x3e057bb6	0.13035473
123	0xbd542aef	-0.051798757
124	0xbdb1c88a	-0.08680828
125	0xbe9e55cb	-0.3092483
126	0xbe68ae0f	-0.22722648
127	0xbde95d19	-0.1139471
128	0xbea9c129	-0.33155182
129	0xbe52c90f	-0.2058451
130	0xbe09ddb4	-0.1346348
131	0xbe41c31c	-0.18922085
132	0x3e10d48c	0.1414358
133	0x3cd39fef	0.025833098
134	0xbed4bd25	-0.41550556
135	0xbd48dc1d	-0.04903804
136	0xbd44e1e2	-0.04806698
137	0xbd42d5ad	-0.04756706
138	0xbc1b4e5e	-0.009479133
139	0xbe101278	-0.14069545
140	0xbe26e1eb	-0.16297118
141	0xbe1f1f36	-0.1553925
142	0xbe2242d0	-0.158458
143	0xbe4118ba	-0.18857089
144	0xbe6423dc	-0.22279304
145	0xbe1028de	-0.1407809
146	0x3ea058d4	0.3131777
147	0xbdf109f5	-0.11769477
148	0x3cb2da7d	0.021832699
149	0xbe13396c	-0.14377373
150	0xbed160be	-0.4089412
151	0xbcb071ef	-0.021538703
152	0xbd522e51	-0.051313702
153	0xbd862394	-0.06549755
154	0xbe2adf8d	-0.1668684
155	0xbe874ec4	-0.2642728
156	0xbdeaf74f	-0.114729516
157	0xbe3401aa	-0.1757876
158	0xbe9d9dca	-0.30784446
159	0xbbdfce64	-0.0068300236
160	0xbe672e03	-0.22576146
161	0x3e0d0d08	0.13774502
162	0xbe465e50	-0.19371915
163	0x3d964a97	0.07338446
164	0xbdcea0cb	-0.100892626
165	0x3cc65034	0.024208166
166	0xbe3fa5bb	-0.18715565
167	0x3e0a7a38	0.13523185
168	0x3df75bfb	0.12078091
169	0xbce7d35c	-0.028299026
170	0xbe2399d0	-0.15976644
171	0xbc087067	-0.00832758
172	0x3e1d9266	0.15387878
173	0xbe477b94	-0.19480735
174	0xbdf68f0f	-0.12039005
175	0x3c834cb8	0.016027793
176	0xbeaefbaa	-0.3417638
177	0x3d87d121	0.06631685
178	0xbe75e406	-0.24012765
179	0x3d822523	0.063547395
180	0xbecd4aab	-0.4009603
181	0xbd8c27f1	-0.06843556
182	0x3d1853aa	0.037189163
183	0xbea7354a	-0.32657844
184	0xbda31d45	-0.07964567
185	0x3e7cc87e	0.24685857
186	0xbec1ca9e	-0.37849897
187	0x3e9d1d4f	0.30686423
188	0xbd4a2d1e	-0.049359433
189	0xbeacdb8f	-0.3376126
190	0xbe01d97f	-0.12680624
191	0x3e3a296f	0.18179868
192	0x3da44258	0.080204666
193	0x3bba960f	0.005694158
194	0xbe9a6f97	-0.3016326
195	0xbdccec56	-0.10006015
196	0x3e0d5d24	0.13805062
197	0xbbb60875	-0.0055552074
198	0xbdea270c	-0.11433229
199	0x3e09bd8c	0.13451213
200	0x3e90c231	0.28273156
201	0xbebb35bd	-0.36564437
202	0x3c7c9615	0.015416642
203	0xbd6b9421	-0.057514314
204	0x3d4e5365	0.0503725
205	0x3e2ed4d2	0.17073372
206	0xbd4a7217	-0.04942521
207	0xbda8ae5b	-0.08236381
208	0xbd82dbce	-0.06389581
209	0xbddadcfe	-0.10686682
210	0xbd31ac44	-0.043377176
211	0x3d0eb189	0.03483728
212	0xbe15000f	-0.14550804
213	0xbe2df4ca	-0.16987911
214	0x3c8dcc76	0.017309409
215	0x3e04d174	0.12970525
216	0xbdf66026	-0.120300576
217	0xbe4ce045	-0.20007427
218	0x3dbaf213	0.09128203
219	0xbe2f777f	-0.17135428
220	0xbe180bd1	-0.14848258
221	0x3b606be8	0.0034244005
222	0x3e5238f5	0.2052954
223	0x3dd2ee1d	0.10299323
224	0x3dbd9eab	0.09258779
225	0x3d9c344c	0.07627162
226	0xbd5ed085	-0.05439808
227	0xbe445b18	-0.19175375
228	0x3d40825f	0.04699933
229	0xbda6d5dd	-0.0814626
230	0xbce9a85f	-0.028522668
231	0xbdbe4173	-0.09289827
232	0xbeab6e83	-0.3348275
233	0xbd1034db	-0.035206657
234	0xbe112766	-0.14175186
235	0xbebb2925	-0.36554828
236	0xbe8b2f62	-0.27184588
237	0xbe20070e	-0.15627691
238	0xbec17bc7	-0.37789747
239	0xbea86b03	-0.32894143
240	0xbe530eee	-0.20611164
241	0xbd566d97	-0.052350607
242	0x3da4ee2d	0.08053241
243	0xbda9455c	-0.082651824
244	0x3d9fe4b1	0.07807291
245	0xbcdbb9ca	-0.02682199
246	0xbf3f45b6	-0.74715745
247	0x3d52eaa0	0.051493287
248	0xbe73afee	-0.2379758
249	0xbe0ff36f	-0.14057706
250	0xbcece8fa	-0.028919686
251	0xbed7a7a3	-0.42120084
252	0xbe34350c	-0.17598361
253	0xbe87143d	-0.26382628
254	0x3e823ea5	0.2543842
255	0xbdb44ac7	-0.08803325

weight f4 [128, 256]
0	0xbe52bdb8	-0.20580184
1	0xbe71074b	-0.23537938
2	0x3b1580f3	0.0022812455
3	0xbe1a161a	-0.15047494
4	0xbf234547	-0.63777584
5	0xbf035ab5	-0.5131028
6	0xbcf6f5dc	-0.030146532
7	0xbe5ebd91	-0.21752001
8	0xbddfb034	-0.1092228
9	0xbf533b0a	-0.8251196
10	0xbd1f4ea5	-0.03889336
11	0xbe0fcad0	-0.1404221
12	0x3dbf6d1b	0.09346982
13	0xbae8654c	-0.0017730384
14	0xbdc3d9b0	-0.09563005
15	0xbe40c83f	-0.18826388
16	0xbea67c59	-0.32516745
17	0x3e2a6969	0.16641773
18	0x3d1c9e9b	0.038237195
19	0xbd083b3e	-0.033259623
20	0x3dcd87ae	0.100356445
21	0x3ee9d433	0.45669708
22	0xbe0f7eed	-0.14013262
23	0xbdebe4cf	-0.11518251
24	0xbda2c1fe	-0.07947157
25	0xbbf54ddd	-0.0074860887
26	0x3e47c900	0.19510269
27	0x3eb76de4	0.35826027
28	0x3dc7b1d0	0.09750712
29	0xbc4af68f	-0.012387886
30	0xbd1bd9d6	-0.03804954
31	0x3e8f15e3	0.27946386
32	0xbcaca8ed	-0.021076644
33	0xbf543e16	-0.82907236
34	0x3ec2922c	0.38002145
35	0xbd305867	-0.043053057
36	0xbe285574	-0.16438848
37	0x3e3dcce2	0.18535188
38	0xbe148f1d	-0.14507718
39	0xbf2c36eb	-0.672713
40	0xbd3305ab	-0.043706577
41	0xbf5893ee	-0.8460072
42	0xbeac2271	-0.33620027
43	0xbe895666	-0.2682373
44	0xbd55d6af	-0.05220669
45	0xbe8a5f12	-0.27025658
46	0xbeab12d1	-0.33412793
47	0xbeb21ab5	-0.34786
48	0x3d434ffc	0.0476837
49	0xbec0e3e7	-0.37673876
50	0xbed97567	-0.42472383
51	0x3d6c0348	0.057620317
52	0x3c155bc8	0.009116121
53	0x3d6f43b7	0.058414187
54	0xbec9de0f	-0.3942723
55	0xbed75b4b	-0.42061839
56	0x3d91b2f8	0.07114214
57	0xbdc830e6	-0.09774952
58	0xbdaf698d	-0.08565054
59	0xbeca765b	-0.39543423
60	0xbf0fc7ca	-0.5616423
61	0x3dd29dc1	0.102839954
62	0xbd84f9ca	-0.06492956
63	0xbe3e3c27	-0.18577634
64	0x3e9dfac4	0.3085538
65	0xbf3805ae	-0.71883667
66	0xbebf71f3	-0.37391624
67	0x3dfa8ea1	0.122342356
68	0x3e23f900	0.16012955
69	0xbe5cc40b	-0.2155916
70	0xbdc6f986	-0.097155616
71	0xbe064a60	-0.1311431
72	0x3d676dee	0.05650132
73	0xbdd4cef3	-0.10391035
74	0x3c9af8da	0.01891749
75	0xbcb1c27f	-0.021699188
76	0x3e8b5bcb	0.2721847
77	0xbe20ce2f	-0.15703653
78	0xbf02e6ec	-0.5113361
79	0xbeef6ece	-0.46764225
80	0xbdf59849	-0.11991937
81	0xbe36740b	-0.17817704
82	0xbe90b0aa	-0.28259784
83	0xbdea1c04	-0.11431125
84	0x3e3a6bda	0.18205205
85	0xbf6a41b3	-0.915065
86	0xbefd120f	-0.4942784
87	0x3e3fdb13	0.18735914
88	0x3e17276a	0.14761129
89	0xbe412200	-0.18860626
90	0x3d24cc54	0.040233925
91	0x3dd3fcc9	0.10350949
92	0x3eacd6e2	0.33757693
93	0xbf0783ac	-0.5293529
94	0xbedcff08	-0.43163323
95	0xbd0eed38	-0.0348942
96	0x3dcae211	0.099064
97	0x3d082904	0.03324224
98	0xbd3d726e	-0.046251707
99	0xbe81228f	-0.2522168
100	0xbef0f33d	-0.47060576
101	0x3d3d93c2	0.04628349
102	0x3ef6348f	0.48086974
103	0xbf080bc7	-0.5314297
104	0xbf2b24f4	-0.6685326
105	0x3b1d867d	0.002403646
106	0x3d4ebdc2	0.050473936
107	0xbe5258a5	-0.20541628
108	0xbf0b0cee	-0.54316604
109	0xbe7ea034	-0.248658
110	0x3e8c6cff	0.27426907
111	0xbd85a22f	-0.06525075
112	0xbf128c27	-0.57245106
113	0xbd8c21fd	-0.0684242
114	0x3f24706f	0.6423406
115	0x3e2aa711	0.16665293
116	0xbed65b65	-0.41866603
117	0x3d3959f7	0.045251813
118	0x3e3ffe8a	0.18749443
119	0xbe7de18d	-0.24793072
120	0x3d329e21	0.043607835
121	0xbd43225d	-0.047640193
122	0xbe259410	-0.16169763
123	0xbcab3dbe	-0.020903464
124	0x3dfd3045	0.12362722
125	0xbd0b5108	-0.034012824
126	0xbec63deb	-0.38719115
127	0xbe84a7d8	-0.25909305
128	0x3e9e447b	0.3091162
129	0xbe9f5ea8	-0.31126904
130	0x3e37fd7b	0.17967789
131	0xbf2c5103	-0.67311114
132	0x3e18b031	0.14910962
133	0xbebd5637	-0.3697984
134	0xbe9f6835	-0.3113419
135	0xbeb4287d	-0.3518714
136	0xbee1864c	-0.44047773
137	0xbda05346	-0.07828383
138	0xbe485196	-0.19562373
139	0x3e753c2f	0.2394874
140	0x3d22bb23	0.03972925
141	0x3e11c4ad	0.14235182
142	0x3cb7c82c	0.022434317
143	0xbea11773	-0.31463203
144	0xbc40b961	-0.011762948
145	0xbf2ab63d	-0.66684324
146	0xbe418a5a	-0.18900433
147	0xbe86926d	-0.2628359
148	0xbe7b9a12	-0.24570492
149	0x3dc28815	0.09498612
150	0xbe5700e3	-0.20996432
151	0xbe557c0d	-0.20848103
152	0xbef6a351	-0.48171476
153	0xbe818561	-0.25297073
154	0xbddb4947	-0.10707336
155	0xbdd9f98b	-0.106433
156	0x3efac63b	0.48979363
157	0xbedf7b77	-0.43648884
158	0xbe4c8f30	-0.19976497
159	0x3de64648	0.11243874
160	0xbebb1cdf	-0.36545464
161	0xbe56f984	-0.2099362
162	0x3d914519	0.070932575
163	0x3dc88264	0.09790495
164	0xbe64af5d	-0.22332521
165	0xbdd09bdb	-0.10185977
166	0x3d1c326e	0.03813403
167	0xbe5676cd	-0.20943756
168	0x3df9e35a	0.12201567
169	0xbf06f613	-0.5271923
170	0x3c019612	0.007909315
171	0xbefcb831	-0.49359277
172	0xbd118003	-0.035522472
173	0xbe53a74f	-0.20669292
174	0xbe8c9876	-0.27460068
175	0xbe5a9fe8	-0.21350062
176	0xbc4a60a5	-0.012352143
177	0x3e28a521	0.16469242
178	0xbd26002c	-0.040527508
179	0xbe7db6f2	-0.2477682
180	0xbd7aab05	-0.061198253
181	0xbd47d60f	-0.048788127
182	0xbeb0cdbb	-0.3453196
183	0x3e736c0b	0.23771684
184	0xbd9d8416	-0.07691209
185	0x3d663d4e	0.05621081
186	0xbda2d9c2	-0.0795169
187	0xbe9c64f2	-0.30545765
188	0xbea00236	-0.31251687
189	0xbec4c902	-0.38434607
190	0x3eb62fa8	0.35583234
191	0xbef0beaf	-0.4702048
192	0x3e70a21f	0.23499344
193	0xbe3dacd4	-0.1852296
194	0x3ea58a39	0.32332018
195	0xbeb7a77b	-0.35869965
196	0xbe9d560f	-0.3072972
197	0xbf04ad7d	-0.5182722
198	0x3d9ed0d9	0.07754678
199	0x3dc8df2e	0.09808193
200	0x3e4c219f	0.199347
201	0xbe830e1c	-0.25596702
202	0xbeec6d5d	-0.46177188
203	0x3def7eb8	0.116940916
204	0x3e30574c	0.17220801
205	0x3e8db8aa	0.2767995
206	0xbe99c532	-0.3003326
207	0xbdb7135d	-0.0893924
208	0xbe34b3c0	-0.17646694
209	0x3e0de297	0.13855968
210	0xbe96d3ce	-0.2945847
211	0xbe9c9e24	-0.30589402
212	0x3e5c92e3	0.21540408
213	0xbe780632	-0.24221113
214	0xbc4e18a8	-0.012579121
215	0xbe80431b	-0.25051197
216	0x3dcba953	0.099444054
217	0xbf020286	-0.507851
218	0xbe8109b5	-0.25202718
219	0xbe60d93b	-0.21957867
220	0x3cc87b67	0.024472905
221	0xbe01f316	-0.12690386
222	0xbd845f77	-0.06463521
223	0x3db99e2c	0.09063372
224	0xbf05c613	-0.5225536
225	0x3db52b2a	0.088461235
226	0x3e752c8f	0.23942779
227	0x3d902d95	0.07039944
228	0xbdef54c5	-0.116860904
229	0x3c008af4	0.007845629
230	0xbe473779	-0.19454755
231	0xbdfd10f2	-0.12356748
232	0x3e621f36	0.22082219
233	0xbe4cdfb8	-0.20007217
234	0xbf238fda	-0.63891375
235	0xbf173cef	-0.5907735
236	0x3e79fa65	0.24411924
237	0xbe868bb8	-0.26278472
238	0xbefb91e2	-0.49134737
239	0xbedcf9fc	-0.43159473
240	0xbe0a1cfd	-0.1348762
241	0x3e57292a	0.21011797
242	0xbebae36e	-0.3650164
243	0xbea74588	-0.32670236
244	0xbdf3cb80	-0.11904049
245	0xbe6f3925	-0.23361643
246	0x3ed774bc	0.4208125
247	0x3e0e0abf	0.13871287
248	0xbe89508f	-0.26819274
249	0xbd72c6ff	-0.05927181
250	0x3b52d37d	0.0032169514
251	0xbdf677d1	-0.12034572
252	0xbd2025ec	-0.039098665
253	0xbe8248a0	-0.25446033
254	0xbe45f946	-0.19333372
255	0xbdd1a692	-0.10236849

bias f4 [128]
0	0xbdedfc54	-0.116203934
1	0x3edba56b	0.4289964
2	0xbec0ddf3	-0.37669334
3	0xbdba821f	-0.0910685
4	0x3ed87941	0.4228001
5	0x3e3bb571	0.18330933
6	0x3e795c94	0.24351722
7	0x3dea06e5	0.11427096
8	0x3db27745	0.08714155
9	0x3cf6963d	0.030100936
10	0xbeb86111	-0.36011556
11	0xbe3a38cb	-0.18185727
12	0x3b6a9522	0.0035794456
13	0xbe91b27b	-0.28456482
14	0x3de2fabc	0.1108298
15	0xbe5368e1	-0.20645477
16	0xbdb2bc8f	-0.08727371
17	0xbe2f1e78	-0.17101467
18	0xbda265cb	-0.07929572
19	0x3dc46652	0.095898286
20	0x3e6b613f	0.22986315
21	0x3d3e182d	0.046409775
22	0x3de79337	0.11307376
23	0xbe5d9f57	-0.21642815
24	0xbe1216ae	-0.14266464
25	0x3e869634	0.2628647
26	0xbc51cbbc	-0.012804922
27	0xbe23bbb8	-0.15989578
28	0xbe045a13	-0.12924986
29	0xbd0b212c	-0.033967182
30	0xbd9ddcd2	-0.07708134
31	0x3e242b1f	0.16032074
32	0xbdb50a76	-0.08839886
33	0xbcfaeee2	-0.030631486
34	0x3e8f2656	0.27958935
35	0x3dad0c53	0.08449616
36	0xbe3f2cbf	-0.18669413
37	0xbe54239c	-0.20716709
38	0xbebb67ff	-0.3660278
39	0x3de0d35f	0.10977816
40	0x3de6fd4e	0.11278783
41	0x3e24e01e	0.16101119
42	0xbe55e5da	-0.20888463
43	0xbe4140eb	-0.1887242
44	0xbdf791d2	-0.1208836
45	0xbde61b65	-0.11235694
46	0xbd858926	-0.065202996
47	0xbd4231bd	-0.047410715
48	0xbe425326	-0.18977031
49	0x3dbc7a20	0.09202981
50	0xbdbe0b16	-0.09279458
51	0xbcc0c654	-0.02353207
52	0x3e372212	0.1788409
53	0xbdbbfc1d	-0.09178946
54	0x3e8b78e3	0.27240667
55	0xbd2b3e23	-0.041807305
56	0x3e2c1622	0.16805318
57	0xbe46f42f	-0.19429086
58	0xbde43073	-0.111420535
59	0x3cf52f2f	0.029929725
60	0xbec6f6b4	-0.38860095
61	0xbdb05430	-0.086098075
62	0xbe76d068	-0.24102938
63	0xbe5287f1	-0.2055967
64	0x3e8b675e	0.272273
65	0xbe1133a6	-0.14179859
66	0xbd6b98da	-0.057518817
67	0x3dd88c59	0.10573644
68	0x3d7b4519	0.061345194
69	0xbd4a6d66	-0.049420737
70	0x3d635028	0.055496365
71	0xbe2f51d1	-0.17121054
72	0xbdd5e973	-0.104449175
73	0xbe1fe11e	-0.15613219
74	0x3e7fc145	0.2497607
75	0x3e0e349d	0.13887258
76	0x3dca2b2c	0.09871516
77	0xbe12a577	-0.14320932
78	0xbe04cb81	-0.12968256
79	0x3d962261	0.07330776
80	0xbda03969	-0.0782345
81	0xbdf2a79b	-0.118483745
82	0x3d83240b	0.06403359
83	0xbce51e85	-0.027968654
84	0xbe3d050d	-0.18458958
85	0xbcf14f91	-0.029456886
86	0x3ce675b5	0.028132299
87	0xbe29cd31	-0.1658218
88	0xbba02762	-0.0048875073
89	0xbc85c12d	-0.016327465
90	0x3e8d1962	0.27558428
91	0x3ef5e590	0.48026705
92	0xbcd80c14	-0.026372947
93	0xbeac80c2	-0.33691984
94	0xbe00910b	-0.1255533
95	0x3ca742ae	0.020417538
96	0xbe2be1a0	-0.16785288
97	0xbed997b5	-0.42498556
98	0xbe31799a	-0.17331544
99	0x3e5e0cf2	0.21684626
100	0xbdec8cca	-0.11550291
101	0x3b635c1d	0.0034692355
102	0xbd145677	-0.03621527
103	0x3d2de4e7	0.042454626
104	0x3e125293	0.14289312
105	0x3e12c187	0.14331637
106	0x3e65b4b8	0.2243222
107	0x3e951fd8	0.29125857
108	0xbec1e8c7	-0.37872908
109	0x3bdf42ab	0.0068133674
110	0xbe9fba5b	-0.31196865
111	0xbe96c093	-0.29443797
112	0x3d82f02c	0.063934654
113	0x3e1cb9a5	0.15305193
114	0x3d470e7f	0.04859781
115	0x3e1a1ffb	0.15051262
116	0x3ea023ed	0.3127741
117	0x3ec7a711	0.3899465
118	0xbd145afb	-0.03621958
119	0x3e2dccf4	0.16972715
120	0x3d57ff31	0.052733604
121	0xbd68842d	-0.056766678
122	0xbd5f1f2a	-0.05447308
123	0xbebd44d8	-0.36966586
124	0xbd4cd176	-0.050004445
125	0xbe1abe7a	-0.15111724
126	0x3e03c542	0.12868217
127	0xbc8cfe2d	-0.017211044

weight f4 [8, 128]
0	0x3de18059	0.110108085
1	0x3d2f12f4	0.042742684
2	0xbd6ffe01	-0.058591846
3	0x3c965456	0.018350761
4	0xbc7aec1d	-0.015315083
5	0xbe8a128b	-0.26967272
6	0x3df3e679	0.119091935
7	0x3d3907ed	0.045173574
8	0xbde5f6ce	-0.11228715
9	0x3df2f507	0.118631415
10	0xbe1bcc2b	-0.15214603
11	0xbe12bce5	-0.1432987
12	0x3d1af089	0.03782705
13	0xbe2433d8	-0.16035402
14	0xbe38df43	-0.18053918
15	0x3c8089c0	0.015690684
16	0x3e24ae0e	0.16082022
17	0x3ec5afc1	0.38610652
18	0xbe94e943	-0.29084215
19	0xbdb7081e	-0.08937095
20	0xbbc8b2fb	-0.0061248518
21	0x3e39f015	0.1815799
22	0x3be2411f	0.0069047357
23	0xbd9ace71	-0.07558907
24	0xbcc3fe53	-0.023924982
25	0x3d3eef0d	0.046614695
26	0x3e665f5d	0.22497316
27	0xbe5bbe06	-0.21459207
28	0xbba71e1a	-0.005100024
29	0x3e85b06b	0.2611116
30	0x3d869dc9	0.06573064
31	0xbdbeee37	-0.093227796
32	0xbf0a51d7	-0.5403113
33	0x3d6b913b	0.05751155
34	0xbc0b66a5	-0.008508359
35	0x3dd2884d	0.102799036
36	0xbd7cf04f	-0.061752614
37	0xbe270d9c	-0.16313785
38	0xbe94c1b4	-0.29054034
39	0x3d267d02	0.04064656
40	0xbdaf9e72	-0.08575143
41	0x3c4c6097	0.012474201
42	0xbd713268	-0.05888596
43	0x3daba1f5	0.083805
44	0x3d20563f	0.03914475
45	0x3e585138	0.21124732
46	0x3cf62c87	0.03005053
47	0xbe183145	-0.14862545
48	0xbc1126d9	-0.00885936
49	0x3e52ac5f	0.20573567
50	0x3c93bc71	0.018034192
51	0x3e1c766c	0.1527955
52	0x3de82226	0.11334638
53	0xbb3870b1	-0.0028143341
54	0x3aab9354	0.0013090172
55	0xbea5760a	-0.3231662
56	0x3e9d21f3	0.30689964
57	0xbe142575	-0.14467414
58	0x3c9931fd	0.018700594
59	0x3d908ce1	0.070581205
60	0x3dae7172	0.08517732
61	0x3e208ec6	0.15679464
62	0xbe8adaa7	-0.27119943
63	0x3caf11dc	0.02137082
64	0x3cc4596b	0.023968419
65	0xbda17acb	-0.07884749
66	0x3d99bfc6	0.07507281
67	0x3e230adc	0.15922111
68	0x3e899470	0.2687106
69	0x3ea1bbb2	0.31588513
70	0xbe841194	-0.2579466
71	0xbd676d58	-0.056500763
72	0xbe810112	-0.2519613
73	0x3e3c77f8	0.1840514
74	0x3c08648a	0.008324752
75	0xbd85b906	-0.06529431
76	0x3d4c9171	0.04994339
77	0xbe0d83f5	-0.13819869
78	0xbd8ba51b	-0.06818601
79	0xbc3204c2	-0.010865392
80	0x3f078977	0.5294413
81	0xbe547afe	-0.20750043
82	0xbde43263	-0.11142423
83	0x3f38fc66	0.7226013
84	0x3de770e2	0.113008276
85	0xbdcb0cae	-0.09914528
86	0xbcf125e0	-0.029437006
87	0x3ddf5f06	0.10906796
88	0x3dbd191c	0.09233305
89	0x3d68322f	0.056688484
90	0xbc8ec3a3	-0.017427271
91	0xb84a9791	-4.830171e-05
92	0x3b656b76	0.0035006679
93	0xbc4326cc	-0.011911105
94	0xbc4af2d9	-0.012387001
95	0xbd06ea5c	-0.032938346
96	0xbd907e45	-0.07055334
97	0xbc65b30b	-0.014019738
98	0xbe96b5ba	-0.2943552
99	0xbd649cbe	-0.055813543
100	0x3d8f57fd	0.06999204
101	0xbcc375e0	-0.023859918
102	0x3ce2011d	0.027588421
103	0xbe720aa3	-0.2363687
104	0x3e48aa01	0.19596101
105	0xbd81a516	-0.06330316
106	0x3d924842	0.07142688
107	0x3d6f1f6f	0.058379587
108	0xbe9f56f0	-0.31121016
109	0x3daaa52d	0.08332286
110	0x3cf163b2	0.029466484
111	0xbcef58eb	-0.029217204
112	0x3cb2c5c0	0.02182281
113	0xbe0fc45f	-0.14039753
114	0xbd0f744b	-0.035023015
115	0x3e5700a8	0.20996344
116	0x3b9922ca	0.0046733366
117	0x3eba35ca	0.36369163
118	0xbde661d1	-0.11249126
119	0xbc631e82	-0.013862254
120	0xbde93a99	-0.1138813
121	0xbd8fde01	-0.07024766
122	0xbca71ca3	-0.020399397
123	0xbda645bc	-0.081187695
124	0xbd953d4a	-0.072870806
125	0x3d236151	0.03988773
126	0x3e5e76f8	0.2172507
127	0x3e099030	0.1343391
128	0xbe88c673	-0.26713905
129	0x3bcdf225	0.0062849694
130	0xba792483	-0.0009504037
131	0xbd623cb6	-0.05523368
132	0x3c97ad5b	0.01851528
133	0x3cf09673	0.029368615
134	0xbd8b932f	-0.068151824
135	0x3d16032b	0.036624115
136	0xbc44923a	-0.011997754
137	0x3d5199b1	0.051171962
138	0x3d21a762	0.03946627
139	0xbe70ebe4	-0.23527485
140	0xbc8154aa	-0.015787441
141	0x3ddce67d	0.1078615
142	0xbd161ff6	-0.036651574
143	0x3dd1b2eb	0.10239204
144	0x3e46dcc0	0.19420147
145	0x3c7e1a4f	0.015509202
146	0xbd8fd8da	-0.07023783
147	0x3e684369	0.22681965
148	0x3c4e5804	0.012594227
149	0xbd81d438	-0.06339306
150	0xb6be2558	-5.6667886e-06
151	0x3cb3ba20	0.021939337
152	0x3d80ef1d	0.06295607
153	0x3c30f542	0.0108006615
154	0x3e25ff1e	0.162106
155	0xbe07c89a	-0.13260117
156	0xbdeef960	-0.11668658
157	0x3dffbfa3	0.12487724
158	0x3d00799c	0.031365976
159	0xbc294f39	-0.01033383
160	0x3cfad811	0.030620607
161	0x3cdb3a45	0.026761184
162	0x3b545241	0.003239766
163	0x3d510b6f	0.051036295
164	0x3d82c3f9	0.06385035
165	0xbdda026e	-0.10644995
166	0x3dcf9fbf	0.10137891
167	0x3e0eed95	0.13957818
168	0x3d45f51a	0.04832945
169	0x3d8f2a85	0.06990532
170	0xbc337200	-0.010952473
171	0xbde74321	-0.11292101
172	0x3c3a417e	0.011368154
173	0x3d8c1766	0.068404004
174	0xbde3668b	-0.11103543
175	0xbe245d59	-0.16051234
176	0x3d8a59b2	0.06755389
177	0xbd421231	-0.04738063
178	0x3e0875f8	0.13326252
179	0xbd9b8775	-0.07594196
180	0xbbcf6755	-0.006329457
181	0xbe8c6142	-0.27417952
182	0xb9fe5a4b	-0.0004851393
183	0xbc65e09f	-0.014030605
184	0x3c503152	0.012707071
185	0x3d39625c	0.04525982
186	0xbcc9ba48	-0.024624959
187	0x3d3a76b3	0.045523357
188	0xbd85e2b1	-0.065373786
189	0x3e81ca13	0.25349483
190	0x3d32f548	0.04369095
191	0xbe7544cd	-0.23952027
192	0xbadb6885	-0.0016739523
193	0x3d819f1c	0.06329176
194	0xbcb2b528	-0.021814898
195	0xbdafc1b6	-0.08581869
196	0x3d283798	0.041068643
197	0xbb8d0750	-0.0043038502
198	0x3e32a23c	0.174447
199	0xbd4ef990	-0.05053097
200	0xbc053a11	-0.00813152
201	0x3e868788	0.26275277
202	0xbca68ff4	-0.020332314
203	0x3b8dce47	0.0043275687
204	0xbca9e8f4	-0.020740964
205	0xbbccc2c2	-0.006248803
206	0xbe27bcb4	-0.16380578
207	0x3cbb98d4	0.022900023
208	0xbd9eb2c7	-0.07748943
209	0x3dbd8675	0.09254161
210	0x3dbc1ae2	0.09184815
211	0xbe311b47	-0.17295562
212	0x3d1d97de	0.03847491
213	0xbb9de497	-0.00481851
214	0xbc4c1ebc	-0.0124584995
215	0x3dce4e39	0.100735135
216	0x3d84e0be	0.06488179
217	0x3db4547a	0.08805175
218	0x3c07f5dd	0.0082983645
219	0xbb9bc2bc	-0.0047534388
220	0x3d72b5b3	0.059255313
221	0x3de4063f	0.11134004
222	0x3ddc011c	0.10742399
223	0x3d11b1e6	0.035570048
224	0xbdea2ae2	-0.114339605
225	0xbdee34da	-0.116311744
226	0x3c2768b9	0.010217839
227	0x3c89808c	0.016784929
228	0x3e510397	0.20411526
229	0xbd53114a	-0.05153016
230	0xbe35679b	-0.17715304
231	0xbd1b44b4	-0.037907317
232	0xbdd2ac76	-0.102868006
233	0xbb479935	-0.0030456309
234	0xbd053662	-0.032522567
235	0xbce3ea2d	-0.027821625
236	0x3c3a40fb	0.011368032
237	0x3c69153b	0.014226253
238	0xbe279b5d	-0.1636786
239	0x3e92716a	0.28602153
240	0xbc9dd898	-0.019268319
241	0x3e5f3e4c	0.21801108
242	0xbd57c5cf	-0.05267888
243	0xbc219f33	-0.009864616
244	0x3c302559	0.010751092
245	0xbc53a993	-0.012918848
246	0xbe463004	-0.19354254
247	0x3d2a31d5	0.04155143
248	0xbdb69d19	-0.08916683
249	0xbe5a3d55	-0.21312459
250	0xbdc84a2f	-0.097797744
251	0x3d6cb4ed	0.05778973
252	0xbdae9bf6	-0.08525841
253	0x3e2becd8	0.16789567
254	0xbd035691	-0.032064978
255	0x3dc4bab6	0.09605925

bias f4 [8]
0	0x3d9bd985	0.07609848
1	0x3e82e462	0.25564867
2	0xbf8d1103	-1.1020817
3	0x3e263345	0.16230495
4	0xbe95ed53	-0.29282627
5	0x3de83526	0.11338262
6	0x3f15a939	0.5846134
7	0x3d2bfd72	0.04198975
