logs/limx_arm/SF_TRON1A/exported/policies/policy.onnx (onnx, 776732 bytes, 8 tensors)

0.bias f4 [512]
0	0xbe2df3d2	-0.16987541
1	0x3c70cd2d	0.014697355
2	0xbe11a3a4	-0.1422258
3	0x3db830be	0.08993672
4	0xbe440aff	-0.1914482
5	0x3cecaec1	0.028891923
6	0x3de06143	0.10956051
7	0xbbb3a904	-0.0054827947
8	0xbda4d1c0	-0.08047819
9	0x3d32f43c	0.04368995
10	0xbe232abd	-0.15934272
11	0x3e437f78	0.19091594
12	0x3dad4784	0.08460906
13	0xbe802604	-0.25029004
14	0xbecb4c5e	-0.397067
15	0x3e47ab5d	0.19498964
16	0xbd83b038	-0.064300954
17	0xbe099197	-0.13434444
18	0xbd818d36	-0.06325762
19	0xbd566b9d	-0.05234872
20	0x3d2b20b7	0.041779246
21	0xbe4733ab	-0.19453304
22	0xbd2edbc1	-0.042690042
23	0xbeb5c32e	-0.35500473
24	0x3e57228c	0.21009272
25	0xbe60daf6	-0.21958527
26	0xbe10144b	-0.14070241
27	0x3e4fc57e	0.20290181
28	0x3c57ba73	0.013167012
29	0xbe4584f5	-0.19289
30	0xbe4693c5	-0.19392307
31	0xbe7e7244	-0.24848276
32	0xbe8d53a8	-0.27602887
33	0x3d1b95c5	0.03798463
34	0xbc7cd4a9	-0.0154315615
35	0x3c9871d2	0.018608961
36	0x3e9d840a	0.307648
37	0xbe546855	-0.20742925
38	0xbe236f45	-0.15960415
39	0xbd5639c6	-0.05230119
40	0xbe4950eb	-0.19659774
41	0x3d83f67d	0.06443498
42	0xbe177483	-0.1479054
43	0xbe55340f	-0.2082064
44	0x3e13e718	0.14443624
45	0x3dc063ad	0.09394012
46	0xbdabb592	-0.08384241
47	0xbe91b981	-0.2846184
48	0xbdf63976	-0.120226786
49	0xbe855d0c	-0.26047552
50	0xbeaf8d6a	-0.34287578
51	0x3cdd7963	0.02703542
52	0xbe04878b	-0.1294233
53	0xbef2c011	-0.4741216
54	0xbdd36f17	-0.10323923
55	0x3b9902da	0.0046695294
56	0xbe20258c	-0.15639323
57	0x3c43f232	0.011959599
58	0xbf41ee6f	-0.75754446
59	0xbb1a0331	-0.0023500437
60	0xbe7eaa17	-0.24869572
61	0x3d2e640b	0.042575877
62	0x3e7a2ee7	0.24431954
63	0xbd93ecd6	-0.07222907
64	0xbe32b856	-0.17453131
65	0xbe917807	-0.28411886
66	0xbde24276	-0.11047833
67	0xbe810c6a	-0.25204784
68	0x3cf86ac5	0.03032435
69	0x3cbc7fa9	0.023010092
70	0xbe34f8dd	-0.17673059
71	0x3e56c655	0.20974095
72	0xbe4a9e4c	-0.19786948
73	0x3e188623	0.14894919
74	0x3de451a3	0.111483835
75	0xbe89d769	-0.26922157
76	0xbdb182ef	-0.08667552
77	0x3de0e2fe	0.10980795
78	0x3e4d7adb	0.20066397
79	0xbe19824f	-0.14991115
80	0x3e5a1b69	0.21299519
81	0x3deb0bcb	0.11476859
82	0x3e3d50ce	0.18487856
83	0xbe1c163f	-0.15242861
84	0xbcd155a4	-0.025553532
85	0xbe4bf7ab	-0.19918697
86	0xbc46e761	-0.012140126
87	0x3dc683ae	0.09693085
88	0xbea38a17	-0.31941292
89	0x3df281bb	0.118411504
90	0xbd7dc305	-0.061953563
91	0x3ca1db8d	0.01975801
92	0xbdc56adb	-0.09639522
93	0xbe17418e	-0.14771101
94	0x3d7e4ce7	0.06208506
95	0x3e13922f	0.14411233
96	0x3e658572	0.22414187
97	0x3e4a89de	0.19779155
98	0xbe7d875e	-0.2475867
99	0xbe9f2979	-0.3108633
100	0xbdbb3c73	-0.09142389
101	0xbe8eed6f	-0.27915522
102	0xbca81b46	-0.020520817
103	0x3daa6635	0.08320276
104	0xbde675fd	-0.11252973
105	0x3ea45b2f	0.32100818
106	0x3e50e1b7	0.20398603
107	0x3e4409b2	0.19144323
108	0x3e82b0e7	0.2552559
109	0xbde93a61	-0.11388088
110	0xbdecc6c3	-0.11561348
111	0x3e3b59d3	0.18295984
112	0xbd4d3be2	-0.050105937
113	0xbe2d03c4	-0.16895968
114	0xbee7ce63	-0.45274648
115	0x3d2c9054	0.04212983
116	0xbe12c301	-0.143322
117	0x3e1f97a9	0.15585198
118	0xbd23b9e5	-0.039972205
119	0xbd9994c3	-0.07499077
120	0x3d279918	0.040917486
121	0x3e8e712d	0.2782072
122	0x3e1fe024	0.15612847
123	0xbd4eea88	-0.050516635
124	0x3e2682e6	0.16260871
125	0xbe7164dd	-0.23573633
126	0x3db0a735	0.08625642
127	0xbef0295e	-0.4690656
128	0x3e5cec40	0.21574497
129	0x3dfe0143	0.124025844
130	0x3e367305	0.17817314
131	0xbb146eb1	-0.0022648985
132	0x3dbcec46	0.09224753
133	0x3cf41e1a	0.02979951
134	0xbcf4ddea	-0.029890973
135	0xbef5cf2b	-0.4800962
136	0x3d31082c	0.043220684
137	0x3e522785	0.20522888
138	0xbe96d143	-0.2945653
139	0xbd800792	-0.06251444
140	0x3ea70bdb	0.32626233
141	0x3bd2b72e	0.006430528
142	0xbe04f6f4	-0.1298483
143	0xbe1ff0e9	-0.15619244
144	0x3a93e439	0.0011283226
145	0xbe61d39d	-0.2205338
146	0xbb0c367f	-0.0021394787
147	0xbd5e44d3	-0.054264855
148	0xbda53922	-0.08067538
149	0xbdf80ebd	-0.12112186
150	0x3e861d8e	0.26194423
151	0xbe3428e3	-0.17593722
152	0x3d1a60e4	0.03769006
153	0xbd1c877e	-0.038215153
154	0x3e48dddd	0.19615884
155	0xbe30b500	-0.17256546
156	0x3e5ef487	0.21772967
157	0xbe10b346	-0.14130887
158	0x3e6de6f1	0.23232628
159	0x3c9adb3f	0.018903373
160	0x3d5f361e	0.05449497
161	0x3b940391	0.0045170267
162	0xbe852bb5	-0.26009908
163	0xbe18927f	-0.14899634
164	0xbe0487a4	-0.12942368
165	0x3ed09241	0.40736583
166	0x3e00a8d9	0.1256441
167	0x3e9f2e8e	0.31090206
168	0xbdbef5ea	-0.09324248
169	0xbe232335	-0.15931399
170	0x3e3e7c37	0.18602072
171	0xbd6dc874	-0.058052495
172	0x3d88e484	0.06684211
173	0xbe38a37a	-0.18031111
174	0xbe805a5d	-0.25068942
175	0x3e340bc7	0.17582618
176	0xbe6d097d	-0.2314815
177	0xbe01734e	-0.12641641
178	0x3d3b8412	0.04578025
179	0xbe09330e	-0.13398382
180	0xbdddf5a0	-0.10837865
181	0xbe52c268	-0.20581973
182	0x3e669666	0.2251831
183	0xbddc807b	-0.10766693
184	0x3d1b504f	0.037918385
185	0xbdc911a0	-0.09817815
186	0xbb9ce6cb	-0.004788255
187	0xbe38056a	-0.17970815
188	0x3eb0213a	0.3440035
189	0xbd3b07e9	-0.04566184
190	0xbd57e4e7	-0.052708533
191	0x3c8fed79	0.01756929
192	0xbe2a272e	-0.16616508
193	0xbe821d71	-0.25413087
194	0x3c9fb7be	0.019496795
195	0xbe0170be	-0.12640664
196	0x3d8bc96d	0.06825528
197	0xbd92e264	-0.07172087
198	0xbdb18d84	-0.0866957
199	0x3ea3453d	0.31888762
200	0xbdf0b1a3	-0.117526315
201	0xbc62938f	-0.013829126
202	0xbeb6d627	-0.3571026
203	0xbe16f577	-0.14742075
204	0xbe764f6d	-0.24053736
205	0x3cef3a0c	0.029202484
206	0xbe5e44e9	-0.21705975
207	0x3dd9dec1	0.1063819
208	0xbe81e945	-0.25373283
209	0xbeb02dd0	-0.34409952
210	0xbd49cb9e	-0.04926645
211	0xbe777dba	-0.24169055
212	0xbe5c6bed	-0.21525545
213	0xbe7ccd7a	-0.24687758
214	0x3da37dc3	0.079829715
215	0xbd9b98ef	-0.07597529
216	0xbcade526	-0.02122743
217	0x3d847fee	0.06469713
218	0xbda7692e	-0.08174358
219	0x3e18e73f	0.14931963
220	0xbe3c05f9	-0.18361653
221	0x3e881f7f	0.2658653
222	0x3e42d4ef	0.1902654
223	0xbe90e5f5	-0.28300443
224	0xbca69e6a	-0.02033921
225	0x3e070b3b	0.13187878
226	0xbd230cbf	-0.039807077
227	0x3d0e3b8a	0.03472475
228	0xbccbd7f0	-0.02488324
229	0xbe4498bc	-0.19198889
230	0x3e2f23c6	0.1710349
231	0xbe07a275	-0.13245566
232	0xbe1d3c56	-0.15355048
233	0x3dc65c6b	0.09685596
234	0xbe2f2cc6	-0.17106923
235	0xbdf2b0f8	-0.1185016
236	0xbe1997b9	-0.14999284
237	0x3ea9c04d	0.33154526
238	0xbe30215c	-0.17200226
239	0x3e016cb1	0.12639119
240	0x3e743cf2	0.23851374
241	0x3ddc9e33	0.107723616
242	0xbe7d2072	-0.24719408
243	0x3d4247b5	0.047431666
244	0x3e2d296e	0.16910335
245	0xbd115622	-0.035482533
246	0xbaa6fb38	-0.0012739664
247	0xbec84f22	-0.39122874
248	0xbcb51595	-0.022105018
249	0xbebcb430	-0.36856222
250	0x3d78faf7	0.060786214
251	0x3df5f189	0.1200896
252	0xbe327f34	-0.17431337
253	0x3d9e6c7a	0.07735534
254	0xbd8e73cd	-0.06955681
255	0xbe86038c	-0.2617458

2.bias f4 [256]
0	0x3ca7f66b	0.020503243
1	0xbe1709e3	-0.14749865
2	0xbd8bbb32	-0.06822814
3	0xbd72cd24	-0.05927767
4	0xbd528860	-0.05139959
5	0xbde9d8bb	-0.11418291
6	0x3ca466e6	0.020068597
7	0xbddde2fa	-0.10834308
8	0xbc76f19d	-0.0150722535
9	0xbd32ec7b	-0.043682557
10	0x3d62614e	0.05526858
11	0xbecb12b1	-0.39662698
12	0xbe55c69c	-0.20876545
13	0xbe378fc8	-0.17925942
14	0xbd00be41	-0.03143144
15	0xbda904b8	-0.08252853
16	0x3b993f29	0.0046767187
17	0xbee4de23	-0.44700727
18	0xbe18a188	-0.1490537
19	0xbbd4e5ab	-0.006497105
20	0xbe75078f	-0.23928665
21	0xbe8eca75	-0.27888837
22	0xbeed704f	-0.46374747
23	0xbec47644	-0.3837148
24	0xbd940e16	-0.07229249
25	0x3c6489bb	0.013948853
26	0xbea0993d	-0.31366912
27	0xbeed7551	-0.46378568
28	0xbdaa1d55	-0.08306376
29	0xbe8020c4	-0.25024998
30	0xbb2b073c	-0.0026096841
31	0xbe939b67	-0.288295
32	0xbeb92e9c	-0.36168373
33	0x3d9fb385	0.077979125
34	0xbe42daec	-0.19028825
35	0xbe95ae90	-0.29234743
36	0xbe7b7f25	-0.2456022
37	0xbdadc96b	-0.08485683
38	0x3e097aac	0.13425702
39	0x3dc5f072	0.09665002
40	0xbeb991cc	-0.36244047
41	0xbe1b5119	-0.15167655
42	0xbe83d2e3	-0.2574683
43	0xbe5af379	-0.2138194
44	0xbeb8094c	-0.35944593
45	0xbdca7459	-0.09885473
46	0xbe9c6a72	-0.3054996
47	0x3c686d5c	0.01418623
48	0xbe8e2eae	-0.2776999
49	0x3de110ff	0.1098957
50	0xbe2ada69	-0.1668488
51	0xbe0c8c71	-0.13725449
52	0xbe6fcaf6	-0.23417267
53	0xbe212e8f	-0.15740417
54	0xbe27cc66	-0.16386566
55	0xbd333c9c	-0.043758973
56	0xbd7e0516	-0.06201657
57	0xbe7fde0a	-0.24987045
58	0xbe74b523	-0.23897223
59	0xbe054f6f	-0.13018583
60	0xbe88129c	-0.26576698
61	0xbe0aaa2d	-0.1354148
62	0xbd6e0e71	-0.05811924
63	0xbe03883f	-0.12844943
64	0x3d633bd6	0.055476986
65	0xbda1c000	-0.07897949
66	0xbd8cccda	-0.0687501
67	0x3d312053	0.043243717
68	0xbe843957	-0.25824997
69	0xbe1e5d30	-0.15465236
70	0xbe685bf3	-0.22691326
71	0xbe4f08ad	-0.20218153
72	0xbe0dc4d2	-0.13844612
73	0xbe7ecb8d	-0.24882336
74	0xbdd56e92	-0.1042148
75	0xbeadd714	-0.33953154
76	0xbe9de4a6	-0.30838507
77	0x3d099964	0.03359355
78	0xbdb9063b	-0.090343915
79	0xbc38229e	-0.011238722
80	0xbeaee5a6	-0.34159583
81	0xbe8b72cb	-0.27236018
82	0xbd9bc4c7	-0.07605892
83	0xbe6ca7bb	-0.23110859
84	0xbd7899e7	-0.060693648
85	0xbe194938	-0.14969337
86	0x3b96f347	0.0046066376
87	0x3dd213a3	0.10257652
88	0xbd8b97a0	-0.068160295
89	0xbddea862	-0.1087196
90	0xbf010f2a	-0.50413764
91	0x3df4cca4	0.119530946
92	0xbe001c26	-0.12510738
93	0x3da9c226	0.08288984
94	0xbd98202b	-0.074280106
95	0xbe0d9825	-0.1382757
96	0xbec8fd9d	-0.39255992
97	0xbd5ea387	-0.05435517
98	0x3d3cf52e	0.04613226
99	0x3b809698	0.003924202
100	0x3da15996	0.07878415
101	0xbeb16d92	-0.34653908
102	0xbeca9b44	-0.39571583
103	0x3d0bf9af	0.034173664
104	0x3e64c164	0.22339398
105	0x3d412483	0.04715396
106	0x3dea6737	0.11445468
107	0xbe4d821d	-0.20069166
108	0xbbe1f653	-0.006895819
109	0xbe46caf3	-0.19413356
110	0xbc86d8f2	-0.01646087
111	0xbeabd27d	-0.33559027
112	0xbe85fadd	-0.26167956
113	0xbac1d977	-0.0014789541
114	0xbe2fe30c	-0.17176455
115	0xbe8337a4	-0.25628388
116	0xbec6b73e	-0.38811678
117	0xbd9f776f	-0.07786452
118	0xbe57fa2b	-0.21091525
119	0xbe21c63f	-0.15798281
120	0xbd2fad67	-0.04288998
121	0xbe7fcf7e	-0.24981496
122	0x3e057bb6	0.13035473
123	0xbd542aef	-0.051798757
124	0xbdb1c88a	-0.08680828
125	0xbe9e55cb	-0.3092483
126	0xbe68ae0f	-0.22722648
127	0xbde95d19	-0.1139471
128	0xbea9c129	-0.33155182
129	0xbe52c90f	-0.2058451
130	0xbe09ddb4	-0.1346348
131	0xbe41c31c	-0.18922085
132	0x3e10d48c	0.1414358
133	0x3cd39fef	0.025833098
134	0xbed4bd25	-0.41550556
135	0xbd48dc1d	-0.04903804
136	0xbd44e1e2	-0.04806698
137	0xbd42d5ad	-0.04756706
138	0xbc1b4e5e	-0.009479133
139	0xbe101278	-0.14069545
140	0xbe26e1eb	-0.16297118
141	0xbe1f1f36	-0.1553925
142	0xbe2242d0	-0.158458
143	0xbe4118ba	-0.18857089
144	0xbe6423dc	-0.22279304
145	0xbe1028de	-0.1407809
146	0x3ea058d4	0.3131777
147	0xbdf109f5	-0.11769477
148	0x3cb2da7d	0.021832699
149	0xbe13396c	-0.14377373
150	0xbed160be	-0.4089412
151	0xbcb071ef	-0.021538703
152	0xbd522e51	-0.051313702
153	0xbd862394	-0.06549755
154	0xbe2adf8d	-0.1668684
155	0xbe874ec4	-0.2642728
156	0xbdeaf74f	-0.114729516
157	0xbe3401aa	-0.1757876
158	0xbe9d9dca	-0.30784446
159	0xbbdfce64	-0.0068300236
160	0xbe672e03	-0.22576146
161	0x3e0d0d08	0.13774502
162	0xbe465e50	-0.19371915
163	0x3d964a97	0.07338446
164	0xbdcea0cb	-0.100892626
165	0x3cc65034	0.024208166
166	0xbe3fa5bb	-0.18715565
167	0x3e0a7a38	0.13523185
168	0x3df75bfb	0.12078091
169	0xbce7d35c	-0.028299026
170	0xbe2399d0	-0.15976644
171	0xbc087067	-0.00832758
172	0x3e1d9266	0.15387878
173	0xbe477b94	-0.19480735
174	0xbdf68f0f	-0.12039005
175	0x3c834cb8	0.016027793
176	0xbeaefbaa	-0.3417638
177	0x3d87d121	0.06631685
178	0xbe75e406	-0.24012765
179	0x3d822523	0.063547395
180	0xbecd4aab	-0.4009603
181	0xbd8c27f1	-0.06843556
182	0x3d1853aa	0.037189163
183	0xbea7354a	-0.32657844
184	0xbda31d45	-0.07964567
185	0x3e7cc87e	0.24685857
186	0xbec1ca9e	-0.37849897
187	0x3e9d1d4f	0.30686423
188	0xbd4a2d1e	-0.049359433
189	0xbeacdb8f	-0.3376126
190	0xbe01d97f	-0.12680624
191	0x3e3a296f	0.18179868
192	0x3da44258	0.080204666
193	0x3bba960f	0.005694158
194	0xbe9a6f97	-0.3016326
195	0xbdccec56	-0.10006015
196	0x3e0d5d24	0.13805062
197	0xbbb60875	-0.0055552074
198	0xbdea270c	-0.11433229
199	0x3e09bd8c	0.13451213
200	0x3e90c231	0.28273156
201	0xbebb35bd	-0.36564437
202	0x3c7c9615	0.015416642
203	0xbd6b9421	-0.057514314
204	0x3d4e5365	0.0503725
205	0x3e2ed4d2	0.17073372
206	0xbd4a7217	-0.04942521
207	0xbda8ae5b	-0.08236381
208	0xbd82dbce	-0.06389581
209	0xbddadcfe	-0.10686682
210	0xbd31ac44	-0.043377176
211	0x3d0eb189	0.03483728
212	0xbe15000f	-0.14550804
213	0xbe2df4ca	-0.16987911
214	0x3c8dcc76	0.017309409
215	0x3e04d174	0.12970525
216	0xbdf66026	-0.120300576
217	0xbe4ce045	-0.20007427
218	0x3dbaf213	0.09128203
219	0xbe2f777f	-0.17135428
220	0xbe180bd1	-0.14848258
221	0x3b606be8	0.0034244005
222	0x3e5238f5	0.2052954
223	0x3dd2ee1d	0.10299323
224	0x3dbd9eab	0.09258779
225	0x3d9c344c	0.07627162
226	0xbd5ed085	-0.05439808
227	0xbe445b18	-0.19175375
228	0x3d40825f	0.04699933
229	0xbda6d5dd	-0.0814626
230	0xbce9a85f	-0.028522668
231	0xbdbe4173	-0.09289827
232	0xbeab6e83	-0.3348275
233	0xbd1034db	-0.035206657
234	0xbe112766	-0.14175186
235	0xbebb2925	-0.36554828
236	0xbe8b2f62	-0.27184588
237	0xbe20070e	-0.15627691
238	0xbec17bc7	-0.37789747
239	0xbea86b03	-0.32894143
240	0xbe530eee	-0.20611164
241	0xbd566d97	-0.052350607
242	0x3da4ee2d	0.08053241
243	0xbda9455c	-0.082651824
244	0x3d9fe4b1	0.07807291
245	0xbcdbb9ca	-0.02682199
246	0xbf3f45b6	-0.74715745
247	0x3d52eaa0	0.051493287
248	0xbe73afee	-0.2379758
249	0xbe0ff36f	-0.14057706
250	0xbcece8fa	-0.028919686
251	0xbed7a7a3	-0.42120084
252	0xbe34350c	-0.17598361
253	0xbe87143d	-0.26382628
254	0x3e823ea5	0.2543842
255	0xbdb44ac7	-0.08803325

4.bias f4 [128]
0	0xbdedfc54	-0.116203934
1	0x3edba56b	0.4289964
2	0xbec0ddf3	-0.37669334
3	0xbdba821f	-0.0910685
4	0x3ed87941	0.4228001
5	0x3e3bb571	0.18330933
6	0x3e795c94	0.24351722
7	0x3dea06e5	0.11427096
8	0x3db27745	0.08714155
9	0x3cf6963d	0.030100936
10	0xbeb86111	-0.36011556
11	0xbe3a38cb	-0.18185727
12	0x3b6a9522	0.0035794456
13	0xbe91b27b	-0.28456482
14	0x3de2fabc	0.1108298
15	0xbe5368e1	-0.20645477
16	0xbdb2bc8f	-0.08727371
17	0xbe2f1e78	-0.17101467
18	0xbda265cb	-0.07929572
19	0x3dc46652	0.095898286
20	0x3e6b613f	0.22986315
21	0x3d3e182d	0.046409775
22	0x3de79337	0.11307376
23	0xbe5d9f57	-0.21642815
24	0xbe1216ae	-0.14266464
25	0x3e869634	0.2628647
26	0xbc51cbbc	-0.012804922
27	0xbe23bbb8	-0.15989578
28	0xbe045a13	-0.12924986
29	0xbd0b212c	-0.033967182
30	0xbd9ddcd2	-0.07708134
31	0x3e242b1f	0.16032074
32	0xbdb50a76	-0.08839886
33	0xbcfaeee2	-0.030631486
34	0x3e8f2656	0.27958935
35	0x3dad0c53	0.08449616
36	0xbe3f2cbf	-0.18669413
37	0xbe54239c	-0.20716709
38	0xbebb67ff	-0.3660278
39	0x3de0d35f	0.10977816
40	0x3de6fd4e	0.11278783
41	0x3e24e01e	0.16101119
42	0xbe55e5da	-0.20888463
43	0xbe4140eb	-0.1887242
44	0xbdf791d2	-0.1208836
45	0xbde61b65	-0.11235694
46	0xbd858926	-0.065202996
47	0xbd4231bd	-0.047410715
48	0xbe425326	-0.18977031
49	0x3dbc7a20	0.09202981
50	0xbdbe0b16	-0.09279458
51	0xbcc0c654	-0.02353207
52	0x3e372212	0.1788409
53	0xbdbbfc1d	-0.09178946
54	0x3e8b78e3	0.27240667
55	0xbd2b3e23	-0.041807305
56	0x3e2c1622	0.16805318
57	0xbe46f42f	-0.19429086
58	0xbde43073	-0.111420535
59	0x3cf52f2f	0.029929725
60	0xbec6f6b4	-0.38860095
61	0xbdb05430	-0.086098075
62	0xbe76d068	-0.24102938
63	0xbe5287f1	-0.2055967
64	0x3e8b675e	0.272273
65	0xbe1133a6	-0.14179859
66	0xbd6b98da	-0.057518817
67	0x3dd88c59	0.10573644
68	0x3d7b4519	0.061345194
69	0xbd4a6d66	-0.049420737
70	0x3d635028	0.055496365
71	0xbe2f51d1	-0.17121054
72	0xbdd5e973	-0.104449175
73	0xbe1fe11e	-0.15613219
74	0x3e7fc145	0.2497607
75	0x3e0e349d	0.13887258
76	0x3dca2b2c	0.09871516
77	0xbe12a577	-0.14320932
78	0xbe04cb81	-0.12968256
79	0x3d962261	0.07330776
80	0xbda03969	-0.0782345
81	0xbdf2a79b	-0.118483745
82	0x3d83240b	0.06403359
83	0xbce51e85	-0.027968654
84	0xbe3d050d	-0.18458958
85	0xbcf14f91	-0.029456886
86	0x3ce675b5	0.028132299
87	0xbe29cd31	-0.1658218
88	0xbba02762	-0.0048875073
89	0xbc85c12d	-0.016327465
90	0x3e8d1962	0.27558428
91	0x3ef5e590	0.48026705
92	0xbcd80c14	-0.026372947
93	0xbeac80c2	-0.33691984
94	0xbe00910b	-0.1255533
95	0x3ca742ae	0.020417538
96	0xbe2be1a0	-0.16785288
97	0xbed997b5	-0.42498556
98	0xbe31799a	-0.17331544
99	0x3e5e0cf2	0.21684626
100	0xbdec8cca	-0.11550291
101	0x3b635c1d	0.0034692355
102	0xbd145677	-0.03621527
103	0x3d2de4e7	0.042454626
104	0x3e125293	0.14289312
105	0x3e12c187	0.14331637
106	0x3e65b4b8	0.2243222
107	0x3e951fd8	0.29125857
108	0xbec1e8c7	-0.37872908
109	0x3bdf42ab	0.0068133674
110	0xbe9fba5b	-0.31196865
111	0xbe96c093	-0.29443797
112	0x3d82f02c	0.063934654
113	0x3e1cb9a5	0.15305193
114	0x3d470e7f	0.04859781
115	0x3e1a1ffb	0.15051262
116	0x3ea023ed	0.3127741
117	0x3ec7a711	0.3899465
118	0xbd145afb	-0.03621958
119	0x3e2dccf4	0.16972715
120	0x3d57ff31	0.052733604
121	0xbd68842d	-0.056766678
122	0xbd5f1f2a	-0.05447308
123	0xbebd44d8	-0.36966586
124	0xbd4cd176	-0.050004445
125	0xbe1abe7a	-0.15111724
126	0x3e03c542	0.12868217
127	0xbc8cfe2d	-0.017211044

6.bias f4 [8]
0	0x3d9bd985	0.07609848
1	0x3e82e462	0.25564867
2	0xbf8d1103	-1.1020817
3	0x3e263345	0.16230495
4	0xbe95ed53	-0.29282627
5	0x3de83526	0.11338262
6	0x3f15a939	0.5846134
7	0x3d2bfd72	0.04198975

onnx::MatMul_24 f4 [44, 512]
0	0x3daf5737	0.08561557
1	0x3d357f2b	0.04431073
2	0x3e690f97	0.22759853
3	0x3e2c78a6	0.16842899
4	0xbd96be4f	-0.07360517
5	0xbdd2027d	-0.10254381
6	0x3d54c346	0.05194404
7	0xbe1d9894	-0.15390235
8	0xbe5ca078	-0.21545589
9	0xbe9407e4	-0.2891227
10	0x3da4f997	0.08055418
11	0x3ddf4b03	0.10902979
12	0xbea839e9	-0.32856682
13	0xbeea35d2	-0.45744187
14	0x3e8a3a19	0.2699745
15	0xbe075077	-0.13214289
16	0xbebcf541	-0.36905864
17	0x3f025c55	0.5092214
18	0x3e074dc0	0.13213253
19	0xbdc00d50	-0.09377539
20	0xbd87a7d9	-0.06623811
21	0x3e41aa78	0.18912685
22	0xbc4362a0	-0.0119253695
23	0x3e221607	0.15828715
24	0x3d6d6247	0.057955053
25	0xbe3993ac	-0.18122739
26	0x3d763f18	0.060118765
27	0x3ead3b84	0.3383447
28	0x3eaacc44	0.33358967
29	0x3dc07c42	0.093987
30	0xbe29dbca	-0.16587749
31	0xbea9ee36	-0.33189553
32	0xbd9bd066	-0.07608108
33	0xbd32ca20	-0.043649793
34	0x3df3749d	0.118874766
35	0xbd19caca	-0.03754691
36	0xbe3c49dd	-0.18387552
37	0xbe801279	-0.25014094
38	0xbeb8f5d8	-0.36125064
39	0x3dc0b17a	0.09408851
40	0x3d7eaaa2	0.062174447
41	0xbd99f6f3	-0.07517805
42	0x3c45bbe7	0.012068725
43	0x3e7a006e	0.24414226
44	0x3c9abc79	0.018888699
45	0xbed7d720	-0.42156315
46	0xbe9b2f26	-0.3030941
47	0xbdeb5840	-0.11491442
48	0xbc098fd3	-0.008396107
49	0x3e0ed053	0.13946657
50	0xbe3fe510	-0.18739724
51	0x3e408bfb	0.18803398
52	0x3e5d2e3c	0.21599668
53	0x3e41c0d8	0.1892122
54	0x3f02b3f0	0.5105581
55	0x3d979702	0.07401849
56	0x3e8f8bc1	0.2803631
57	0xbd43fcbd	-0.047848452
58	0x3b71ce91	0.0036896805
59	0x3edb5d20	0.42844486
60	0x3c558c2a	0.013033906
61	0xbeb11490	-0.34586
62	0xbd8232a7	-0.063573174
63	0x3c3774e9	0.011197307
64	0x3db245ee	0.08704744
65	0xbd3f5af9	-0.046717618
66	0xbdc55352	-0.09635033
67	0x3d5980cf	0.053101357
68	0x3d72030c	0.059084937
69	0xbde05598	-0.10953826
70	0x3d02c3a5	0.031924862
71	0x3d8659db	0.06560107
72	0xbe9183fa	-0.28421003
73	0x3d58e92a	0.052956738
74	0xbe87a4a9	-0.26492813
75	0xbc78f678	-0.0151954815
76	0xbd4f4fc1	-0.05061317
77	0x3e29be2e	0.16576454
78	0xbe872e58	-0.26402545
79	0xbea869c8	-0.32893205
80	0x3d9c80da	0.07641764
81	0x3e69d309	0.2283441
82	0x3c3466e7	0.011010862
83	0xbdcc909b	-0.09988519
84	0x3e6814b0	0.22664142
85	0x3e7a2296	0.24427256
86	0x3de79644	0.11307958
87	0xbe953ce8	-0.2914803
88	0x3da3448a	0.07972057
89	0x3e586e68	0.21135867
90	0xbd8345e7	-0.06409817
91	0xbeb5171a	-0.35369188
92	0xbe6913b6	-0.22761425
93	0x3d75a7e6	0.059974574
94	0x3b25f367	0.002532208
95	0xbd6a8d4f	-0.05726367
96	0xbf01b210	-0.50662327
97	0x3e132f8a	0.14373603
98	0x3e149971	0.14511658
99	0xbf15e82b	-0.58557385
100	0xbd7b3777	-0.061332192
101	0x3ed8d229	0.4234784
102	0x3dc59468	0.09647447
103	0x3e1ae8d7	0.15127884
104	0xbd133548	-0.035939485
105	0x3e50d38b	0.20393197
106	0xbce50122	-0.027954642
107	0xbce311b5	-0.027718404
108	0x3cfa0517	0.030520005
109	0xbebdd983	-0.3708001
110	0xbf0dc45d	-0.5537775
111	0x3e8626b0	0.2620139
112	0x3ca0e14f	0.019638686
113	0xbdaf66dd	-0.085645415
114	0x3e3e0146	0.18555173
115	0xbdeba3f8	-0.11505884
116	0x3e72edff	0.23723601
117	0xbe4784b7	-0.1948422
118	0x3e3ad63a	0.18245783
119	0x3e9a5199	0.3014038
120	0xbe2353f2	-0.15949991
121	0x3e2b404c	0.16723746
122	0xbcec7a57	-0.02886693
123	0xbd4701ac	-0.04858558
124	0x3dcadc9f	0.099053614
125	0x3ec2e040	0.38061714
126	0xbe764026	-0.24047908
127	0xbdb7faa4	-0.08983353
128	0xbe818680	-0.25297928
129	0x3dc92669	0.09821779
130	0x3d7779bd	0.060418833
131	0x3b8b7f4d	0.004257119
132	0x3e0c99a4	0.13730484
133	0xbc857c23	-0.016294545
134	0xbe47e4b7	-0.19520842
135	0xbe0d6735	-0.13808902
136	0x3e84394c	0.25824964
137	0x3dc70fa7	0.09719782
138	0x3e090cc4	0.13383776
139	0xbe503e75	-0.20336325
140	0xbd8a5068	-0.067536175
141	0x3efd93c7	0.49526808
142	0x3d763b5d	0.060115207
143	0x3e596098	0.21228254
144	0xbdba4552	-0.09095253
145	0x3aa7e8b9	0.0012810446
146	0xbe869ec3	-0.26293
147	0xbf35e1fb	-0.71047944
148	0xbe1d63a3	-0.1537004
149	0xbe472b8c	-0.19450206
150	0xbde83920	-0.11339021
151	0x3b415e04	0.00295055
152	0xbdcd089c	-0.10011408
153	0xbdb38f87	-0.0876761
154	0x3e81e6b1	0.25371316
155	0xbece7683	-0.40324792
156	0xbd7af54c	-0.06126909
157	0x3e4f5af1	0.20249535
158	0xbe64db24	-0.2234922
159	0x3e87b3e7	0.26504442
160	0xbeb27f70	-0.34862852
161	0x3f6a1d83	0.9145128
162	0xbe093314	-0.13398391
163	0xbe42be4c	-0.19017905
164	0xbe56c3ad	-0.20973082
165	0x3e2f2236	0.17102894
166	0x3f069457	0.525701
167	0xbe0a5524	-0.13509041
168	0x3d210610	0.039312422
169	0x3d6c04bc	0.057621703
170	0xbe50fa2d	-0.20407934
171	0x39678b16	0.0002208169
172	0x3e9b062a	0.3027814
173	0xbe2d1f3f	-0.1690645
174	0x3d4eae09	0.05045894
175	0xbe6081af	-0.2192447
176	0xbd95d9fa	-0.07316966
177	0xbe0ef245	-0.13959606
178	0x3dca2718	0.09870738
179	0xbe371407	-0.17878734
180	0xbe11484c	-0.14187735
181	0xbe8568c5	-0.26056495
182	0xbdff8072	-0.12475671
183	0x3e973937	0.2953584
184	0x3cf48811	0.029850038
185	0x3c18cb81	0.009325863
186	0xbeb3dfa4	-0.35131562
187	0xbe6c2465	-0.23060758
188	0x3d091619	0.03346834
189	0x3e17309b	0.14764635
190	0xbd6ef034	-0.058334544
191	0xbd454be2	-0.04816807
192	0x3d07df4b	0.033171933
193	0x3c8f1d92	0.017470155
194	0xbe0ebf82	-0.13940242
195	0xbd16db05	-0.036829967
196	0x3da5f4de	0.08103345
197	0x3a87d35b	0.0010362671
198	0x3e858b68	0.2608292
199	0x3e01baf3	0.12668972
200	0xbdeff93c	-0.117174596
201	0x3c0b7b23	0.008513245
202	0x3ddae949	0.10689027
203	0x3e855844	0.26043904
204	0x3e881379	0.26577356
205	0xbed8ff3c	-0.42382228
206	0xbd0ea3bf	-0.03482413
207	0xbe9d7e84	-0.30760586
208	0x3cb2df44	0.021834977
209	0xbea4feea	-0.32225734
210	0x3e913c79	0.2836645
211	0x3d129733	0.035788726
212	0xbe33e78d	-0.17568798
213	0xbe7fd697	-0.24984203
214	0xbe737a46	-0.23777112
215	0xbe070624	-0.13185936
216	0xbe53dab0	-0.20688891
217	0xbda8eaba	-0.082478955
218	0xbd1029df	-0.03519618
219	0xbe56b08e	-0.20965788
220	0x3d81cee5	0.0633829
221	0xbdccd3e3	-0.10001352
222	0x3da556bc	0.08073184
223	0x3e0c32b6	0.1369122
224	0x3d05bec3	0.032652628
225	0x3cf3cfde	0.029762205
226	0x3ef3e0da	0.47632486
227	0xbe108c35	-0.14115985
228	0x3f0e4686	0.5557636
229	0xbe36319b	-0.1779236
230	0x3d9178eb	0.071031414
231	0x3d890d27	0.06691962
232	0xbe728f6f	-0.23687528
233	0x3da3683c	0.079788655
234	0xbee9091e	-0.45514768
235	0x3d113298	0.03544864
236	0xbeb7a37d	-0.3586692
237	0x3e325025	0.17413385
238	0x3e63b164	0.22235638
239	0xbe29f604	-0.16597754
240	0x3d02a36c	0.031894132
241	0xbe9ae3ba	-0.30251867
242	0x3dd497a2	0.10380484
243	0xbe17ba71	-0.14817216
244	0x3efcfe89	0.49412945
245	0xbe1571e6	-0.1459423
246	0xbdd4eb05	-0.10396389
247	0x3da2aea2	0.07943465
248	0xbdc17dd9	-0.09447832
249	0xbf09184b	-0.53552693
250	0x3e56bcf3	0.20970516
251	0x3d77b6e1	0.06047714
252	0xbf605110	-0.8762369
253	0xbdc85234	-0.09781304
254	0x3e55d874	0.20883352
255	0x3d4ad10e	0.049515776

onnx::MatMul_25 f4 [512, 256]
0	0x3ea2f0e7	0.3182442
1	0x3e2fd67d	0.17171665
2	0xbe81111b	-0.25208363
3	0x3e848d7d	0.25889197
4	0xbe0d3721	-0.13790561
5	0x3e6736e6	0.22579536
6	0xbd85173e	-0.06498574
7	0x3e4e81ed	0.2016675
8	0x3e0e4647	0.13893996
9	0xbc878581	-0.016543152
10	0xbead6a57	-0.33870193
11	0xbd1535b8	-0.036428183
12	0x3dfcd98d	0.12346182
13	0x3e034ab4	0.12821466
14	0xbd58cd12	-0.052929945
15	0x3e03feb1	0.12890126
16	0xbd1868b2	-0.03720922
17	0x3d113aea	0.035456575
18	0xbe91e558	-0.28495288
19	0xbef18064	-0.47168267
20	0xbd051d4a	-0.032498635
21	0xbea468a5	-0.32111087
22	0xbcb4b0e8	-0.022057012
23	0x3db8d164	0.09024313
24	0xbda57485	-0.08078865
25	0xbe6c18f5	-0.23056395
26	0xbd1b5438	-0.037922114
27	0x3d73e6ac	0.059546158
28	0x3d96a197	0.073550396
29	0x3e3671ac	0.178168
30	0xbf0496d0	-0.5179262
31	0x3db716f5	0.089399256
32	0xbd8ba512	-0.06818594
33	0xbe4f7c76	-0.20262322
34	0xbed92406	-0.42410296
35	0xbe9d7586	-0.30753726
36	0xbea31a0c	-0.3185581
37	0x3eb3cecd	0.35118714
38	0xbe2ef086	-0.1708394
39	0xbdc93003	-0.09823611
40	0xbe61f4b3	-0.22066002
41	0xbe2b91b8	-0.16754806
42	0xbdb28d01	-0.087183006
43	0x3bbc1ba6	0.0057406006
44	0x3e15eaa7	0.14640294
45	0x3e1c5ad4	0.15269023
46	0x3c6a9281	0.014317156
47	0x3d46696d	0.048440386
48	0xbf87e30f	-1.0616168
49	0x3dda5226	0.106602
50	0xbe82e0c4	-0.25562108
51	0x3dbac568	0.091196835
52	0xbdde9e57	-0.10870045
53	0xbeb2f46d	-0.34952107
54	0x3d8b8ff9	0.0681457
55	0xbe161ab6	-0.14658627
56	0xbe19bdca	-0.15013805
57	0x3e11eadd	0.1424975
58	0x3e7b862d	0.24562903
59	0x3e279b86	0.16367921
60	0x3e625868	0.22104037
61	0x3beb22e3	0.0071757897
62	0xbe182bff	-0.14860533
63	0xbe09fa0b	-0.1347429
64	0x3d866272	0.06561746
65	0x3d0a9e65	0.033842463
66	0xbe63cf2a	-0.22246996
67	0xbd9f8496	-0.07788961
68	0x3e7b57b6	0.24545178
69	0xbdb1cbf9	-0.08681483
70	0xba526621	-0.00080260827
71	0xbdeb059b	-0.114756785
72	0x3da46113	0.08026328
73	0x3d6ada5b	0.057337146
74	0xbe2e822c	-0.17041844
75	0x3e0a871d	0.13528104
76	0x3e4255b8	0.18978012
77	0xbeb38484	-0.3506204
78	0xbde30025	-0.11084012
79	0xbca79e09	-0.0204611
80	0x3e59bbb5	0.21263011
81	0xbebe39ba	-0.37153417
82	0x3e507758	0.20358026
83	0x3cca23c8	0.024675265
84	0xbe692884	-0.22769362
85	0xbebca41e	-0.3684396
86	0xbe40c707	-0.18825923
87	0xbd1614e6	-0.036641024
88	0xbdaa2a49	-0.083088465
89	0xbd1b6432	-0.03793735
90	0x3df1d1b3	0.11807575
91	0x3e11f6e9	0.14254345
92	0x3ebdac24	0.37045395
93	0xbea96c10	-0.33090258
94	0xbe210c78	-0.15727413
95	0xbeb90b3a	-0.36141378
96	0x3d52fdf3	0.051511716
97	0x3d8b0548	0.06788117
98	0xbe199cd9	-0.15001239
99	0x3d71b58d	0.05901103
100	0xbdd816f6	-0.105512545
101	0x3d848898	0.06471366
102	0x3ec5d1a9	0.3863652
103	0xbd834f9e	-0.0641167
104	0xbead4a83	-0.3384591
105	0xbdc33d8c	-0.095332235
106	0xbe1b6660	-0.15175772
107	0xbe9f08a7	-0.3106129
108	0x3d8d9302	0.06912805
109	0x3ded7cb8	0.11596054
110	0x3dda0b68	0.10646707
111	0xbe291ba5	-0.16514452
112	0x3e827d85	0.2548639
113	0xbd848777	-0.0647115
114	0x3e4993b2	0.19685248
115	0xbd9f616f	-0.07782256
116	0x3d949977	0.072558336
117	0xbe9c5626	-0.30534476
118	0xbeb815ee	-0.3595423
119	0xbd91a676	-0.07111828
120	0x3bc94045	0.0061416947
121	0x3dda995e	0.10673784
122	0xbe07b751	-0.13253523
123	0xbeefc518	-0.46830058
124	0xbde37327	-0.11105948
125	0x3e3785fc	0.17922205
126	0x3d00800d	0.03137212
127	0x3e93efa3	0.28893766
128	0x3eae4474	0.340366
129	0x3e22c57d	0.15895648
130	0x3c9bc182	0.01901317
131	0x3e9574bc	0.29190624
132	0x3e0e1927	0.13876782
133	0x3ed38f7e	0.41320413
134	0xbdab4217	-0.08362215
135	0xbe32e989	-0.17471899
136	0x3e30a708	0.17251217
137	0x3e77a49a	0.24183884
138	0x3e17e251	0.14832427
139	0xbea037a8	-0.31292462
140	0xbe82020d	-0.2539219
141	0xbce2db03	-0.027692324
142	0x3c4e3bbd	0.012587485
143	0x3cd59eb3	0.02607665
144	0xbeee28a0	-0.4651537
145	0x3e89a444	0.26883137
146	0x3ce3ec19	0.027822541
147	0xbe11ca24	-0.14237267
148	0xbf2e7a74	-0.681556
149	0x3e943cc2	0.28952605
150	0x3dab574c	0.0836626
151	0xbdd89650	-0.10575545
152	0x3d8b6b0b	0.06807526
153	0x3dc7f9f3	0.09764471
154	0x3cfdc961	0.030979814
155	0xbe97f79b	-0.29681095
156	0x3ceeb04f	0.029136805
157	0x3e917c8c	0.28415334
158	0xbb9da091	-0.004810401
159	0xbdbcdc6b	-0.09221729
160	0x3e3e6fe6	0.18597373
161	0x3d8bb3f9	0.068214364
162	0xbe9f5134	-0.3111664
163	0xbdeeee41	-0.11666537
164	0x3e22f797	0.1591476
165	0xbecda65e	-0.4016599
166	0x3ec78690	0.3896985
167	0xbdf6f531	-0.12058485
168	0x3ea76d0b	0.3270038
169	0xbe60ba65	-0.21946104
170	0x3e097710	0.13424325
171	0xbc51eff2	-0.012813555
172	0x3cc6e6e1	0.024280014
173	0xbe019d62	-0.12657693
174	0xbbf20669	-0.007386018
175	0x3e85fefc	0.261711
176	0x3e0b05c8	0.13576424
177	0xbe410633	-0.18850021
178	0xbe086da7	-0.13323079
179	0x3dbd2bdc	0.09236881
180	0x3e4ce4b1	0.20009114
181	0xbd82f13b	-0.06393667
182	0xbe988aec	-0.2979349
183	0xbf347317	-0.70488113
184	0x3dec1a7f	0.11528491
185	0x3e38dda2	0.18053296
186	0x3d0afbdb	0.033931594
187	0x3d3f7bbf	0.046748873
188	0x3dfd75b5	0.123759665
189	0xbf2079f5	-0.6268609
190	0xbd518485	-0.05115177
191	0xbe2b1fa5	-0.1671129
192	0xbed2ba80	-0.41157913
193	0xbebd182a	-0.36932498
194	0x3e2296d1	0.15877844
195	0x3dd53fe5	0.104125775
196	0xbeaacb18	-0.33358073
197	0x3d9b741d	0.07590506
198	0xbe924816	-0.28570622
199	0xbd05efcf	-0.032699402
200	0xbee5f282	-0.4491158
201	0xbddcbaca	-0.10777815
202	0xbd87b7ba	-0.0662684
203	0x3d3c813a	0.046021678
204	0x3c8564ea	0.016283471
205	0xbca61bce	-0.02027693
206	0xbe6dd3ce	-0.23225328
207	0xbd44fda5	-0.048093457
208	0x3e9c5430	0.3053298
209	0xbe5610c3	-0.20904832
210	0xbdae8acb	-0.085225664
211	0x3e2139d4	0.15744716
212	0x3d2424c1	0.040074114
213	0x3dea9450	0.114540696
214	0xbecf49a4	-0.4048587
215	0xbea78eed	-0.3272623
216	0x3eafeb9e	0.3435945
217	0x3e859252	0.26088196
218	0xbe33cfc5	-0.17559727
219	0xbda8b79d	-0.082381465
220	0xbe58a68b	-0.21157281
221	0xbe7ce029	-0.24694885
222	0x3d42376f	0.047416147
223	0x3dbcd41b	0.092201434
224	0xbd09e61a	-0.033666708
225	0x3e8cbebc	0.2748927
226	0xbe85d060	-0.2613554
227	0xbcab5f8c	-0.020919584
228	0xbe29d5e1	-0.16585495
229	0x3dff69cd	0.12471352
230	0xbd17e7e1	-0.03708637
231	0x3edafd21	0.42771247
232	0x3dedd3f8	0.116126955
233	0xbf0080ed	-0.50196725
234	0x3e08660a	0.13320175
235	0xbc89619f	-0.016770182
236	0x3e8dfe08	0.27732873
237	0x3e2836c8	0.16427147
238	0x3dff386b	0.12461933
239	0xbe875c21	-0.26437476
240	0x3d12b142	0.035813577
241	0x3e4a663a	0.19765559
242	0xbeae27a5	-0.3401462
243	0xbe1f6951	-0.15567519
244	0xbf5398bc	-0.8265493
245	0x3e0c9230	0.13727641
246	0x3dd3e724	0.10346821
247	0xbedf69d3	-0.43635425
248	0x3e66e024	0.2254644
249	0xbea76aff	-0.3269882
250	0xbdbc2db1	-0.091884024
251	0xbd0b171f	-0.033957597
252	0x3d6c1972	0.057641454
253	0x3e330a07	0.17484294
254	0x3bcc99a8	0.006243903
255	0xbe16047c	-0.14650148

onnx::MatMul_26 f4 [256, 128]
0	0xbe52bdb8	-0.20580184
1	0x3dbdc29c	0.092656344
2	0xbdd9b96b	-0.10631069
3	0x3d7ab231	0.061205093
4	0x3f2f74ed	0.6853779
5	0xbdc11a4f	-0.09428846
6	0xbe9e8673	-0.30961952
7	0xbd37ba71	-0.04485554
8	0xbe0cd615	-0.13753541
9	0x3e6c7521	0.23091556
10	0xbf2c9d7a	-0.6742779
11	0xbc2a1142	-0.010380091
12	0x3eb07418	0.34463573
13	0x3d64b99c	0.055841073
14	0xbd5cfb5e	-0.05395066
15	0xbeb4ae8e	-0.35289425
16	0xbe39c814	-0.1814273
17	0xbc27d49c	-0.010243561
18	0x3c75dbc6	0.015006011
19	0xbe0366de	-0.1283221
20	0xbe0d62c9	-0.13807215
21	0xbeaa29cf	-0.33235022
22	0xbd5c9f93	-0.05386312
23	0xbca48c01	-0.02008629
24	0xbdc90e42	-0.098171726
25	0xbe07627e	-0.13221166
26	0xbe503c87	-0.2033559
27	0xbd34fd31	-0.044186775
28	0xbe8a0c1d	-0.26962367
29	0x3d8f270e	0.06989871
30	0x3c17b54c	0.009259533
31	0x3d95ea3c	0.07320067
32	0x3e0b65c1	0.13613035
33	0x3ec81083	0.39075097
34	0xbf1abfde	-0.60449016
35	0x3e29dbb6	0.1658772
36	0xbe0bea03	-0.13663487
37	0xbe2f23d0	-0.17103505
38	0x3dde2cc5	0.10848383
39	0x3e03d29e	0.12873313
40	0xbeb55030	-0.3541274
41	0x3d9d9bb8	0.076957166
42	0xbc7c8d46	-0.015414542
43	0xbef0bc23	-0.47018537
44	0xbe35c390	-0.17750382
45	0x3ad335ec	0.0016114092
46	0x3d775075	0.060379464
47	0xbd2e7ff1	-0.042602483
48	0xbe0f09ee	-0.13968632
49	0x3d804c5d	0.06264565
50	0xbe15660f	-0.14589714
51	0xbe8e0179	-0.277355
52	0xbe8b70c0	-0.2723446
53	0x3d377b88	0.044795543
54	0xbe0f6860	-0.1400466
55	0xbdd35cda	-0.103204444
56	0xbe13fb92	-0.14451435
57	0xbddc3448	-0.10752159
58	0xbe246b52	-0.16056564
59	0xbd76bad7	-0.060236778
60	0xbe8497b2	-0.25896984
61	0xbec3ddb1	-0.38255075
62	0xbd1c6b63	-0.03818835
63	0xbe3cf884	-0.18454176
64	0xbf28af5e	-0.6589259
65	0x3e2ecf4d	0.17071266
66	0xbe952bc5	-0.29134956
67	0xbecd977f	-0.40154645
68	0x3e723532	0.23653105
69	0xbdcbe5d2	-0.09955944
70	0x3c69797a	0.014250154
71	0x3da7f476	0.08200924
72	0x3dd0ed20	0.10201478
73	0x3de5fd22	0.11229922
74	0x3dbd0c36	0.09230845
75	0x3db2415c	0.087038726
76	0x3d8d0ac1	0.06886817
77	0xbd034f5e	-0.032058112
78	0xbdd635e9	-0.10459501
79	0xbf7d316f	-0.98903555
80	0xbf059bcc	-0.5219085
81	0xbe907c5f	-0.28219888
82	0xbc816a66	-0.015797805
83	0xbf2e6f54	-0.68138623
84	0xbe2d1148	-0.16901124
85	0x3e39360b	0.18087022
86	0xbddf0fc3	-0.10891678
87	0x3d4c9405	0.04994585
88	0xbe4ff9d5	-0.20310147
89	0x3d8925a5	0.06696633
90	0xbf0408e3	-0.5157606
91	0x3e29b744	0.16573817
92	0xbe57d4c4	-0.21077257
93	0xbe849917	-0.25898048
94	0x3e21ff71	0.158201
95	0x3daa98e7	0.08329945
96	0xbe5e5246	-0.21711072
97	0xbefa7e36	-0.48924416
98	0x3d28d4ef	0.041218694
99	0x3eafa688	0.3430674
100	0xbd0f8078	-0.035034627
101	0x3daea032	0.085266486
102	0xbb192bae	-0.0023371982
103	0xbedc977f	-0.43084332
104	0xbd698151	-0.05700809
105	0xbf27c767	-0.6553864
106	0xbd4482c6	-0.047976278
107	0xbd1a676b	-0.037696283
108	0xbebb7a67	-0.36616823
109	0xbcf86e84	-0.030326135
110	0xbeb79a96	-0.35860127
111	0xbe8f07c7	-0.2793562
112	0xbd6537dc	-0.055961475
113	0xbd8a50d5	-0.06753699
114	0x3e3ced50	0.18449903
115	0x3e90e47d	0.28299323
116	0x3dfac2e8	0.12244207
117	0x3e947763	0.28997335
118	0xbe5a7df0	-0.21337104
119	0x3cbae4e3	0.02281422
120	0xbe94822a	-0.29005557
121	0xbe73d1a0	-0.23810434
122	0xbe38215c	-0.17981476
123	0xbef9d37b	-0.4879416
124	0xbd0ff272	-0.035143323
125	0xbdab87cb	-0.0837551
126	0xbe608775	-0.21926673
127	0x3d615cfc	0.055020317
128	0xbe71074b	-0.23537938
129	0x3dc0fdf9	0.094234414
130	0x3d0af4e0	0.033924937
131	0xbc8caaf6	-0.017171364
132	0x3e5b9130	0.21442103
133	0xbf4920dc	-0.78565764
134	0xbedfcf22	-0.43712717
135	0x3dbf1487	0.09330087
136	0xbf041700	-0.51597595
137	0xbee99210	-0.4561925
138	0xbeb40ad3	-0.35164508
139	0xbe70f0d0	-0.23529363
140	0x3e0003d5	0.12501462
141	0xbc225bbb	-0.009909566
142	0x3e6b608d	0.2298605
143	0x3dc435e6	0.09580593
144	0x3e2ca049	0.16858019
145	0x3d8506a4	0.06495407
146	0xbec69140	-0.38782692
147	0x3bf29234	0.0074026827
148	0xbe815516	-0.25260228
149	0x3ebc2cd9	0.36752966
150	0x3db79c21	0.08965326
151	0x3d41fbd8	0.047359318
152	0x3e2c8d00	0.16850662
153	0xbebddeb9	-0.37083986
154	0x3e90e7c1	0.28301814
155	0x3e80e270	0.25172758
156	0x3e1ef6c2	0.15523818
157	0xbdbaba6b	-0.09117588
158	0x3ef7ddc2	0.48411375
159	0x3d699852	0.05703003
160	0x3e2e1bcd	0.17002793
161	0xbd6f53d2	-0.058429547
162	0x3d9a4614	0.075328976
163	0xbc92dc11	-0.017927201
164	0xbf19d2be	-0.6008719
165	0x3dbdc856	0.09266727
166	0xbe1481eb	-0.14502685
167	0xbe39a44a	-0.18129078
168	0xbd8d200b	-0.06890877
169	0xbb9b60a2	-0.004741744
170	0xbe2ab0e1	-0.16669036
171	0xbd25df8f	-0.040496405
172	0xbe783173	-0.24237613
173	0xbe5c649a	-0.21522751
174	0xbc0c4f45	-0.008563821
175	0xbdda845f	-0.10669779
176	0xbe608927	-0.2192732
177	0x3e53a7b6	0.20669445
178	0xbd7dd428	-0.061969906
179	0xbe09b81e	-0.13449141
180	0xbdc035bc	-0.09385249
181	0xbe4f0694	-0.20217353
182	0xbf34b459	-0.7058769
183	0x3dbdf009	0.09274299
184	0xbd4f7046	-0.05064418
185	0xbeac6b65	-0.33675686
186	0x3e4ae3bc	0.19813436
187	0x3e86dd86	0.26340884
188	0x3d741e07	0.05959895
189	0x3ec04501	0.37552646
190	0xbdd85b0d	-0.105642416
191	0xbe2673a3	-0.1625505
192	0xbd821423	-0.06351497
193	0xbf43d847	-0.7650189
194	0xbd39968a	-0.04530958
195	0x3b30281c	0.0026879376
196	0x3da1c60a	0.07899101
197	0x3c326679	0.010888689
198	0xbe3e256c	-0.18568963
199	0x3d851369	0.06497843
200	0xbdc42855	-0.09578005
201	0x3e594d9d	0.21221013
202	0xbfe55f9c	-1.7919803
203	0xbfa6cccb	-1.3031248
204	0xbe0b5c03	-0.13609318
205	0xbe096502	-0.13417438
206	0xbdef49fe	-0.11684035
207	0xbe85043b	-0.2597979
208	0x3da42083	0.080140136
209	0x3e4cc1bf	0.19995783
210	0x3d874538	0.06604999
211	0x3e89c83d	0.26910582
212	0xbeb2bc22	-0.3490916
213	0x3d4c049b	0.04980908
214	0xbea5cf2e	-0.32384628
215	0x3f379e99	0.71726376
216	0x3e1ac532	0.15114287
217	0xbf86a1fa	-1.0518181
218	0x3c3b408e	0.011428965
219	0x3bd56c71	0.0065131714
220	0xbe907e4f	-0.28221366
221	0xbe099a27	-0.1343771
222	0x3e0c15b0	0.13680148
223	0xbec07879	-0.37591913
224	0xbf23adae	-0.6393689
225	0xbe1405dc	-0.1445536
226	0x3e2a4420	0.1662755
227	0x3e905bb4	0.28194964
228	0x3dc9750b	0.09836777
229	0x3e6d12d7	0.23151718
230	0x3ed4b501	0.41544345
231	0xbf5d2675	-0.86386806
232	0x3d2705a3	0.04077686
233	0x3d823ce4	0.0635927
234	0xbf16a70f	-0.5884866
235	0xbd12570f	-0.035727557
236	0x3f20648a	0.6265341
237	0x3e9a5803	0.30145273
238	0xbe55fdc3	-0.20897584
239	0x3e085299	0.13312759
240	0xbe863006	-0.26208514
241	0xbe3f210c	-0.1866495
242	0xbf914e93	-1.1352104
243	0x3e70f3ba	0.23530474
244	0xbdc2fc4b	-0.09520777
245	0xbf5a4087	-0.8525471
246	0xbde8121e	-0.113315806
247	0xbf3a4740	-0.7276497
248	0x3e2faed6	0.17156538
249	0xbe8355db	-0.2565144
250	0xbe0220f1	-0.12707879
251	0x3e3dc34d	0.18531533
252	0x3de07e17	0.1096155
253	0xbd3dff7d	-0.04638623
254	0x3e80cad6	0.25154752
255	0xbda37b1f	-0.07982468

onnx::MatMul_27 f4 [128, 8]
0	0x3de18059	0.110108085
1	0xbe88c673	-0.26713905
2	0x3d29477f	0.04132795
3	0x3e864d5c	0.26230896
4	0x3e0f422d	0.13990088
5	0x3dc7e79e	0.09760974
6	0xbf464484	-0.77448297
7	0xbe91fa7e	-0.28511423
8	0x3d2f12f4	0.042742684
9	0x3bcdf225	0.0062849694
10	0xbef2682a	-0.47345096
11	0x3fd1a55b	1.6378587
12	0xbc93c1a4	-0.018036671
13	0x3de5417e	0.11194132
14	0x3e53dc1b	0.20689432
15	0xbe0e4626	-0.13893947
16	0xbd6ffe01	-0.058591846
17	0xba792483	-0.0009504037
18	0x3f776e5c	0.9665277
19	0xbe46e228	-0.1942221
20	0x3e3277fd	0.17428584
21	0xbe298b5a	-0.16557065
22	0xbf045245	-0.51688033
23	0x3dd29639	0.10282559
24	0x3c965456	0.018350761
25	0xbd623cb6	-0.05523368
26	0x3fe0fcc1	1.7577134
27	0xbe5a6bb0	-0.21330142
28	0x3e5ac5d1	0.21364523
29	0xbdd0ba45	-0.10191778
30	0xbdab02b8	-0.08350128
31	0xbcba2c05	-0.022726068
32	0xbc7aec1d	-0.015315083
33	0x3c97ad5b	0.01851528
34	0xbf405b19	-0.75139004
35	0x3e6fcaa6	0.23417148
36	0xbcd8b9a1	-0.026455702
37	0x3d968e83	0.07351401
38	0x3ee97ade	0.45601553
39	0xbfb5b55d	-1.4195973
40	0xbe8a128b	-0.26967272
41	0x3cf09673	0.029368615
42	0xbf0aed7a	-0.5426861
43	0xbea65ade	-0.324912
44	0xbe7859c5	-0.24252994
45	0x3b804301	0.0039142375
46	0x3eb7a15d	0.35865298
47	0x3e44fd1d	0.1923718
48	0x3df3e679	0.119091935
49	0xbd8b932f	-0.068151824
50	0xbedbc6db	-0.42925152
51	0xbd0678e5	-0.032830138
52	0xbeb26bd9	-0.34847906
53	0xbeba0d38	-0.3633821
54	0xbfbe1ef1	-1.4853193
55	0xbd835a29	-0.06413681
56	0x3d3907ed	0.045173574
57	0x3d16032b	0.036624115
58	0x4014cbf5	2.3249485
59	0x3d9b0f09	0.07571227
60	0xbd914082	-0.07092382
61	0xbd9399ed	-0.072070934
62	0xbd3a5823	-0.04549421
63	0x3f082216	0.5317701
64	0xbde5f6ce	-0.11228715
65	0xbc44923a	-0.011997754
66	0xbecac248	-0.3960135
67	0xbf874a55	-1.0569559
68	0xbdf7f290	-0.12106812
69	0xbcaaa29f	-0.020829497
70	0x3eb7c844	0.35894978
71	0xbea8f2e1	-0.32997802
72	0x3df2f507	0.118631415
73	0x3d5199b1	0.051171962
74	0xbe43a631	-0.19106366
75	0xbf0f4070	-0.559577
76	0xbe7bc64b	-0.24587362
77	0x3ca92a60	0.020650089
78	0xbebaeac9	-0.36507252
79	0x3de4962d	0.11161456
80	0xbe1bcc2b	-0.15214603
81	0x3d21a762	0.03946627
82	0x3f596444	0.8491862
83	0xbecce36a	-0.40017253
84	0x3a287a8d	0.0006426953
85	0xbd3cf2d4	-0.046130016
86	0x3de917b7	0.11381476
87	0x3c30084b	0.010744165
88	0xbe12bce5	-0.1432987
89	0xbe70ebe4	-0.23527485
90	0xbdb731aa	-0.089450195
91	0x3da4c9c1	0.08046294
92	0x3ea296f8	0.31755805
93	0xbead782f	-0.33880755
94	0xbe50e831	-0.20401074
95	0x3e636129	0.22205032
96	0x3d1af089	0.03782705
97	0xbc8154aa	-0.015787441
98	0xbe79681b	-0.2435612
99	0xbfc7a8e7	-1.559842
100	0x3d3471f2	0.04405398
101	0x3d458eff	0.048232075
102	0x3e84d4a9	0.25943497
103	0xbe9c0b6b	-0.3047746
104	0xbe2433d8	-0.16035402
105	0x3ddce67d	0.1078615
106	0x3f29cf4d	0.6633194
107	0xbe033735	-0.12814029
108	0xbe4e7478	-0.20161617
109	0xbec3a5e2	-0.38212496
110	0xbe8ba9e5	-0.27278057
111	0xb95ce841	-0.00021067356
112	0xbe38df43	-0.18053918
113	0xbd161ff6	-0.036651574
114	0xbed2c9f4	-0.41169703
115	0xbf93f84d	-1.156015
116	0xbc021d79	-0.007941597
117	0x3e0150a4	0.12628418
118	0x3ec5bab0	0.38618994
119	0x3c080589	0.008302101
120	0x3c8089c0	0.015690684
121	0x3dd1b2eb	0.10239204
122	0x3e0297b0	0.12753177
123	0x3dedde05	0.116146125
124	0x3da87539	0.082254834
125	0xbee7f762	-0.45305926
126	0x3d9fec3d	0.07808731
127	0xbe5058a8	-0.2034632
128	0x3e24ae0e	0.16082022
129	0x3e46dcc0	0.19420147
130	0x3e10e9e9	0.1415173
131	0xbefb34fb	-0.49063858
132	0xbd2806bf	-0.04102206
133	0x3bd26047	0.0064201686
134	0xbdf90993	-0.12160029
135	0xbe3c2226	-0.18372402
136	0x3ec5afc1	0.38610652
137	0x3c7e1a4f	0.015509202
138	0x3ecf8776	0.40533036
139	0xbd47c64b	-0.04877309
140	0x3dd623db	0.10456058
141	0xbd44a411	-0.04800803
142	0x3e06ffd5	0.1318353
143	0xbdfc03ad	-0.123053886
144	0xbe94e943	-0.29084215
145	0xbd8fd8da	-0.07023783
146	0xbe71e24f	-0.23621486
147	0x3f32943a	0.69757426
148	0x3e834f9a	0.2564667
149	0x3d7ba894	0.061440066
150	0xbeb34206	-0.3501131
151	0xbe6fd685	-0.23421676
152	0xbdb7081e	-0.08937095
153	0x3e684369	0.22681965
154	0xbeb28dc2	-0.34873778
155	0xbe9271e8	-0.2860253
156	0x3e22c954	0.15897113
157	0x3e1e77e5	0.15475424
158	0x3f189689	0.596047
159	0xbe2864e4	-0.16444737
160	0xbbc8b2fb	-0.0061248518
161	0x3c4e5804	0.012594227
162	0xbe82c2b2	-0.25539166
163	0x3fe3a725	1.7785383
164	0xbd2499ff	-0.040185925
165	0x3cfa01ee	0.030518498
166	0x3e31cfcb	0.17364423
167	0xbd3d40d4	-0.046204403
168	0x3e39f015	0.1815799
169	0xbd81d438	-0.06339306
170	0xbeca534d	-0.39516678
171	0xbe457754	-0.19283801
172	0xbd4f742d	-0.050647903
173	0x3def4c91	0.11684526
174	0x3ecd4e7d	0.40098944
175	0xbddf9fce	-0.10919152
176	0x3be2411f	0.0069047357
177	0xb6be2558	-5.6667886e-06
178	0xbe9573c5	-0.29189888
179	0xbeae0120	-0.33985233
180	0xbd81f447	-0.0634542
181	0x3d7cf832	0.061760135
182	0xbfe9b6dc	-1.8258929
183	0x3d75dcf3	0.060025167
184	0xbd9ace71	-0.07558907
185	0x3cb3ba20	0.021939337
186	0x3f4b2c43	0.79364413
187	0xbe67e96a	-0.22647634
188	0x3ec0ea7e	0.37678903
189	0xbeaded19	-0.33969954
190	0xbf013492	-0.5047084
191	0x3e12224e	0.14270899
192	0xbcc3fe53	-0.023924982
193	0x3d80ef1d	0.06295607
194	0xbeb90102	-0.3613358
195	0x3e4e0520	0.20119143
196	0x3d9a0a57	0.075215034
197	0x3dcdaeb5	0.10043088
198	0x3f20d3ee	0.6282338
199	0x3e7bf1a4	0.24603897
200	0x3d3eef0d	0.046614695
201	0x3c30f542	0.0108006615
202	0x3f42bf11	0.76072794
203	0xbed405e6	-0.4141075
204	0x3d030282	0.031984814
205	0xbe3a8837	-0.18216024
206	0xbfb43b2a	-1.4080555
207	0xbe7dc434	-0.24781877
208	0x3e665f5d	0.22497316
209	0x3e25ff1e	0.162106
210	0xbf18e325	-0.59721595
211	0xbefadad6	-0.48995084
212	0x3d59a103	0.05313207
213	0x3e1aeed9	0.15130176
214	0x3e6245cd	0.2209694
215	0xbd58df57	-0.05294737
216	0xbe5bbe06	-0.21459207
217	0xbe07c89a	-0.13260117
218	0x3f4ca0ee	0.7993306
219	0xbd02ca82	-0.031931408
220	0x3dfe6aaf	0.12422692
221	0x3cef75f2	0.029231045
222	0xbee98f91	-0.45617345
223	0xbedddc98	-0.43332362
224	0xbba71e1a	-0.005100024
225	0xbdeef960	-0.11668658
226	0x3f32ca61	0.69840056
227	0xbdb2631f	-0.08710312
228	0x393630dc	0.00017375074
229	0xbc82fa32	-0.015988443
230	0xbf0acc50	-0.54218006
231	0x3e19be40	0.15013981
232	0x3e85b06b	0.2611116
233	0x3dffbfa3	0.12487724
234	0x3ee52f5b	0.44762692
235	0x3d093796	0.033500277
236	0x3e38a4c9	0.1803161
237	0x3b240080	0.0025024712
238	0xbf4315e2	-0.76205266
239	0xbcbede29	-0.023299294
240	0x3d869dc9	0.06573064
241	0x3d00799c	0.031365976
242	0xbe5562fa	-0.20838538
243	0x3e6a7f27	0.22900067
244	0x3ed38a4c	0.4131645
245	0x3c328a7f	0.010897278
246	0xbd1e14e2	-0.038594134
247	0xbeaa5004	-0.33264172
248	0xbdbeee37	-0.093227796
249	0xbc294f39	-0.01033383
250	0xbf0298b6	-0.5101427
251	0x3fbc6383	1.4717869
252	0x3d4479c6	0.047967695
253	0x3c2138be	0.009840189
254	0x3ef55b15	0.47921053
255	0x3e60584f	0.21908687
